2048AI_model_3_lr_0.01_ver_7.pt (torch_old, 36117 bytes, 8 tensors)

conv1.weight f4 [10, 3, 10, 10]
-0.16482109 -0.04409153 0.49664816 1.0679176 1.1056648 0.6158524 0.3507072 0.38205975
0.4218108 0.02188806 -0.16280153 0.0024139064 0.3062244 0.8774178 1.3420618 0.6558271
0.48685578 0.37797138 0.21557568 -0.019304903 -0.1468276 -0.014702154 0.28352913 0.8580873
1.1702127 0.72324014 0.3839147 0.15857157 -0.092173696 -0.14009996 0.10008906 0.0866721
0.40045702 0.9510966 1.1204215 0.5398632 0.3879773 0.11935954 -0.08219087 -0.007457899
0.17738256 0.113370225 0.41670266 0.84344554 0.9818532 0.43934464 0.15230457 0.23943087
0.13685639 0.15776165 0.3800571 0.16124517 0.3549713 0.85767376 0.96018875 0.498445
0.339255 0.3696006 0.75326234 0.24659209 0.24374753 0.07292671 0.25266033 0.8317908
0.99083656 0.5875955 0.45847526 0.49348152 0.7044154 0.071708575 -0.02103514 -0.137295
0.20101382 0.9298039 0.91645867 0.7376217 0.65470916 0.56124455 0.46301338 0.025031537
-0.11925953 -0.19900638 0.26892313 0.957204 1.0675277 0.7994549 0.64161587 0.34804162
0.21350436 0.11723703 0.12024805 -0.27165043 0.09294291 0.8274382 1.0377854 0.8131992
0.4719284 0.21989402 0.38470894 0.24478078 -0.55652153 -0.44760153 -0.11006612 0.44085905
0.4489621 0.113869585 -0.08688345 -0.19399478 -0.03349412 -0.23231366 -0.79832786 -0.7617963
-0.33381498 0.054488845 0.28945547 -0.06954187 -0.23145165 -0.47587544 -0.47130945 -0.53324914
-0.69787544 -0.66545606 -0.42254496 0.027684232 0.07991449 -0.20824307 -0.34014228 -0.5726052
-0.6296564 -0.71009004 -0.6768364 -0.6533511 -0.34617233 0.067711465 -0.009684456 -0.27996147
-0.45972118 -0.63971466 -0.70678777 -0.6194234 -0.549971 -0.5431948 -0.27318007 0.0037556458
-0.15732425 -0.50828785 -0.66897345 -0.75240934 -0.60420245 -0.4674239 -0.39151737 -0.47387975
-0.32140028 -0.045117285 0.046756417 -0.27351856 -0.29756314 -0.42390287 -0.12134942 -0.317812
-0.52811223 -0.69239914 -0.521943 -0.021928491 -0.03000317 -0.16794488 -0.2440944 -0.21950772
-0.15734453 -0.51301277 -0.723369 -0.77530307 -0.5575034 -0.05449009 -0.111603834 -0.15208009
-0.14096038 -0.27633417 -0.48326653 -0.6712214 -0.7089395 -0.8014063 -0.51218 0.1635731
0.10346402 0.009628049 -0.12700461 -0.3819896 -0.43704078 -0.39887488 -0.5296422 -0.805226
-0.6220785 0.08862038 0.2376994 0.026696399 -0.21344742 -0.31780595 -0.2832985 -0.33952838
-0.8548228 -0.84869003 -0.41752204 -0.28885302 -0.22031128 -0.41063225 -0.58062756 -0.6372924
-0.55327046 -0.49131674 -1.028822 -0.9438208 -0.6948656 -0.5288781 -0.43555 -0.64694643
-0.794562 -0.79725677 -0.8020637 -0.8049806 -0.98998934 -0.8827616 -0.760939 -0.48525482
-0.469565 -0.73211396 -0.91337925 -0.9768146 -0.9599116 -1.0159057 -0.95671207 -1.0414803
-0.75219303 -0.5483349 -0.5083864 -0.8740547 -0.94911885 -1.1771919 -1.0487708 -0.8763734
-1.0137098 -1.0154017 -0.6971225 -0.5746443 -0.6715492 -1.0400767 -1.2261237 -1.2640985
-1.0285153 -0.75911456 -0.8073513 -1.0060467 -0.7994701 -0.5871478 -0.651449 -0.8952602
00000000: dcc6 28be 5299 34bd ab48 fe3e 86b1 883f
00000010: 6d86 8d3f 81a8 1d3f e58f b33e 569d c33e
00000020: 96f7 d73e 974e b33c 72b5 26be a132 1e3b
00000030: 72c9 9c3e 749e 603f aec8 ab3f 49e4 273f
00000040: 2945 f93e 7785 c13e dfbf 5c3e 5125 9ebc
00000050: f959 16be 4ee1 70bc bb2a 913e 9cab 5b3f
00000060: 88c9 953f 4426 393f 7890 c43e 9660 223e
00000070: 90c5 bcbd 5d76 0fbe 7efb cc3d 2481 b13d
00000080: b408 cd3e 117b 733f f969 8f3f 7a34 0a3f
00000090: f6a4 c63e c672 f43d b053 a8bd 6461 f4bb
000000a0: c6a3 353e a62e e83d 0d5a d53e 0cec 573f
000000b0: bb5a 7b3f c8f1 e03e bbf5 1b3e 5e2d 753e
000000c0: 1524 0c3e 458c 213e d896 c23e 741d 253e
000000d0: ccbe b53e 8290 5b3f eece 753f 2f34 ff3e
000000e0: d5b2 ad3e 4a3c bd3e cdd5 403f a382 7c3e
000000f0: f498 793e 995a 953d b25c 813e 3ef0 543f
00000100: 77a7 7d3f a96c 163f 45bd ea3e 9ca9 fc3e
00000110: 9154 343f f2db 923d e351 acbc 0f97 0cbe
00000120: 91d6 4d3e a107 6e3f 099d 6a3f c7d4 3c3f
00000130: 059b 273f b9ad 0f3f 1710 ed3e f00e cd3c
00000140: 573e f4bd 54c8 4bbe 4bb0 893e 520b 753f
00000150: bfa4 883f 14a9 4c3f f040 243f 8332 b23e
00000160: e3a0 5a3e f819 f03d 9c44 f63d c415 8bbe
00000170: da58 be3d fdd2 533f 27d6 843f d32d 503f
00000180: 99a0 f13e e62b 613e 92f8 c43e d0a7 7a3e
00000190: 3278 0ebf 072c e5be 596a e1bd 47b8 e13e
000001a0: 5cde e53e 7534 e93d f3ef b1bd 91a6 46be
000001b0: 2131 09bd a2e3 6dbe 375f 4cbf 1505 43bf
000001c0: cce9 aabe b22f 5f3d 8233 943e f86b 8ebd
000001d0: a901 6dbe f2a5 f3be 794f f1be 0483 08bf
000001e0: f7a7 32bf 545b 2abf d057 d8be 0bca e23c
000001f0: 35aa a33d ac3d 55be 2127 aebe 4196 12bf
00000200: 2931 21bf 76c8 35bf 2645 2dbf 0542 27bf
00000210: 803d b1be 4fac 8a3d 8dab 1ebc 1c57 8fbe
00000220: 9360 ebbe 57c4 23bf 0bf0 34bf 8892 1ebf
00000230: e6ca 0cbf d00e 0bbf 42de 8bbe 4821 763b
00000240: 9c19 21be 271f 02bf d841 2bbf e69d 40bf
00000250: 03ad 1abf 2f52 efbe f774 c8be 5ea0 f2be
00000260: 948e a4be e7cc 38bd a883 3f3d a00a 8cbe
00000270: 325a 98be cc09 d9be 0b86 f8bd 41b8 a2be
00000280: 5d32 07bf 1241 31bf 0e9e 05bf 61a3 b3bc
00000290: 35c9 f5bc bef9 2bbe e2f3 79be a2c6 60be
000002a0: ed1e 21be ce54 03bf b62e 39bf 437a 46bf
000002b0: 8bb8 0ebf 0031 5fbd 8d90 e4bd e2ba 1bbe
000002c0: eb57 10be ac7b 8dbe b66e f7be 2ad5 2bbf
000002d0: 0f7d 35bf f728 4dbf 3a1e 03bf b57f 273e
000002e0: f2e4 d33d f7be 1d3c 7f0d 02be 2494 c3be
000002f0: cfc3 dfbe 5439 ccbe a296 07bf 4b23 4ebf
00000300: 8940 1fbf 9a7e b53d 7967 733e 68b2 da3c
00000310: f691 5abe 76b7 a2be 800c 91be aad6 adbe
00000320: abd5 5abf c043 59bf 73c5 d5be 8be4 93be
00000330: 4899 61be 643e d2be 02a4 14bf 9825 23bf
00000340: 22a3 0dbf de8d fbbe 70b0 83bf 3d9e 71bf
00000350: b6e2 31bf 8e64 07bf 6900 dfbe 489e 25bf
00000360: 6a68 4bbf 0519 4cbf 0c54 4dbf 3513 4ebf
00000370: f16f 7dbf aafc 61bf e6cc 42bf 5273 f8be
00000380: d36a f0be d26b 3bbf 39d3 69bf 8610 7abf
00000390: c4bc 75bf 3309 82bf 15eb 74bf 3a4f 85bf
000003a0: b98f 40bf ad5f 0cbf 9c25 02bf 0cc2 5fbf
000003b0: 74f9 72bf 39ae 96bf 1f3e 86bf 025a 60bf
000003c0: 3ec1 81bf aff8 81bf 9f76 32bf e41b 13bf
000003d0: a6ea 2bbf 3c21 85bf 9ff1 9cbf fbcd a1bf
000003e0: 64a6 83bf 5555 42bf 93ae 4ebf 23c6 80bf
000003f0: 13aa 4cbf 514f 16bf 5dc5 26bf c62f 65bf

conv1.bias f4 [10]
-0.512748 0.67124915 0.18825293 -0.09969409 -0.029674914 0.373912 0.020993562 -0.14052816
-0.2893698 0.94465595
00000000: 7443 03bf fcd6 2b3f 60c5 403e 6a2c ccbd
00000010: ce18 f3bc 6571 bf3e b1fa ab3c 9de6 0fbe
00000020: 4728 94be f9d4 713f

conv2.weight f4 [20, 10, 4, 4]
-0.04335723 -0.06762032 0.13951172 -0.03719772 0.56473404 0.57575816 0.48619285 0.3910558
-0.33516568 0.3666732 0.39912447 0.008702578 0.18245539 0.45973626 0.38565406 0.97064877
-0.16935107 -0.00952674 0.2827573 0.5053801 0.17916797 0.606293 0.5614966 0.402072
-0.7430869 0.7851078 0.8309735 0.23487909 -0.72626054 0.74977857 0.17072392 0.596703
0.6941324 -0.65231097 0.3401473 -0.021640843 -0.062082272 -0.8095691 0.14434117 0.20431498
0.31715924 -0.6760228 0.19744828 0.2553226 0.44483036 -0.49591646 0.1164251 0.5439434
-1.1183565 -1.6977899 -1.636615 -1.72147 -1.1744813 -1.5301261 -1.5522976 -1.5259609
-0.9517631 -1.1999747 -1.4465058 -1.2167301 -1.1646769 -1.0073853 -1.497874 -1.1843411
0.6461845 -1.5709778 -0.66920197 -1.3954068 0.4553265 -1.2061708 -0.6183796 -0.225477
0.5714132 -1.1307012 -0.10080623 -0.86577433 0.73771054 -0.5333109 -0.16449018 0.45867452
-0.28815722 0.28582087 0.69040596 0.9415985 -0.019802513 0.41355327 0.6168681 0.5988827
-0.95456004 0.70137316 0.76818866 0.59395474 -1.0437108 0.83413655 0.69023275 0.91595286
-0.08879017 0.25816768 0.7144462 0.8707044 0.43679994 0.75332475 0.69641244 0.7630855
-0.32797563 0.3311251 0.91562766 0.5764924 -0.36887428 0.41129774 0.543148 0.83585274
0.22211502 0.3199244 0.1597338 0.33908615 0.7521253 0.57743204 0.3838703 0.45498148
0.283461 0.6186191 0.65053505 0.5007921 0.14537379 0.5134327 0.5826396 0.5823649
1.1861768 -0.72998995 0.41144723 -0.14765653 0.28476223 -0.7070294 -0.024687074 0.27394083
0.93828154 -0.59376025 -0.23611319 0.30369225 1.2707907 -0.3704885 -0.056957245 0.3045373
-0.63366556 -0.73605615 -0.30046466 0.4158738 -0.88963133 -0.8883656 -0.4925558 -0.46593684
-1.2178503 -0.34448266 0.10066669 0.31924334 -1.2583516 -0.5533904 0.5201513 -0.1250137
0.2796339 0.62087816 0.6853188 0.5594298 0.29140556 0.5166809 0.24225184 0.51686645
0.63509434 -0.08844995 -0.3488896 -0.22501886 0.55805457 0.89966816 -0.39212856 -0.018639663
-0.29414156 0.2666312 0.19897856 -0.08334033 -0.19197764 0.15042755 -0.12580864 -0.069274865
-0.112623855 -0.08709783 -0.20147629 -0.5142623 -0.19073685 0.42870498 -0.1520137 1.1054072
0.004696673 -0.7401569 0.19784333 -0.4046952 0.08575162 -0.60583276 1.0161027 0.032023534
0.75555176 -0.42548442 -0.16789393 0.018536009 0.6244085 2.4274108 -0.23439428 2.2823663
-0.12006053 0.17487362 -0.4712545 -0.2038451 0.49876717 -0.0061846813 -0.06271184 -0.35592768
-0.13881953 -0.2582819 -0.040412314 -0.260928 -0.10368352 -0.16714725 -0.111605935 -0.7291673
0.17213462 -1.0463417 0.52339923 -0.5670821 -0.18210211 -0.6697621 0.16766459 0.68803775
0.40104967 -0.036094725 -0.444521 0.06594459 0.47202763 1.7716309 0.33608407 2.156597
-0.43376282 0.24606228 0.13120015 0.16020668 -0.25131324 -0.12881687 -0.2124044 -0.36898053
-0.5463026 -0.29290843 -0.37892047 -0.040257983 -0.34897614 0.66916925 0.017490197 0.4171398
00000000: 5a97 31bd 867c 8abd 29dc 0e3e a35c 18bd
00000010: 6992 103f e364 133f 45ee f83e 7738 c83e
00000020: d69a abbe 97bc bb3e 0b5a cc3e 4295 0e3c
00000030: 96d5 3a3e 8d62 eb3e 7374 c53e 707c 783f
00000040: 5e6a 2dbe 0b16 1cbc 91c5 903e 9760 013f
00000050: cf77 373e 0536 1b3f 3ebe 0f3f 62dc cd3e
00000060: f13a 3ebf d3fc 483f aeba 543f 2584 703e
00000070: 36ec 39bf 7df1 3f3f 40d2 2e3e 87c1 183f
00000080: a9b2 313f dafd 26bf c927 ae3e 2348 b1bc
00000090: fb49 7ebd ec3f 4fbf 2cce 133e f237 513e
000000a0: b262 a23e d50f 2dbf e22f 4a3e a5b9 823e
000000b0: cec0 e33e c3e8 fdbe 4870 ee3d e03f 0b3f
000000c0: 4e26 8fbf 2e51 d9bf 9a7c d1bf 2159 dcbf
000000d0: 6755 96bf 2cdb c3bf b0b1 c6bf b052 c3bf
000000e0: bfa6 73bf c598 99bf 1a27 b9bf d0bd 9bbf
000000f0: 2214 95bf 00f2 80bf 56ba bfbf 7d98 97bf
00000100: 596c 253f cd15 c9bf d250 2bbf b19c b2bf
00000110: 8e20 e93e ce63 9abf 204e 1ebf 71e3 66be
00000120: 2348 123f d1ba 90bf 7f73 cebd 63a3 5dbf
00000130: 99da 3c3f 1087 08bf 1d70 28be 63d7 ea3e
00000140: 5889 93be 1d57 923e 72be 303f 990c 713f
00000150: e138 a2bc 41bd d33e 11eb 1d3f 6050 193f
00000160: 0c5e 74bf 318d 333f 03a8 443f 6b0d 183f
00000170: 5198 85bf f989 553f 18b3 303f e37b 6a3f
00000180: 9fd7 b5bd 8e2e 843e f2e5 363f 7ce6 5e3f
00000190: 3ea4 df3e e4d9 403f 1648 323f 9259 433f
000001a0: 6cec a7be 3b89 a93e 9366 6a3f 0295 133f
000001b0: 17dd bcbe 9e95 d23e bf0b 0b3f 72fa 553f
000001c0: 1f72 633e 22cd a33e 4291 233e b39c ad3e
000001d0: 498b 403f 96d2 133f a68a c43e 55f3 e83e
000001e0: cd21 913e d25d 1e3f 7789 263f e933 003f
000001f0: dedc 143e 5370 033f de27 153f de15 153f
00000200: a4d4 973f 9fe0 3abf 36a9 d23e 4633 17be
00000210: 5bcc 913e e1ff 34bf 8c3c cabc f941 8c3e
00000220: 3833 703f ac00 18bf a8c7 71be 8d7d 9b3e
00000230: 45a9 a23f abb0 bdbe 004c 69bd 50ec 9b3e
00000240: e837 22bf 2d6e 3cbf 81d6 99be 69ed d43e
00000250: e1be 63bf ee6b 63bf 4630 fcbe 468f eebe
00000260: 85e2 9bbf 0860 b0be 562a ce3d dd73 a33e
00000270: aa11 a1bf feaa 0dbf a328 053f 9703 00be
00000280: 2d2c 8f3e dff1 1e3f 0e71 2f3f cb36 0f3f
00000290: 1c33 953e 3345 043f de10 783e 5c51 043f
000002a0: 8b95 223f 3f25 b5bd a8a1 b2be 586b 66be
000002b0: aadc 0e3f a750 663f 13c5 c8be 35b2 98bc
000002c0: b999 96be e283 883e 09c1 4b3e 56ae aabd
000002d0: c995 44be ae09 1a3e fbd3 00be fbdf 8dbd
000002e0: 56a7 e6bd 5960 b2bd cd4f 4ebe b2a6 03bf
000002f0: 8550 43be 387f db3e 7ba9 1bbe fc7d 8d3f
00000300: 8ce6 993b ec7a 3dbf 7197 4a3e 3634 cfbe
00000310: 8c9e af3d db17 1bbf a70f 823f 1c2b 033d
00000320: d76b 413f 18d9 d9be 63ec 2bbe d4d8 973c
00000330: 3cd9 1f3f b35a 1b40 0e05 70be 4a12 1240
00000340: 4ce2 f5bd 1212 333e 4548 f1be c5bc 50be
00000350: 695e ff3e dea8 cabb 116f 80bd 273c b6be
00000360: b526 0ebe 863d 84be 6287 25bd 5b98 85be
00000370: 0658 d4bd a628 2bbe a791 e4bd b5aa 3abf
00000380: 0f44 303e 86ee 85bf 7efd 053f 4b2c 11bf
00000390: fa78 3abe 8775 2bbf 44b0 2b3e 3e23 303f
000003a0: 6256 cd3e 10d8 13bd 4298 e3be f50d 873d
000003b0: 9bad f13e cdc4 e23f 3613 ac3e af05 0a40
000003c0: 2916 debe c0f7 7b3e 5559 063e 380d 243e
000003d0: 21ac 80be 92e8 03be 8a80 59be 04eb bcbe
000003e0: 7dda 0bbf 18f8 95be dd01 c2be 8ee5 24bd
000003f0: 00ad b2be ad4e 2b3f 9a47 8f3c 5993 d53e

conv2.bias f4 [20]
0.11389036 -0.06423097 -0.054794718 -0.011901334 -0.0026154947 0.06673871 -0.1189665 -0.08999673
0.09766421 0.1142463 0.018206866 0.06586342 -0.092490315 -0.12971845 0.023307588 0.048397053
-0.006761759 -0.064071044 0.044098947 0.061420176
00000000: 593f e93d 878b 83bd 6d70 60bd d0fd 42bc
00000010: b868 2bbb 4eae 883d b5a4 f3bd 3550 b8bd
00000020: 2c04 c83d f7f9 e93d 9126 953c 67e3 863d
00000030: 906b bdbd ead4 04be 8eef be3c fd3b 463d
00000040: bf91 ddbb ae37 83bd 19a1 343d b993 7b3d

conv3.weight f4 [10, 20, 3, 3]
-0.74961907 0.32690597 0.2796087 -0.71553355 0.37974763 -0.4591038 -0.79296875 -0.17317346
-0.0751383 -0.46944255 0.37837547 0.6818224 -0.28843006 -3.438459 -0.34140778 -0.30320805
0.5387154 -0.012393802 -0.063858844 0.6637921 0.64581925 0.3270817 -1.4248307 0.66600823
0.2198622 -0.18977746 0.66741383 0.27140307 0.21241468 0.21282345 0.38983306 0.6322418
-0.68026596 0.42619777 1.1782873 0.54951864 -0.40541568 0.4141728 0.3533885 -0.30345353
0.4961728 -1.4884591 -0.39164796 0.2288404 0.6084992 0.22991377 0.288217 0.2938969
0.3435938 0.15395254 0.013740019 0.28452274 0.5165671 0.406708 -0.6858379 0.48501197
0.53083587 -0.945581 0.51365453 0.037819467 -0.965182 0.0410031 0.031219624 0.8198965
0.61394995 0.6206929 0.68049544 -0.19697227 0.5668202 0.6170199 -0.3851196 0.3854905
0.90233785 1.0626222 1.2139318 0.4743744 0.5475325 0.6083483 0.49471003 0.76657623
-0.052914314 -0.09610569 0.0795904 0.12617853 -0.27465397 0.40807432 -1.0926224 -0.32908064
0.646001 0.3276292 -0.4813435 -0.1298613 -0.055703763 0.10727591 0.4944735 -1.9228634
0.19997907 -0.30904692 0.67983645 -0.34473246 -0.05816882 0.47088352 0.35068604 -1.4870813
-0.35302928 0.41371745 0.77492434 0.6747999 -0.87380326 0.47921225 0.60272413 -0.7861049
0.12120006 -0.47276482 -0.6675674 -0.100334935 0.033356473 -0.019504389 -0.10328733 -0.23920085
0.66724247 0.06585109 -1.0561845 0.59042984 0.2468019 0.6504972 1.0902028 1.3133726
1.2732774 0.76798356 0.43936378 0.40369478 0.73281354 0.7536748 0.5864335 -0.044283297
0.21187931 0.30976817 0.61778283 -1.6422504 0.53583467 0.7008743 0.06847704 0.44705567
-0.17388354 0.28568766 0.090802364 0.53362405 -1.919797 0.58146244 0.58968407 0.6980821
0.69528913 0.99278307 1.2065932 1.4024276 0.41551787 0.43886772 0.51376003 0.37058395
0.6526545 0.60243 -0.081306905 0.0616329 -0.07595013 -0.2413778 0.5908617 -1.3118634
-0.1318234 -0.056559313 -0.0025902018 0.89528114 1.0349786 1.0637854 0.8157642 -0.019730223
0.5573608 0.889043 -0.20248325 0.21662569 -0.48066545 -0.08569689 -0.07439573 0.25757244
0.4647149 0.2714824 0.19406888 0.113321565 -0.32643557 0.4291026 0.16805795 0.24673477
0.42692938 -2.4609818 -0.24570166 0.49824658 0.31418896 -0.1795656 -0.19731319 0.104579814
0.23918255 -0.39045423 -0.5575094 0.05737837 -0.38771278 0.1474138 0.10102858 1.0346699
-0.27065703 -0.29264042 0.89660364 0.29196584 0.0019383032 0.9001092 0.059391156 0.2328929
0.4969567 -0.5987531 -0.6769065 0.63558984 -0.23910245 -1.9905554 0.5867179 -0.67237544
0.089969 0.9208522 -0.17543581 -0.117463484 0.8588946 -0.20849553 0.25421244 0.8349481
0.9367503 0.24521591 -0.9818865 0.084854245 0.07317302 -1.1133474 0.74817735 0.286986
-1.0900655 0.099346615 0.22186947 0.06316874 0.37534884 0.33607113 1.001973 -0.3779074
0.5693734 1.0503124 -0.4557657 0.50648695 0.43673092 0.9517604 1.0091906 0.36950773
00000000: 09e7 3fbf 3860 a73e df28 8f3e 352d 37bf
00000010: 486e c23e a70f ebbe 0000 4bbf 6254 31be
00000020: 1ce2 99bd c65a f0be 6eba c13e ea8b 2e3f
00000030: 1bad 93be b60f 5cc0 00cd aebe 163e 9bbe
00000040: 41e9 093f 600f 4bbc 6dc8 82bd 47ee 293f
00000050: 6954 253f 4177 a73e da60 b6bf 847f 2a3f
00000060: 8e23 613e 0655 42be a2db 2a3f 58f5 8a3e
00000070: 3c83 593e 64ee 593e 3398 c73e 99da 213f
00000080: e925 2ebf 9836 da3e 1ed2 963f 41ad 0c3f
00000090: a592 cfbe 750e d43e 56ef b43e 435e 9bbe
000000a0: 5c0a fe3e d485 bebf 1586 c8be 2355 6a3e
000000b0: 9bc6 1b3f 846e 6b3e 2e91 933e a879 963e
000000c0: 87eb af3e bca5 1d3e d11d 613c f7ac 913e
000000d0: be3d 043f 083c d03e 1393 2fbf 7d53 f83e
000000e0: dce4 073f 9911 72bf dd7e 033f 96e8 1a3d
000000f0: 2b16 77bf def2 273d 4cc0 ff3c bde4 513f
00000100: d32b 1d3f bbe5 1e3f f334 2e3f 19b3 49be
00000110: 211b 113f 04f5 1d3f 652e c5be 035f c53e
00000120: 9dff 663f 0104 883f 1e62 9b3f 34e1 f23e
00000130: 172b 0c3f b7bc 1b3f a24a fd3e 573e 443f
00000140: aebc 58bd 0fd3 c4bd 4b00 a33d f234 013e
00000150: 729f 8cbe 1eef d03e 0ddb 8bbf 427d a8be
00000160: 5260 253f 04bf a73e a872 f6be 5cfa 04be
00000170: a129 64bd 79b3 db3d a12b fd3e 6320 f6bf
00000180: 50c7 4c3e 663b 9ebe c309 2e3f c680 b0be
00000190: 6e42 6ebd a517 f13e 1f8d b33e ae58 bebf
000001a0: 41c0 b4be c6d2 d33e 7161 463f b0bf 2c3f
000001b0: 92b1 5fbf 4f5b f53e 214c 1a3f 2c3e 49bf
000001c0: bd37 f83d 3b0e f2be b2e5 2abf 677c cdbd
000001d0: cca0 083d abc7 9fbc 4f88 d3bd 11f1 74be
000001e0: 67d0 2a3f f0dc 863d 0e31 87bf 6926 173f
000001f0: a3b9 7c3e fc86 263f c48b 8b3f 981c a83f
00000200: c1fa a23f 929a 443f 4af4 e03e 15b1 ce3e
00000210: ab99 3b3f d5f0 403f 8120 163f 6762 35bd
00000220: e4f6 583e ef99 9e3e 0427 1e3f 4335 d2bf
00000230: 762c 093f 806c 333f b13d 8c3d 7be4 e43e
00000240: 870e 32be a745 923e 97f6 b93d 969b 083f
00000250: e8bb f5bf b9da 143f 89f5 163f 82b5 323f
00000260: 78fe 313f 0827 7e3f a571 9a3f bf82 b33f
00000270: c2be d43e 45b3 e03e c785 033f 2ebd bd3e
00000280: 5e14 273f da38 1a3f 3c84 a6bd c872 7c3d
00000290: be8b 9bbd be2b 77be b642 173f 24eb a7bf
000002a0: b7fc 06be bdaa 67bd 60c0 29bb 2531 653f
000002b0: 2e7a 843f 1f2a 883f ecd5 503f 47a1 a1bc
000002c0: 33af 0e3f 5298 633f c557 4fbe 20d3 5d3e
000002d0: c819 f6be da81 afbd ca5c 98bd 89e0 833e
000002e0: 1def ed3e beff 8a3e feb9 463e 2315 e83d
000002f0: 9022 a7be 56b3 db3e 6217 2c3e 0aa8 7c3e
00000300: 7d96 da3e ba80 1dc0 3799 7bbe 2d1a ff3e
00000310: 60dd a03e 0be0 37be 780c 4abe f12d d63d
00000320: 45ec 743e 9ee9 c7be f0b8 0ebf 9505 6b3d
00000330: 4a82 c6be a5f3 163e 12e8 ce3d 1070 843f
00000340: 8f93 8abe f7d4 95be d187 653f 8c7c 953e
00000350: aa0e fe3a 8e6d 663f 2444 733d 7a7b 6e3e
00000360: 1c71 fe3e e247 19bf bf49 2dbf 04b6 223f
00000370: 46d7 74be 85ca febf 2533 163f cc20 2cbf
00000380: ab41 b83d f8bc 6b3f 72a5 33be b290 f0bd
00000390: 84e0 5b3f da7f 55be 2228 823e 29bf 553f
000003a0: dece 6f3f e119 7b3e ea5c 7bbf 10c8 ad3d
000003b0: bcdb 953d 2b82 8ebf 8d88 3f3f d4ef 923e
000003c0: 4487 8bbf 3d76 cb3d c031 633e 9d5e 813d
000003d0: b92d c03e 8411 ac3e a740 803f 147d c1be
000003e0: 75c2 113f a370 863f 1f5a e9be 21a9 013f
000003f0: 329b df3e 92a6 733f 282d 813f 1e30 bd3e

conv3.bias f4 [10]
0.04632215 0.12611078 0.021075606 -0.06336789 0.01240422 -0.095135644 -0.08703226 -0.05217048
-0.070921935 -0.057257812
00000000: 4bbc 3d3d 2f23 013e c0a6 ac3c 06c7 81bd
00000010: 123b 4b3c 7ad6 c2bd f83d b2bd b7b0 55bd
00000020: 853f 91bd 2b87 6abd

linear.weight f4 [4, 160]
0.0450375 -0.047970515 0.018939605 0.05430718 -0.14022171 -0.0038278624 0.11654512 -0.03710501
0.0039370954 0.03653059 -0.010387168 0.069659494 -0.071169995 0.112431034 -0.009948522 -0.027689222
0.022452006 -0.112527065 0.043730404 -0.07963012 0.0696037 -0.01003016 -0.13693827 -0.011824872
-0.011037076 0.0047265175 -0.07759211 -0.0434313 -0.054713063 0.009310456 -0.023362704 -0.011584413
-0.011258037 0.027048675 -0.038633317 0.13726237 0.05307629 0.025654837 0.008534535 -0.039192047
0.10430821 -0.058668673 -0.051312428 0.0006115587 0.14105263 -0.06262801 -0.03729633 0.01607079
-0.04952896 -0.08731767 -0.013749605 -0.042037282 0.08935079 -0.008591419 -0.04087066 0.018657431
-0.02313714 0.0071451957 -0.002681238 -0.034612555 -0.030511789 -0.16279216 -0.01290039 0.00048622908
-0.08224917 -0.08808298 -0.04265166 0.13375174 0.12225473 -0.0949135 -0.017672256 -0.016114796
0.036795437 0.04112115 0.02333347 0.028340949 0.041266292 0.07626903 0.0093910415 0.03078498
0.058352433 -0.07843077 0.021911282 -0.0182084 -0.07793889 0.0067327605 0.12226745 -0.044027667
-0.009295217 0.082547426 0.032381795 -0.034416735 0.044410065 0.025743118 -0.056008384 -0.07838222
0.008358415 -0.0223857 0.027530367 0.03606105 -0.03783087 -0.06342828 -0.022770168 0.13061516
-0.017922102 -0.05238079 -0.047927734 0.12353329 0.043713093 0.011547403 -0.07608477 0.010517415
0.02840593 0.02124084 -0.0722383 -0.04747977 0.017856687 -0.027436165 0.010006283 -0.0036200264
-0.07522154 -0.028168684 -0.007441003 0.041650716 -0.026572198 -0.009423027 0.04193435 -0.038507715
-0.080992125 0.054859065 0.05215694 0.0033473352 -0.10306225 0.10979152 -0.049137566 0.045010038
0.02040434 0.043811224 0.049586162 0.004475353 -0.15141101 0.0023878936 0.06532503 0.010158636
-0.09452815 -0.06430533 0.011089867 -0.0037888903 0.027250897 0.07496923 0.007720642 0.034595046
0.11565204 -0.048198365 -0.1036734 -0.055867646 0.099619634 0.1759143 0.036743503 -0.0050984737
-0.010137986 0.0077455677 0.0410711 0.08260533 -0.23124693 0.13825192 0.005991914 0.001902753
0.0068727243 -0.12740788 -0.1169084 0.114881426 0.18423894 0.011047892 -0.06959945 -0.011845529
0.032914545 0.0093895765 -0.013428634 0.011177659 -0.07355528 0.020258645 0.1583042 -0.055303685
-0.031940263 0.13275579 -0.0051661637 0.009147798 -0.12375754 0.33413044 0.03307215 0.03848901
-0.07729564 0.34038606 -0.122399405 -0.09127058 0.26236698 -0.23549958 0.1966198 -0.039301455
0.09953969 0.23116884 0.102619044 -0.032347962 -0.1807586 0.10308511 0.014821339 0.07999678
-0.093373336 0.03305558 -0.027498374 0.08689497 -0.217633 0.05736644 0.062096573 0.003241331
0.12077282 -0.0040747803 -0.11600318 0.044544473 -0.062067535 0.18451102 -0.010817563 0.0026578915
-0.04766106 0.30999437 -0.09275441 -0.34455317 0.10808067 -0.027377214 0.10536914 0.0056076013
0.14685982 0.023898667 0.25226617 -0.07968657 -0.0046513956 0.17787008 0.045368146 0.07738544
-0.05527862 0.016280813 0.028498515 0.13397704 0.28010553 -0.02189981 -0.08290608 0.007705657
0.04229531 -0.037759047 0.19908126 0.08418927 -0.035089068 -0.14319848 -0.13102925 -0.21282582
00000000: 3e79 383d bb7c 44bd 3b27 9b3c 3571 5e3d
00000010: 4896 0fbe e0dc 7abb 35af ee3d 6cfb 17bd
00000020: c002 813b 1aa1 153d f12e 2abc a3a9 8e3d
00000030: 93c1 91bd 3e42 e63d 20ff 22bc 82d4 e2bc
00000040: 45ed b73c 9774 e6bd a71e 333d 1e15 a3bd
00000050: 628c 8e3d 8a55 24bc 8c39 0cbe 1cbd 41bc
00000060: dad4 34bc e7e0 9a3b 9de8 9ebd 05e5 31bd
00000070: ce1a 60bd e28a 183c 2463 bfbc 8dcc 3dbc
00000080: a173 38bc 2f95 dd3c f83d 1ebd 828e 0c3e
00000090: 8666 593d 182a d23c 6fd4 0b3c d787 20bd
000000a0: 8b9f d53d 904e 70bd fb2c 52bd 0251 203a
000000b0: 1a70 103e 1d43 80bd 09c4 18bd e4a6 833c
000000c0: e1de 4abd 9bd3 b2bd 0646 61bc 492f 2cbd
000000d0: 8cfd b63d 06c3 0cbc fe67 27bd 78d7 983c
000000e0: 198a bdbc 3f22 ea3b b6b7 2fbb e5c5 0dbd
000000f0: dcf3 f9bc fdb2 26be 285c 53bc 90ec fe39
00000100: 4172 a8bd d964 b4bd 82b3 2ebd 37f6 083e
00000110: b060 fa3d 0262 c2bd 68c5 90bc 2d03 84bc
00000120: d0b6 163d a76e 283d d525 bf3c 472b e83c
00000130: d806 293d f032 9c3d e2dc 193c c830 fc3c
00000140: f602 6f3d 50a0 a0bd 4a7f b33c c829 95bc
00000150: 6d9e 9fbd 7d9e dc3b 5b67 fa3d 5b56 34bd
00000160: f74a 18bc a00e a93d c6a2 043d 90f8 0cbd
00000170: 54e7 353d 3be3 d23c 0c69 65bd db86 a0bd
00000180: bcf1 083c 3762 b7bc 5d87 e13c c0b4 133d
00000190: 8bf4 1abd b0e6 81bd 8188 babc fbbf 053e
000001a0: 5fd1 92bc 3d8d 56bd df4f 44bd 06ff fc3d
000001b0: 800c 333d 5231 3d3c 55d2 9bbd 3c51 2c3c
000001c0: 8eb3 e83c 4501 ae3c adf1 93bd 267a 42bd
000001d0: 3048 923c cfc1 e0bc 65f1 233c f73d 6dbb
000001e0: c00d 9abd 03c2 e6bc a8d3 f3bb f199 2a3d
000001f0: f0ad d9bc 0a63 1abc 5ac3 2b3d 44ba 1dbd
00000200: 33df a5bd e6b3 603d 84a2 553d f75e 5b3b
00000210: 4d12 d3bd 60da e03d 7944 49bd 725c 383d
00000220: 0127 a73c 6673 333d dc1a 4b3d fba5 923b
00000230: 7d0b 1bbe 357e 1c3b 21c9 853d 6870 263c
00000240: fa97 c1bd 83b2 83bd 46b2 353c 084f 78bb
00000250: 463d df3c 7889 993d 70fd fc3b 89b3 0d3d
00000260: fada ec3d a66b 45bd b852 d4bd 79d5 64bd
00000270: 6105 cc3d e122 343e 5b80 163d 1911 a7bb
00000280: cc19 26bc 88ce fd3b 2b3a 283d fc2c a93d
00000290: ffcb 6cbe e991 0d3e d157 c43b cc65 f93a
000002a0: 9734 e13b 3677 02be ac6d efbd f446 eb3d
000002b0: 22a9 3c3e 3802 353c 288a 8ebd c013 42bc
000002c0: 67d1 063d bdd6 193c c603 5cbc 8022 373c
000002d0: 27a4 96bd 75f5 a53c 7f1a 223e 1e86 62bd
000002e0: cbd3 02bd 22f1 073e ec48 a9bb a5e0 153c
000002f0: 9874 fdbd 2513 ab3e aa76 073d a7a6 1d3d
00000300: 2d4d 9ebd 1547 ae3e 8aac fabd 12ec babd
00000310: f754 863e cd26 71be b356 493e 90fa 20bd
00000320: 77db cb3d 86b7 6c3e ef29 d23d 4c7f 04bd
00000330: c818 39be 491e d33d 34d5 723c 5ad5 a33d
00000340: 853a bfbd 4a65 073d 4544 e1bc fdf5 b13d
00000350: 2fdb 5ebe 12f9 6a3d fa58 7e3d 836c 543b
00000360: be57 f73d bc85 85bb 1393 edbd 4474 363d
00000370: 873a 7ebd 75f0 3c3e 263c 31bc 0530 2e3b
00000380: 3e38 43bd 95b7 9e3e 06f6 bdbd 4669 b0be
00000390: 6659 dd3d 2e46 e0bc c7cb d73d f8bf b73b
000003a0: 6c62 163e 23c7 c33c 0829 813e b632 a3bd
000003b0: bc6a 98bb 9323 363e f3d3 393d 427c 9e3d
000003c0: d66b 62bd 575f 853c b875 e93c 4731 093e
000003d0: fe69 8f3e 3b67 b3bc aaca a9bd bc7f fc3b
000003e0: d93d 2d3d 3ba9 1abd f5db 4b3e 6d6b ac3d
000003f0: 8eb9 0fbd 9fa2 12be 882c 06be 03ef 59be

linear.bias f4 [4]
0.0336593 0.040872343 -0.01154083 0.25931448
00000000: 56de 093d c269 273d c015 3dbc dec4 843e
