2048AI_model_3_lr_0.01_ver_6.pt (torch_old, 36117 bytes, 8 tensors)

conv1.weight f4 [10, 3, 10, 10]
0	0x3e7325b7	0.23744856
1	0x3eb912ce	0.3614716
2	0x3f51b2ac	0.81913257
3	0x3fa5b38e	1.2945421
4	0x3fb086c7	1.3791131
5	0x3f80260c	1.0011611
6	0x3f2f009d	0.6836031
7	0x3f389719	0.72105557
8	0x3f4c7686	0.7986835
9	0x3edd1820	0.43182468
10	0x3e2cbf0d	0.16869755
11	0x3e9fb9c5	0.31196418
12	0x3f0ba75f	0.54552263
13	0x3f86faa5	1.0545241
14	0x3fc069b6	1.503226
15	0x3f61adfa	0.8815609
16	0x3f39ce3b	0.7258031
17	0x3f224962	0.63393223
18	0x3f09cfb5	0.5383256
19	0x3e82c9e2	0.2554465
20	0x3e0a6998	0.13516843
21	0x3e95a90b	0.29230532
22	0x3ef87af6	0.48531312
23	0x3f84a7f0	1.036375
24	0x3fad26c0	1.352745
25	0x3f7158b6	0.9427599
26	0x3f1e5c33	0.61859435
27	0x3ede2f09	0.4339526
28	0x3e750754	0.23928577
29	0x3e28352e	0.16426536
30	0x3ecc0d38	0.39853835
31	0x3ec1fe93	0.37889537
32	0x3f171696	0.5901884
33	0x3f8b6247	1.0889367
34	0x3fa6341d	1.2984654
35	0x3f5011cf	0.81277174
36	0x3f305ddb	0.6889321
37	0x3f01c3f2	0.50689614
38	0x3eb534cb	0.3539184
39	0x3ea8c6df	0.32964227
40	0x3eeb21ab	0.45924124
41	0x3eb53f01	0.3539963
42	0x3f1f5b83	0.6224901
43	0x3f801f9d	1.0009648
44	0x3f95116a	1.1645939
45	0x3f3148ec	0.69251895
46	0x3f030bd4	0.51189923
47	0x3f139f07	0.5766453
48	0x3eef4406	0.46731585
49	0x3ee81312	0.4532705
50	0x3f164462	0.58698094
51	0x3ebc8f49	0.36828068
52	0x3f0b35e3	0.543791
53	0x3f86b526	1.0524032
54	0x3f939387	1.1529397
55	0x3f483cc6	0.7821773
56	0x3f238d93	0.638879
57	0x3f35f4de	0.7107676
58	0x3f82cc79	1.021865
59	0x3f22e157	0.6362509
60	0x3edf4415	0.4360663
61	0x3e8a095f	0.26960275
62	0x3ee1edbe	0.44126695
63	0x3f83c4b6	1.0294406
64	0x3f973516	1.1813076
65	0x3f5b6c1e	0.8571185
66	0x3f42f780	0.76158905
67	0x3f412d9b	0.75460213
68	0x3f7dc877	0.9913401
69	0x3f0b3cfd	0.54389936
70	0x3e59d477	0.21272455
71	0x3dcfe0a0	0.10150266
72	0x3ebe3d50	0.37156153
73	0x3f9684db	1.1759294
74	0x3f93b3e4	1.1539273
75	0x3f82c008	1.0214853
76	0x3f65517b	0.89577454
77	0x3f494bed	0.7863148
78	0x3f5440aa	0.8291117
79	0x3f06cb94	0.52654386
80	0x3e7394df	0.23787259
81	0x3d6adb93	0.05733831
82	0x3efb252d	0.490518
83	0x3f9f4d7b	1.244552
84	0x3fb251b2	1.3931181
85	0x3f8fd84d	1.1237885
86	0x3f6ab79b	0.9168641
87	0x3f3cf322	0.7380849
88	0x3f2ff8c8	0.68738985
89	0x3f21cb5c	0.63200927
90	0x3ea957ca	0.3307479
91	0xbbbdb7a7	-0.0057897153
92	0x3eaf59c6	0.3424818
93	0x3f8b833f	1.0899428
94	0x3fa5c12b	1.2949575
95	0x3f8cb9dd	1.0994221
96	0x3f4ad675	0.79233485
97	0x3f125b9c	0.57171035
98	0x3f3e7da1	0.74410444
99	0x3f2ba7e9	0.67053086
100	0xbe214953	-0.15750627
101	0xbd075006	-0.0330353
102	0x3e45f843	0.19332986
103	0x3f295dd7	0.66158813
104	0x3f3683d8	0.7129493
105	0x3ee1e02d	0.44116345
106	0x3e557daf	0.20848726
107	0x3de8510b	0.11343583
108	0x3e9e0a57	0.30867264
109	0x3de11e3d	0.109920956
110	0xbef9e5b5	-0.48808065
111	0xbee1091c	-0.43952262
112	0xbdebf29d	-0.11520884
113	0x3e685a1e	0.22690627
114	0x3ee48724	0.44634354
115	0x3df9b026	0.12191801
116	0xbcc82b52	-0.02443472
117	0xbe7fcd5f	-0.24980687
118	0xbe517b8b	-0.20457284
119	0xbe8f2500	-0.27957916
120	0xbed4235b	-0.41433224
121	0xbeb25128	-0.34827542
122	0xbe7387b1	-0.23782231
123	0x3e39bb9c	0.18137974
124	0x3e71705c	0.23578018
125	0xbccded8a	-0.025137682
126	0xbe2202b2	-0.1582134
127	0xbeac1bf2	-0.3361507
128	0xbebebe4b	-0.37254557
129	0xbeef9690	-0.46794558
130	0xbec41047	-0.3829367
131	0xbeb5fdf8	-0.35545325
132	0xbe413c33	-0.1887062
133	0x3e14faf8	0.14548862
134	0x3df8e85e	0.121536955
135	0xbdb29072	-0.08718957
136	0xbe862efc	-0.2620772
137	0xbeb2cc85	-0.3492166
138	0xbebd7e25	-0.37010303
139	0xbea5b657	-0.32365677
140	0xbe84b18e	-0.25916713
141	0xbe9a708e	-0.30163997
142	0xbddca9a9	-0.107745476
143	0x3dbeba83	0.09312918
144	0xbc9d0788	-0.01916863
145	0xbea28bc9	-0.31747273
146	0xbed3aed4	-0.4134432
147	0xbeef2850	-0.46710443
148	0xbea70672	-0.32622105
149	0xbe671a7b	-0.22568695
150	0xbe33e4b4	-0.17567712
151	0xbe8ac5bc	-0.27103984
152	0xbe318b67	-0.17338334
153	0x3da5b5bd	0.080913045
154	0x3e4b94c6	0.19880971
155	0xbd9f8ede	-0.07790922
156	0xbdd4c7ea	-0.10389693
157	0xbe228064	-0.1586929
158	0x3dd861c0	0.10565519
159	0x3ca4cf67	0.020118428
160	0xbea5e485	-0.3240091
161	0xbefbb927	-0.49164698
162	0xbec01982	-0.3751946
163	0x3dc1502a	0.09439118
164	0x3df86464	0.12128523
165	0x3be19c88	0.006885115
166	0xbd71ce5b	-0.059034687
167	0xbd49f0ce	-0.049301915
168	0x3d4e5d4d	0.050381947
169	0xbde203a4	-0.11035851
170	0xbef31114	-0.47473967
171	0xbf0ba8d1	-0.5455447
172	0xbed48573	-0.41508064
173	0x3e081b1c	0.13291591
174	0x3d9638af	0.0733503
175	0x3d3f192f	0.046654876
176	0x3ce215b2	0.027598236
177	0xbddaf330	-0.106909156
178	0xbe4363a5	-0.1908098
179	0xbe723cbd	-0.23655982
180	0xbebfc956	-0.37458295
181	0xbf0a7c24	-0.54095674
182	0xbea1a6bf	-0.3157253
183	0x3ec87098	0.39148402
184	0x3eb4eb24	0.35335648
185	0x3e7f866d	0.24953623
186	0x3db6b17b	0.089205705
187	0xbd6a0c4a	-0.057140626
188	0xbd28114f	-0.04103213
189	0x3cf50f26	0.02991445
190	0xbea4d0f1	-0.3219066
191	0xbf0ae104	-0.54249597
192	0xbed7aaed	-0.42122594
193	0x3e955b0a	0.2917102
194	0x3edced97	0.43150017
195	0x3e7f195e	0.2491202
196	0x3d0518a8	0.032494217
197	0xbd491903	-0.04909612
198	0xbc37e05c	-0.011222925
199	0x3ca2232f	0.019792167
200	0xbed72361	-0.4201918
201	0xbecb2bab	-0.39681754
202	0xbdc4ace5	-0.096032895
203	0x3d16fc46	0.03686168
204	0x3e0d8aa6	0.13822421
205	0xbc9f6c82	-0.01946092
206	0xbe525c95	-0.2054313
207	0xbe7965fd	-0.24355312
208	0xbe098ff7	-0.13433824
209	0xbdbb2dde	-0.09139608
210	0xbf2ac84d	-0.66711885
211	0xbf15e606	-0.5855411
212	0xbee87b12	-0.45406395
213	0xbe88eec2	-0.26744658
214	0xbe2f10c0	-0.17096233
215	0xbeb8c37c	-0.36086643
216	0xbf01a54e	-0.5064286
217	0xbefaa5ed	-0.48954716
218	0xbef02ee3	-0.46910772
219	0xbef91885	-0.4865152
220	0xbf2b93b7	-0.6702227
221	0xbf079b74	-0.5297158
222	0xbf087db1	-0.5331679
223	0xbe82511e	-0.25452513
224	0xbe86e2a3	-0.26344785
225	0xbefe8a79	-0.4971502
226	0xbf253bf6	-0.6454462
227	0xbf2f6a0d	-0.68521196
228	0xbf231df0	-0.63717556
229	0xbf32062d	-0.69540673
230	0xbf16e791	-0.5894709
231	0xbf275b09	-0.65373284
232	0xbf0211b8	-0.50808287
233	0xbeb29d6b	-0.34885725
234	0xbe9b87df	-0.303771
235	0xbf20205c	-0.62549376
236	0xbf299785	-0.66246825
237	0xbf4c616f	-0.7983617
238	0xbf283201	-0.657013
239	0xbf04a717	-0.5181746
240	0xbf2042c8	-0.626019
241	0xbf2ade2a	-0.66745245
242	0xbee7f3d7	-0.45303223
243	0xbec11328	-0.37709928
244	0xbeebbeb3	-0.4604393
245	0xbf48f78e	-0.7850274
246	0xbf63be4e	-0.88962257
247	0xbf68f4c5	-0.9099849
248	0xbf2dbe86	-0.6786884
249	0xbedcce72	-0.43126255
250	0xbef85dd0	-0.48509073
251	0xbf2f4ab0	-0.6847334
252	0xbf11328f	-0.5671777
253	0xbebe6bbf	-0.3719158
254	0xbedb3d62	-0.4282027
255	0xbf1e6fe8	-0.61889505

conv1.bias f4 [10]
0	0xbf17929f	-0.592081
1	0x3f22f0c9	0.6364866
2	0x3ec0c928	0.3765347
3	0x3e2f07b7	0.17092787
4	0xbe89ab2b	-0.26888403
5	0x3e8b9331	0.27260736
6	0x3cec3010	0.028831512
7	0x3d99b6df	0.07505583
8	0xbe8e7726	-0.27825278
9	0x3f57d3fe	0.8430785

conv2.weight f4 [20, 10, 4, 4]
0	0x3e0579a8	0.1303469
1	0x3e3b3907	0.18283473
2	0x3ea0b1aa	0.31385547
3	0x3e69c29b	0.22828142
4	0x3f4c248c	0.79743266
5	0x3f4a4012	0.79004014
6	0x3f61e22a	0.88235724
7	0x3f501673	0.81284255
8	0x3da2f2f3	0.07956495
9	0x3f07296c	0.5279758
10	0x3f3b27d6	0.7310766
11	0x3eba6ff9	0.36413553
12	0x3f07e7ea	0.5308825
13	0x3f1baf8b	0.6081473
14	0x3f2d7358	0.67754126
15	0x3f80b7f1	1.0056134
16	0xbd10d3e9	-0.035358343
17	0x3ca2f933	0.019894218
18	0x3e9b1560	0.30289745
19	0x3ebac952	0.3648172
20	0x3e8104fa	0.2519911
21	0x3f248b52	0.64275086
22	0x3f2f13ba	0.68389475
23	0x3f0cd45b	0.5501153
24	0xbf2f2991	-0.684228
25	0x3f7ab346	0.979298
26	0x3f81634e	1.010843
27	0x3db0fa96	0.086415455
28	0xbf29fdda	-0.6640297
29	0x3f699b1a	0.9125229
30	0x3d6cd99c	0.057824716
31	0x3f1ee17a	0.620628
32	0x3f35f851	0.71082026
33	0xbf5e53b2	-0.8684646
34	0x3e8b5113	0.27210292
35	0x3e2efd59	0.17088832
36	0x3d3a13a3	0.045428883
37	0xbf3f4276	-0.74710786
38	0x3ee181d0	0.44044352
39	0x3ece306e	0.40271324
40	0x3e718351	0.2358525
41	0xbeef411f	-0.4672937
42	0x3f313ea4	0.69236207
43	0x3e1bfe4b	0.15233724
44	0x3ebe9260	0.3722105
45	0xbf0acf76	-0.5422281
46	0xbe4f0522	-0.20216802
47	0x3f3cc361	0.73735625
48	0xbf30fd2d	-0.69136316
49	0xbfa6e248	-1.3037806
50	0xbfa35f8e	-1.2763536
51	0xbfb397ef	-1.4030741
52	0xbf10ff50	-0.56639576
53	0xbf6cf89e	-0.9256686
54	0xbf755d74	-0.95845723
55	0xbf6c5867	-0.9232239
56	0xbea5fa8f	-0.32417724
57	0xbf117789	-0.5682302
58	0xbf4cf814	-0.8006604
59	0xbf6d5c02	-0.9271852
60	0xbee93f78	-0.45556235
61	0xbf244ac2	-0.6417657
62	0xbf60775f	-0.87682146
63	0xbf507b58	-0.8143821
64	0x3f322038	0.6958041
65	0xbfb6d962	-1.428509
66	0xbee8b276	-0.45448655
67	0xbf980bf1	-1.1878644
68	0x3e4641f9	0.19361104
69	0xbf90e62a	-1.132024
70	0xbf27b552	-0.6551105
71	0xbe73d0c4	-0.23810107
72	0x3ed17938	0.40912795
73	0xbf8dc9bd	-1.1077191
74	0x3de76090	0.11297715
75	0xbf890120	-1.0703468
76	0x3f20261e	0.6255816
77	0xbf164ac6	-0.58707845
78	0xbf21c63d	-0.6319311
79	0x3ec27136	0.37976998
80	0xbe945bf0	-0.28976393
81	0x3e72ae25	0.23699243
82	0x3ed41208	0.41420007
83	0x3f015add	0.5052927
84	0x3dc2545c	0.094887465
85	0x3f076cd9	0.52900463
86	0x3f34ae30	0.7057829
87	0x3f361b60	0.7113552
88	0xbf36284f	-0.71155256
89	0x3f51f242	0.8201028
90	0x3f3cfea3	0.73826045
91	0x3e4aca55	0.19803746
92	0xbf6d179f	-0.9261417
93	0x3f3e46b8	0.7432666
94	0x3ec0dbf7	0.3766782
95	0x3f2d5472	0.6770698
96	0x3d0b540f	0.03401571
97	0x3ee1312f	0.43982837
98	0x3f52f197	0.82399887
99	0x3f61277e	0.87950885
100	0x3f1e0c30	0.61737347
101	0x3f50d5cc	0.8157623
102	0x3f59b61c	0.850435
103	0x3f6cb543	0.92464083
104	0xbdce95ea	-0.100871876
105	0x3ef64b5f	0.4810438
106	0x3f6b5e12	0.91940415
107	0x3e9badfa	0.3040617
108	0xbe805cb9	-0.25070742
109	0x3edda845	0.43292442
110	0x3e916374	0.2839619
111	0x3f68eb02	0.90983593
112	0x3ec071ae	0.3758673
113	0x3f0a76bb	0.5408742
114	0x3ea3e0a9	0.3200734
115	0x3edb0b84	0.42782223
116	0x3f482ee7	0.7819657
117	0x3f20a3f4	0.6275017
118	0x3f007e34	0.5019257
119	0x3f17dbcd	0.59319764
120	0x3e83f661	0.2577391
121	0x3f51a9ef	0.81899923
122	0x3f2d9071	0.67798525
123	0x3e89035c	0.26760375
124	0x3e538ab9	0.20658387
125	0x3f467ec0	0.77537155
126	0x3ef5caef	0.4800639
127	0x3f174480	0.590889
128	0x3f88ca3c	1.0686717
129	0xbf9dd5b4	-1.2330842
130	0x3e8e204d	0.2775902
131	0xbe2efff0	-0.1708982
132	0xbdce5ccf	-0.100762956
133	0xbf6bd86f	-0.92127126
134	0x3ebf6ccb	0.3738769
135	0x3f0fa185	0.56105834
136	0x3f3d4ea5	0.7394813
137	0xbf2f6a9e	-0.6852206
138	0x3effc508	0.4995501
139	0x3d33bde0	0.04388225
140	0x3f841975	1.0320269
141	0xbf122524	-0.5708792
142	0xbee86e72	-0.45396763
143	0x3ef93b95	0.4867827
144	0xbf0abaff	-0.54191583
145	0xbf540251	-0.82816035
146	0xbeb10769	-0.34575966
147	0xbda05fec	-0.07830796
148	0xbf38215b	-0.71925896
149	0xbf276b17	-0.6539778
150	0xbeb9369a	-0.3617447
151	0xbea4c0cd	-0.32178345
152	0xbf63e3a1	-0.8901921
153	0xbde84852	-0.11341919
154	0x3e06b9f2	0.1315687
155	0xbd265a22	-0.0406133
156	0xbf8454e5	-1.0338408
157	0xbee541ec	-0.44776857
158	0x3e8515bf	0.25993153
159	0x3e605665	0.21907957
160	0x3e6d5928	0.23178542
161	0x3f07e5df	0.5308513
162	0x3f07642a	0.52887213
163	0x3f020c7d	0.50800306
164	0x3e3173ad	0.17329283
165	0x3ecf7b8d	0.4052395
166	0x3e16a57b	0.14711563
167	0x3ee4c784	0.44683468
168	0x3f1316d1	0.5745669
169	0x3e86228e	0.26198238
170	0xbe85e03d	-0.26147643
171	0xbe3c3afc	-0.18381876
172	0x3f2c4ba8	0.6730294
173	0x3f59c24a	0.85062087
174	0xbe618111	-0.22021891
175	0x3e3873a1	0.18012859
176	0xbe0654d6	-0.131183
177	0x3ea16c2b	0.31527838
178	0x3e514576	0.20436653
179	0xbc3cb108	-0.011516817
180	0xbe2ac0d1	-0.16675116
181	0x3de9afe1	0.11410499
182	0x3e63040b	0.22169511
183	0x3e609fbf	0.21935938
184	0x3e32d077	0.17462336
185	0x3c7802e6	0.01513741
186	0xbdcac4ee	-0.099008426
187	0xbf093009	-0.5358892
188	0x3e87c092	0.26514107
189	0x3f0ef3e5	0.55840904
190	0xbe3b72e9	-0.18305553
191	0x3f438de9	0.7638841
192	0xbc55a323	-0.013039383
193	0xbf3a4f6d	-0.72777444
194	0x3e6b9d6b	0.23009269
195	0xbe4f513e	-0.20245835
196	0xbd65ac4b	-0.056072515
197	0xbee39b35	-0.4445435
198	0x3f353e13	0.7079784
199	0x3ec32ebf	0.38121602
200	0x3f42783c	0.75964713
201	0xbde68c88	-0.11257273
202	0xbdc35d7c	-0.09539315
203	0x3ea42dc9	0.3206618
204	0x3eed601d	0.4636239
205	0x4006464e	2.098041
206	0xbe804ea3	-0.25059995
207	0x3ffd64df	1.9796408
208	0xbea955e4	-0.33073342
209	0xbd650aba	-0.055918433
210	0xbdc0306f	-0.09384238
211	0xbe7d5027	-0.24737607
212	0x3e588af8	0.21146762
213	0x3cb0218e	0.021500375
214	0x3d3e447f	0.04645204
215	0xbeccb5ac	-0.39982355
216	0xbe82a60c	-0.2551731
217	0x3da498bf	0.080369465
218	0x3e2a87b5	0.1665333
219	0x3c933935	0.017971614
220	0xbe3c68d4	-0.18399364
221	0xbba54c49	-0.0050444943
222	0x3d204e69	0.039137278
223	0xbe8419de	-0.25800985
224	0x3de095b0	0.109660506
225	0xbf59ced7	-0.8508124
226	0x3f607a3a	0.876865
227	0xbe99fa5a	-0.30073816
228	0xbed6daf7	-0.41963932
229	0xbf47cd99	-0.7804809
230	0xbe54745b	-0.20747511
231	0x3ef02e81	0.4691048
232	0x3e9f5922	0.3112269
233	0xbe0cdb28	-0.13755476
234	0xbe92eceb	-0.2869638
235	0x3db1eab2	0.08687343
236	0x3e8a0fea	0.26965266
237	0x3fc54b91	1.5413686
238	0x3e37f643	0.17965035
239	0x40031c07	2.0485857
240	0xbe622381	-0.22083856
241	0x3e69536c	0.22785729
242	0x3e22ebfe	0.15910336
243	0x3b5eecc6	0.003401564
244	0x3af34e4e	0.0018562765
245	0x3d9c8008	0.076416075
246	0x3e2935ca	0.16524425
247	0xbd542015	-0.05178841
248	0xbdfff3e4	-0.1249769
249	0x3c2f27db	0.010690655
250	0xbed784b4	-0.42093432
251	0xbeed988f	-0.46405455
252	0x3c7f035e	0.015564768
253	0x3ef932f7	0.48671696
254	0xbe513ac1	-0.20432569
255	0x3ecd9dfc	0.40159595

conv2.bias f4 [20]
0	0x3dfa9d82	0.122370735
1	0xbda74100	-0.08166695
2	0xbd5c6638	-0.05380842
3	0xbc556b27	-0.013026035
4	0x3c072f9f	0.0082511
5	0x3d927952	0.07152046
6	0xbe082c73	-0.13298206
7	0xbdff2a1c	-0.124592036
8	0x3dd1dd48	0.10247284
9	0x3dd66d4c	0.104700655
10	0x3c84355d	0.016138727
11	0x3d6c6330	0.05771178
12	0xbdc45695	-0.09586827
13	0xbe0c38f8	-0.13693607
14	0xbcc235c0	-0.02370727
15	0x3d6415c3	0.055684816
16	0xbc750516	-0.014954826
17	0xbcd7fed7	-0.026366634
18	0x3d5a70c0	0.053330183
19	0x3d9e52b3	0.077306174

conv3.weight f4 [10, 20, 3, 3]
0	0xbf421949	-0.7581983
1	0x3ea79b9a	0.32735902
2	0x3ea98adb	0.3311375
3	0xbf0cde0f	-0.55026335
4	0x3ef2b579	0.47404078
5	0xbec243c8	-0.37942338
6	0xbf202733	-0.62559813
7	0x3d0a86cd	0.033819962
8	0xbdc9e81f	-0.09858727
9	0xbf29724b	-0.6619002
10	0x3e62d3ea	0.22151151
11	0x3f111730	0.56676006
12	0xbe4cac5d	-0.19987626
13	0xc0532f5a	-3.299765
14	0xbf094cf5	-0.5363305
15	0xbe6164d0	-0.22011113
16	0x3f0cda36	0.55020463
17	0xbe01ad74	-0.12663823
18	0xbe4092e3	-0.18806033
19	0x3f088042	0.53320706
20	0x3eff2c94	0.49838698
21	0x3e358b3a	0.17728892
22	0xbfc6a030	-1.5517635
23	0x3f3ab88c	0.72937846
24	0x3d7b6aaf	0.06138104
25	0xbebeb4fa	-0.3724745
26	0x3f3a9b40	0.7289314
27	0x3edf5503	0.43619546
28	0xbe5cda06	-0.21567544
29	0xbe3ca4eb	-0.18422286
30	0x3ed3e67f	0.41386792
31	0x3f289577	0.65853065
32	0xbf65beb5	-0.8974412
33	0x3ee5a647	0.44853422
34	0x3f929d5c	1.1454272
35	0x3e869296	0.2628371
36	0xbe9dd8a7	-0.30829355
37	0x3d3a5d0c	0.045498893
38	0x3e3b5592	0.18294361
39	0xbd692ea8	-0.05692926
40	0x3eb6eeff	0.35729215
41	0xbfca2d71	-1.5795118
42	0xbe14070c	-0.14455813
43	0xbe153e8d	-0.14574642
44	0x3e99cf43	0.3004094
45	0x3e955ea0	0.29173756
46	0x3e687d0f	0.22703956
47	0x3e8d951d	0.27652827
48	0x3ee89773	0.45428047
49	0x3e635257	0.22199379
50	0xbde3c619	-0.111217685
51	0x3ec9e395	0.39431444
52	0x3ef32b0b	0.47493777
53	0x3e37994a	0.17929569
54	0xbf43c8f1	-0.7647849
55	0x3ee697d4	0.4503771
56	0x3f0051f2	0.5012504
57	0xbf83d1b5	-1.0298373
58	0x3f31ff85	0.69530517
59	0x3e7518a7	0.23935185
60	0xbf869547	-1.0514306
61	0x3e59ef2d	0.21282645
62	0x3e6f7ba8	0.23387015
63	0x3f014646	0.50497854
64	0x3ed885df	0.42289636
65	0x3ed88a20	0.4229288
66	0x3f1dcdb6	0.61642015
67	0xbecc5fe2	-0.39916903
68	0x3f0d7d25	0.5526908
69	0x3f0d8db2	0.55294335
70	0xbf294e3c	-0.66135
71	0x3eba7268	0.3641541
72	0x3f4543b5	0.7705644
73	0x3f444239	0.7666355
74	0x3f6b9bc8	0.9203458
75	0x3ed1b654	0.40959418
76	0x3ecf2ac0	0.40462303
77	0x3eee5fa4	0.46557343
78	0x3edc5ece	0.4304108
79	0x3f06dcfc	0.52680945
80	0xbe2d83bb	-0.16944782
81	0x3e34efd7	0.17669617
82	0xbea90d6c	-0.33018053
83	0xbe37b5c3	-0.1794043
84	0x3e67a6d3	0.22622232
85	0x3eebfdb7	0.46092007
86	0xbf9ee091	-1.2412282
87	0x3e2f141d	0.17097516
88	0x3f64ea73	0.8942024
89	0xbdd49b81	-0.103812225
90	0xbebf0349	-0.37307194
91	0xbeac8174	-0.33692515
92	0xbe2fdefc	-0.17174906
93	0x3e5f56d0	0.2181046
94	0x3f0da72b	0.55333203
95	0xbfeacd0a	-1.8343823
96	0x3e9e8674	0.30961955
97	0xbed98745	-0.42486015
98	0x3e1f3707	0.15548335
99	0xbf39bdc0	-0.7255516
100	0xbeab3e30	-0.33445883
101	0xbd6d681b	-0.05796061
102	0xbe6787cf	-0.226104
103	0xbfa837db	-1.3142046
104	0xbef418a9	-0.47675064
105	0xbe2d63af	-0.16932558
106	0x3ee43e48	0.44578767
107	0x3eb4ccd2	0.35312515
108	0xbf29907b	-0.66236085
109	0x3edd8fb9	0.43273714
110	0x3f0d39ef	0.55166525
111	0xbf3863ce	-0.7202729
112	0x3e9bd44d	0.3043541
113	0xbf1fd0ed	-0.6242817
114	0xbf1d5c00	-0.61468506
115	0x3df40040	0.1191411
116	0x3e2391c5	0.15973575
117	0x3db5cc5c	0.08876869
118	0xbdd3627a	-0.10321517
119	0xbe4e1cdb	-0.20128195
120	0x3f4437ac	0.7664745
121	0xbd9b4051	-0.07580627
122	0xbf9ad30d	-1.2095658
123	0x3f325a77	0.6966929
124	0x3e8e510a	0.27796203
125	0x3f261eef	0.6489095
126	0x3f4e99f8	0.8070369
127	0x3f81a0ac	1.0127158
128	0x3f77759b	0.96663827
129	0x3f1e4ebb	0.61838883
130	0x3ea175f6	0.3153531
131	0x3e881d7c	0.26584995
132	0x3f159b7f	0.58440393
133	0x3f024a10	0.5089426
134	0x3ef5cc30	0.48007345
135	0xbec08d32	-0.37607723
136	0x3de3a3ba	0.11115213
137	0x3eac9ba2	0.33712488
138	0x3c9a6ce3	0.01885075
139	0xbfc11c18	-1.5086699
140	0x3e50b0bb	0.20379917
141	0x3ddc9d1e	0.10772155
142	0x3e318b3e	0.17338273
143	0x3e052bc2	0.13004974
144	0xbf0cb2f0	-0.54960537
145	0x3ec68d1e	0.3877954
146	0x3eb60e34	0.3555771
147	0x3d933fc7	0.07189899
148	0xbfe35b9d	-1.7762333
149	0x3f018329	0.5059076
150	0x3de3169a	0.11088295
151	0x3f295eaa	0.6616007
152	0x3f509220	0.8147297
153	0x3f3672b6	0.71268785
154	0x3f50e7d5	0.8160375
155	0x3f7d724a	0.99002516
156	0x3ea5abbf	0.32357594
157	0x3ed8ee4f	0.42369315
158	0x3ed0c2fe	0.40773767
159	0x3e8ea13e	0.27857393
160	0x3ef4ae43	0.477892
161	0x3f016f0a	0.5056006
162	0x3da6e808	0.08149725
163	0x3e042f72	0.12908724
164	0x3dc07f6a	0.09399302
165	0xbeacb714	-0.33733428
166	0x3f1c2e34	0.61008
167	0xbfaade59	-1.3349105
168	0xbe783b27	-0.24241315
169	0x3e2d6a32	0.16935042
170	0x3b84e32b	0.004055401
171	0x3ef3b8c4	0.47601902
172	0x3f63d75f	0.89000505
173	0x3f6964af	0.91169256
174	0x3f3df9db	0.74209374
175	0xbdec9797	-0.11552351
176	0x3f12b6db	0.57310265
177	0x3f50ff5c	0.8163965
178	0xbeef0b89	-0.46688488
179	0x3e0536eb	0.13009231
180	0xbf4ad710	-0.7923441
181	0xbe660882	-0.22464183
182	0xbe65317b	-0.22382157
183	0xbdedf089	-0.11618144
184	0x3e9ea95b	0.30988583
185	0xbd81e2d4	-0.06342092
186	0xbe35189b	-0.17685167
187	0xbe1d19f4	-0.15341932
188	0xbe8e0998	-0.27741694
189	0x3eb43682	0.35197836
190	0x3eee8d6c	0.4659227
191	0x3ede5ec6	0.4343168
192	0x3ee669a8	0.45002484
193	0xc012279c	-2.2836676
194	0xbe7612fd	-0.24030681
195	0x3f045339	0.5168949
196	0x3ddf176e	0.10893141
197	0x3e5a675b	0.2132849
198	0xbe333127	-0.17499219
199	0xbe206484	-0.15663344
200	0xbd8e5824	-0.06950405
201	0xbe5d7f46	-0.21630582
202	0xbf31066c	-0.69150424
203	0x3ee100eb	0.43946013
204	0xbe5f1fdf	-0.21789502
205	0x3deb955d	0.11503098
206	0x3ec3e4ab	0.38260397
207	0x3f1f9e2c	0.62350726
208	0xbdb52e6a	-0.088467434
209	0xbdefa230	-0.11700857
210	0x3f0bc087	0.5459065
211	0x3effc79d	0.4995698
212	0x3da6539a	0.081214145
213	0x3f0c60ff	0.54835504
214	0x3f0ce4ac	0.55036426
215	0x3e82fd8f	0.25584075
216	0x3e11b98f	0.14230941
217	0xbee46674	-0.44609416
218	0xbf058873	-0.5216133
219	0x3ded12dd	0.115758635
220	0x3cd99616	0.026560824
221	0xbfed1cf2	-1.8524458
222	0x3d82305d	0.06356881
223	0xbf731f62	-0.9496976
224	0x3ca0434a	0.019563336
225	0x3f051dd8	0.5199866
226	0xbe9116eb	-0.28337798
227	0xbe68dabd	-0.22739692
228	0x3f1c63ab	0.6108958
229	0xbdb27450	-0.08713591
230	0x3edeb05a	0.4349392
231	0x3f1746e2	0.59092534
232	0x3f4b1136	0.79323137
233	0x3f08ceb4	0.53440404
234	0xbf629f7b	-0.885246
235	0xbde6341d	-0.112404086
236	0xbdf845a8	-0.12122661
237	0xbf8073ff	-1.0035399
238	0x3eb7fadd	0.3593358
239	0xbc773690	-0.015088692
240	0xbf7adf31	-0.97996813
241	0xbe62851a	-0.22121087
242	0xbdd881d7	-0.1057164
243	0xbd9ac432	-0.075569525
244	0x3e089662	0.13338616
245	0x3e0a3f2d	0.13500662
246	0x3f781523	0.9690725
247	0xbefba05c	-0.49145782
248	0x3f2013f4	0.62530446
249	0x3f82161f	1.0163001
250	0xbf14525d	-0.57938176
251	0x3f0916a5	0.5355018
252	0x3cb0ed82	0.021597628
253	0x3f45aeeb	0.7722003
254	0x3f53f525	0.82795936
255	0x3d7695b5	0.060201366

conv3.bias f4 [10]
0	0x3d38922c	0.045061275
1	0x3de7e42a	0.11322816
2	0x3d025970	0.031823575
3	0xbd85e73e	-0.065382466
4	0x3b8ee3ec	0.0043606665
5	0xbdcc400f	-0.09973156
6	0xbda41d4e	-0.08013402
7	0xbd8f7ca0	-0.07006192
8	0xbda42503	-0.08014872
9	0xbd5b8ccb	-0.053601068

linear.weight f4 [4, 160]
0	0x3b00cbf0	0.0019652806
1	0x3c7fd21c	0.015614059
2	0x3d3d5301	0.046221737
3	0x3d9b5168	0.075838864
4	0xbde33b41	-0.11095286
5	0x3c44686f	0.0119877895
6	0x3e0d6025	0.13806207
7	0xbca587db	-0.020206382
8	0x3ba64bcb	0.005074953
9	0x3d632140	0.05545163
10	0xbc205f96	-0.009788414
11	0xbb4637ca	-0.0030245655
12	0x3d918a9f	0.07106518
13	0x3d36b45e	0.044605605
14	0xbcc0aa3c	-0.023518674
15	0xbd258ba0	-0.04041636
16	0xbd28ada2	-0.041181214
17	0xbd8cbbc8	-0.06871754
18	0x3d34cc33	0.044140052
19	0xbbd04c74	-0.00635677
20	0x3e28e2aa	0.16492715
21	0xbd07c6a3	-0.03314842
22	0x3b8ee3f8	0.004360672
23	0x3d52df30	0.05148238
24	0xbc9db101	-0.019249441
25	0x3d9e745e	0.07737039
26	0xbe2074d2	-0.15669563
27	0xbdbb451a	-0.091440395
28	0xbdc5b8b2	-0.096543685
29	0x3db50e30	0.08840597
30	0x3c51e30b	0.012810479
31	0xbc963973	-0.01833794
32	0xbe813b3c	-0.25240505
33	0xbdea15fd	-0.11429975
34	0x3d0fdd22	0.035122998
35	0x3c0d7b67	0.008635378
36	0xbd87c86d	-0.06630025
37	0xbd75ae3e	-0.059980623
38	0x3d09501f	0.033523675
39	0x3c8b8f3d	0.017036075
40	0x3c843452	0.01613823
41	0xbe35c520	-0.17750978
42	0xbda427de	-0.080154166
43	0xbbfb8114	-0.0076752994
44	0x3cfa4df5	0.030554751
45	0xbe4ddc78	-0.20103633
46	0x3c99cbf6	0.018774014
47	0x3cecacfc	0.02889108
48	0xbb9b8263	-0.004745768
49	0xbd852fe0	-0.06503272
50	0x3aafc2c3	0.0013409484
51	0xbcdbbe21	-0.026824059
52	0x3e0dbf38	0.13842475
53	0xbd629c05	-0.055324573
54	0xbce39a34	-0.02778349
55	0xbc910353	-0.01770178
56	0x3ba32040	0.0049782097
57	0x3b2546fc	0.0025219312
58	0xba3b0fc8	-0.00071358355
59	0xbc2ff388	-0.010739215
60	0xbd2fb49e	-0.04289686
61	0xbe22731c	-0.15864223
62	0xbd23fdf8	-0.040037125
63	0xbb8bacb4	-0.004262531
64	0xbe528454	-0.20558292
65	0xbd9dead4	-0.077108055
66	0xbc58eec2	-0.013240518
67	0x3c78e46c	0.015191179
68	0x3d703974	0.05864854
69	0xbdb0be85	-0.08630089
70	0xbc27a81f	-0.010232954
71	0x3d473614	0.048635557
72	0xbbdb3706	-0.006689909
73	0xbd8bed2e	-0.06832348
74	0x3db5515c	0.08853409
75	0xbca1f4f5	-0.019770125
76	0xbcd88b22	-0.026433531
77	0x3d888e43	0.06667759
78	0xbca94744	-0.020663865
79	0x3d1123a7	0.03543439
80	0x3d270740	0.0407784
81	0xbcacf2b0	-0.021111816
82	0x3cfbef16	0.030753653
83	0x3d6ad437	0.05733129
84	0xbd1eee7e	-0.038801663
85	0x3ce49bfe	0.027906414
86	0x3e0e007b	0.13867371
87	0x3d5be218	0.053682417
88	0x3cada8c0	0.02119863
89	0x3db3c176	0.08777134
90	0xbbdd0bc8	-0.006745789
91	0x3d092381	0.033481125
92	0x3d8341b2	0.06409015
93	0xbc2b0718	-0.010438703
94	0xbca890ec	-0.020576917
95	0xbe139d43	-0.1441546
96	0xbc0778d0	-0.00826855
97	0xbc4e9ee5	-0.012611126
98	0x3ce417e6	0.027843427
99	0x3ccd8b52	0.025090847
100	0xbd8b46f3	-0.06800642
101	0xbbfc3dd8	-0.007697802
102	0xbc991f2c	-0.018691622
103	0x3d80537f	0.062659256
104	0x3c687b30	0.014189526
105	0xbd19f8d5	-0.03759082
106	0x3d113a56	0.035456024
107	0x3db10269	0.08643038
108	0x3d308adc	0.043101177
109	0xbd3d2e7d	-0.046186913
110	0x3be7744b	0.0070634237
111	0xbd625377	-0.05525538
112	0x3d3dc6ef	0.046332296
113	0x3ccb8ea7	0.024848295
114	0xbd1d57e1	-0.038413886
115	0x3c8c7629	0.017146187
116	0xbd52f7d4	-0.05150588
117	0x3d7c9bad	0.0616719
118	0x3d0b0f31	0.033950035
119	0xbdb463a3	-0.08808067
120	0xbe0406c3	-0.12893204
121	0x3e1e09c2	0.1543341
122	0xbc84bdee	-0.016203847
123	0x3b36420b	0.002781036
124	0x3e8a8a55	0.27058664
125	0xbd3857c4	-0.045005575
126	0x3d7b6f10	0.061385214
127	0xbd25ffe8	-0.040527254
128	0xbcc16ac7	-0.023610486
129	0x3dd5054f	0.10401403
130	0x3d362308	0.044467002
131	0x3c3a4c2c	0.0113707
132	0xbc7da862	-0.01548204
133	0x3ddaf581	0.106913574
134	0x3bd7946f	0.006578974
135	0x3c97caa6	0.018529247
136	0x3d10d279	0.035356972
137	0x3e0609a2	0.13089612
138	0x3d7d9d88	0.06191781
139	0x3d1121f8	0.035432786
140	0xbe38f772	-0.18063143
141	0x3da6db51	0.081473
142	0xbaca0a03	-0.0015414361
143	0x3c63d020	0.013904601
144	0xbd7326e1	-0.05936325
145	0xbd9cbbc9	-0.07653005
146	0xbd5fd907	-0.054650333
147	0x3c5903be	0.013245521
148	0x3cffd69a	0.03123026
149	0x3c057ee1	0.008147926
150	0xbd03e408	-0.03219989
151	0xbc4281a6	-0.011871731
152	0x3b8ed4d0	0.0043588653
153	0xbc8d86b9	-0.017276155
154	0x3cc5c44a	0.02414145
155	0xbda217a9	-0.07914669
156	0x3e05a8ad	0.13052626
157	0xbd4954b4	-0.049153045
158	0x3d1e6dde	0.038678996
159	0xbacc39ff	-0.0015581249
160	0xbdc42023	-0.09576442
161	0x3cd5b596	0.026087563
162	0xbc996490	-0.01872471
163	0x3a8d14dc	0.0010763663
164	0xbe2f34ad	-0.17109938
165	0x3e40b8a6	0.18820438
166	0x3c04e2c2	0.008110704
167	0xbcae997b	-0.02131342
168	0x3e42f090	0.1903708
169	0xbdec3f79	-0.11535544
170	0xbdda12be	-0.10648106
171	0x3e542e9a	0.20720902
172	0x3c8bd318	0.01706843
173	0x3db89580	0.0901289
174	0x3b854dc3	0.004068108
175	0xbc830edd	-0.015998298
176	0xbcbe1fad	-0.023208464
177	0x3dcec5b4	0.10096303
178	0x3c1eb5e8	0.0096869245
179	0xbdd80ff4	-0.10549918
180	0xbcd5395f	-0.026028333
181	0x3d0ee6d9	0.034888122
182	0x3dcf35c9	0.101176806
183	0xbd635a07	-0.05550578
184	0xbcd1e78c	-0.025623105
185	0x3baff92a	0.005370279
186	0xbd21d306	-0.03950789
187	0x3d252203	0.04031564
188	0xbe563523	-0.20918708
189	0x3e323706	0.17403802
190	0x3d3dc911	0.04633433
191	0x3d16ceb3	0.036818217
192	0x3cc4f100	0.024040699
193	0x3f181a4d	0.5941513
194	0xbdcafe81	-0.09911824
195	0xbe3fc41a	-0.1872715
196	0x3e8645dd	0.26225176
197	0xbe0741cf	-0.13208698
198	0xbccc2496	-0.02491979
199	0xbcc2f57b	-0.023798695
200	0x3e230943	0.15921502
201	0xbd25cb4b	-0.04047708
202	0x3dd233a3	0.10263755
203	0xbbaae7d1	-0.005215623
204	0xbeb52a92	-0.3538404
205	0x3e233c2a	0.1594092
206	0x3d2f2812	0.042762823
207	0x3d789ba6	0.060695313
208	0xbe24241c	-0.160294
209	0x3d82f688	0.06394678
210	0xbd7040e6	-0.058655642
211	0xbc355522	-0.0110676605
212	0xbe3b817d	-0.18311115
213	0x3dc45801	0.09587098
214	0x3db0f484	0.08640388
215	0x3d13989a	0.036034204
216	0x3e5c9076	0.21539482
217	0x3ca44d7d	0.02005648
218	0xbc9364e0	-0.017992437
219	0x3df49b89	0.119437285
220	0xbd8ca1e9	-0.068668194
221	0x3d5fea14	0.054666594
222	0xbd50869b	-0.05090962
223	0xbc2504cb	-0.0100719435
224	0x3d12313a	0.035691477
225	0x3f0620df	0.5239391
226	0xbcc095c8	-0.023508921
227	0xbe86d7fa	-0.26336652
228	0x3dae88d3	0.08522191
229	0x3ce52110	0.027969867
230	0xbdced4f7	-0.100992136
231	0xbd91df2c	-0.07122645
232	0x3e2dae76	0.16961083
233	0xbe7b89ee	-0.24564335
234	0x3ddc1b29	0.10747368
235	0x3d1be8cf	0.03806382
236	0xbe31203b	-0.17297451
237	0x3e1514d9	0.14558734
238	0x3d662167	0.0561842
239	0x3d48823b	0.048952322
240	0x3d184581	0.03717566
241	0xbd418825	-0.04724898
242	0xbd671ccf	-0.05642396
243	0x3e5e686e	0.21719524
244	0x3e72d3fc	0.23713678
245	0x3d00208b	0.031281035
246	0xbe071b89	-0.13194098
247	0xbe781365	-0.24226148
248	0x3d121335	0.03566285
249	0xbd8dd16d	-0.069247104
250	0x3de6bde6	0.11266689
251	0x3dd84e6e	0.10561834
252	0xbe370aac	-0.17875165
253	0x3cc21ff4	0.023696877
254	0xbe2ddf06	-0.16979608
255	0xbe8ea49d	-0.27859965

linear.bias f4 [4]
0	0x3d0fa83a	0.035072543
1	0xba4d4f87	-0.000783198
2	0x3cc78874	0.024357058
3	0x3e81a9ce	0.25324863
