2048AI_model_3_lr_0.01_ver_3.pt (torch_old, 36117 bytes, 8 tensors)

conv1.weight f4 [10, 3, 10, 10]
-0.059890684 0.021385722 0.115164936 0.4483239 0.5452673 0.31635982 0.14448889 0.24708588
0.27691334 0.15957169 -0.12797648 -0.02504483 -0.12049501 0.20070617 0.5967905 0.14116774
0.10460516 0.16020748 0.16617282 0.09204155 -0.012930606 0.10162334 0.049521685 0.42418936
0.70647055 0.39262193 0.22655424 0.25624642 0.2658793 0.26936713 0.2654209 0.26006213
0.1763799 0.5405899 0.90894955 0.58688736 0.5000802 0.49687508 0.55643773 0.43093544
0.3009989 0.12227211 0.16091868 0.5059519 0.92151845 0.6392034 0.55940336 0.625383
0.605326 0.5323917 0.2793135 0.13910426 0.054443542 0.55149114 0.8792838 0.6524276
0.5636156 0.6582457 0.82168055 0.6188435 0.07605001 0.091631204 -0.019613503 0.48247814
0.7664517 0.46683195 0.46949586 0.50737935 0.6866883 0.43912852 0.049950834 0.009567392
-0.041993916 0.61626726 0.7341372 0.59894145 0.53848857 0.5399191 0.65965855 0.44600466
0.047846008 0.051615868 0.12048566 0.6144651 0.839808 0.58483684 0.4509225 0.36206153
0.31875166 0.30432495 0.13742049 0.029275067 0.20131694 0.5090759 0.66078883 0.48502076
0.35678786 0.20613605 0.32412228 0.25978193 -0.31843668 -0.1911859 -0.21790163 0.097353235
0.18921675 -0.013542961 -0.113886975 -0.13077192 -0.010013604 -0.08520416 -0.60702413 -0.5949347
-0.48863748 -0.28364167 -0.09726775 -0.31640828 -0.35348073 -0.44767496 -0.39949274 -0.35949028
-0.38173226 -0.36128595 -0.39690608 -0.12920922 -0.07096741 -0.2452837 -0.24041255 -0.26984575
-0.21805829 -0.26566562 -0.34006527 -0.27792627 -0.30333713 -0.0936455 0.038263105 -0.06515188
-0.17027308 -0.11514216 -0.06054633 -0.14437076 -0.2437017 -0.29421535 -0.2629979 -0.084378146
0.0478583 -0.109394 -0.095343955 -0.13794601 -0.028858019 -0.051055945 -0.3192869 -0.29527575
-0.3381614 -0.10336211 0.2030806 0.03718321 0.07245005 0.033304885 0.083079845 0.07270274
-0.53581065 -0.4969113 -0.53154784 -0.18220806 -0.03562708 -0.1593246 -0.13341366 -0.10263653
-0.07642874 -0.135024 -0.541737 -0.49465844 -0.5565758 -0.2217497 -0.096555255 -0.14986609
-0.12164419 -0.14731215 -0.16743176 -0.19629353 -0.46189922 -0.4019408 -0.43497577 -0.030995118
0.036932938 -0.09206528 -0.18040381 -0.23861948 -0.2539177 -0.15311371 -0.38606367 -0.33335513
-0.31173396 -0.08639214 0.023663016 -0.17280562 -0.21766135 -0.24121433 -0.27240446 -0.22842163
-0.32240313 -0.2802565 -0.14682022 -0.09135314 0.037158113 -0.13505588 -0.22897257 -0.19305047
-0.16970006 -0.076440655 -0.54529935 -0.49840394 -0.50293237 -0.38153794 -0.30922115 -0.49998218
-0.5270998 -0.4074466 -0.44696063 -0.38164395 -0.36352798 -0.31767708 -0.3625909 -0.20739804
-0.19352844 -0.3951135 -0.3577234 -0.33278832 -0.31567553 -0.31418562 -0.26205644 -0.2986641
-0.27360258 -0.25167534 -0.05923969 -0.30222487 -0.21455288 -0.2922741 -0.21208856 -0.18740499
-0.28468713 -0.29931885 -0.26958826 -0.2050136 -0.058313858 -0.291206 -0.27167755 -0.30430374
-0.2117288 -0.10535265 -0.2947751 -0.31931943 -0.31324804 -0.17993644 -0.06701637 -0.1872153
00000000: ef4f 75bd 1c31 af3c 98db eb3d b68a e53e
00000010: a396 0b3f eaf9 a13e e5f4 133e 1504 7d3e
00000020: 96c7 8d3e c366 233e 440c 03be d12a cdbc
00000030: 16c6 f6bd eb85 4d3e 43c7 183f 478e 103e
00000040: 3b3b d63d 6e0d 243e 3529 2a3e 4880 bc3d
00000050: e4da 53bc e61f d03d 40d7 4a3d 592f d93e
00000060: 41db 343f be05 c93e d6fd 673e bb32 833e
00000070: 5521 883e 7dea 893e 40e5 873e dd26 853e
00000080: ef9c 343e 1a64 0a3f ebb0 683f 403e 163f
00000090: 4205 003f 6966 fe3e b472 0e3f 92a3 dc3e
000000a0: 871c 9a3e cd69 fa3d dec7 243e 1086 013f
000000b0: a2e8 6b3f d6a2 233f 0f35 0f3f 1a19 203f
000000c0: a5f6 1a3f d34a 083f 2e02 8f3e 5971 0e3e
000000d0: 3100 5f3d 862e 0d3f be18 613f 7f05 273f
000000e0: 1d49 103f ca82 283f a859 523f 876c 1e3f
000000f0: 1cc0 9b3d 24a9 bb3d 7fac a0bc 6007 f73e
00000100: 2e36 443f 9904 ef3e c361 f03e 9de3 013f
00000110: ceca 2f3f 74d5 e03e 3f99 4c3d 8dc0 1c3c
00000120: d001 2cbd b1c3 1d3f 6af0 3b3f 3a54 193f
00000130: 63da 093f 2338 0a3f 62df 283f b95a e43e
00000140: 2dfa 433d 296b 533d 30c1 f63d 964d 1d3f
00000150: a8fd 563f deb7 153f 50df e63e 2160 b93e
00000160: 6b33 a33e 7bd0 9b3e f5b7 0c3e 44d2 ef3c
00000170: 0726 4e3e cc52 023f 7529 293f a454 f83e
00000180: e6ac b63e 5415 533e 5bf3 a53e 2302 853e
00000190: 220a a3be 3dc6 43be 9b21 5fbe 2261 c73d
000001a0: 09c2 413e 4ce3 5dbc 933d e9bd 13e9 05be
000001b0: 1910 24bc 857f aebd ef65 1bbf a44d 18bf
000001c0: b12e fabe 7b39 91be 5034 c7bd 4400 a2be
000001d0: 6dfb b4be a735 e5be 508a ccbe 1c0f b8be
000001e0: 6972 c3be 79fa b8be 4637 cbbe 6c4f 04be
000001f0: 5d57 91bd a62b 7bbe b52e 76be 3929 8abe
00000200: ac4a 5fbe 5305 88be 091d aebe 5a4c 8ebe
00000210: 014f 9bbe 36c9 bfbd c6b9 1c3d 596e 85bd
00000220: 115c 2ebe a7cf ebbd 6eff 77bd eed5 13be
00000230: f08c 79be 65a3 96be a9a7 86be 73ce acbd
00000240: 1107 443d f609 e0bd b143 c3bd b841 0dbe
00000250: a767 ecbc 0a20 51bd 9379 a3be 622e 97be
00000260: 7e23 adbe 84af d3bd 5cf4 4f3e 6c4d 183d
00000270: b160 943d b46a 083d c425 aa3d 2de5 943d
00000280: e32a 09bf 286b febe 8513 08bf c094 3abe
00000290: b3ed 11bd fd25 23be 979d 08be 1a33 d2bd
000002a0: ac86 9cbd bb43 0abe 47af 0abf df43 fdbe
000002b0: c07b 0ebf 5a12 63be c3be c5bd 7f76 19be
000002c0: 9720 f9bd ffd8 16be 3b73 2bbe 2c01 49be
000002d0: 0e7e ecbe 2fcb cdbe 25b5 debe 79e9 fdbc
000002e0: fe46 173d b98c bcbd c7bb 38be aa58 74be
000002f0: 8001 82be d7c9 1cbe 23aa c5be 86ad aabe
00000300: 989b 9fbe 5dee b0bd f1d8 c13c f5f3 30be
00000310: 9ee2 5ebe e400 77be 9978 8bbe 5ce7 69be
00000320: 0612 a5be c87d 8fbe 0a58 16be 5b17 bbbd
00000330: 1b33 183d 174c 0abe c977 6abe 06af 45be
00000340: dac5 2dbe eb8c 9cbd bd98 0bbf cd2e ffbe
00000350: 2dc0 00bf f158 c3be 3c52 9ebe aafd ffbe
00000360: 03f0 06bf d79c d0be 06d8 e4be d666 c3be
00000370: 5720 babe 92a6 a2be 84a5 b9be 2760 54be
00000380: 522c 46be 514c cabe 8627 b7be 3b63 aabe
00000390: 39a0 a1be f0dc a0be 432c 86be 80ea 98be
000003a0: a315 8cbe 97db 80be 51a5 72bd 38bd 9abe
000003b0: c0b3 5bbe f3a4 95be be2d 59be 18e7 3fbe
000003c0: 83c2 91be 5240 99be 7907 8abe 16ef 51be
000003d0: 83da 6ebd f418 95be 5219 8bbe b3cd 9bbe
000003e0: 6fcf 58be 21c3 d7bd c3ec 96be d67d a3be
000003f0: 0c62 a0be 4241 38be e13f 89bd 5eb5 3fbe

conv1.bias f4 [10]
-0.016926618 0.29655325 0.08544543 -0.56903195 0.23654304 -0.087814786 0.07313399 -0.3239361
-0.23342125 0.7683497
00000000: b1a9 8abc d4d5 973e 03fe ae3d 14ac 11bf
00000010: 5738 723e 3dd8 b3bd 46c7 953d f4da a5be
00000020: fb05 6fbe 91b2 443f

conv2.weight f4 [20, 10, 4, 4]
0.22157006 0.0223909 -0.11007343 0.02488374 0.511181 0.6442108 0.529365 0.44119796
0.059473563 0.40823266 0.36259875 0.11089713 0.34370092 0.45963034 0.25448397 0.30349067
-0.02817069 -0.13297255 0.03132126 0.15146989 0.5270438 0.79622906 0.7235432 0.53089553
-0.231593 0.7050663 0.8225617 0.36801866 -0.15461563 0.68382436 0.22331363 0.30514637
0.27948716 -0.44596764 -0.04619924 -0.35072935 0.03317451 -0.2658205 0.08414632 -0.11198789
0.35151544 -0.08733827 0.4156678 0.36262012 0.4141988 -0.18491168 0.2226053 0.3081832
-0.16456784 -0.32250595 -0.25844017 -0.22255063 -0.040340424 -0.18837161 -0.10218475 -0.010981917
0.04424803 -0.016237464 -0.13664417 -0.15726681 0.052521348 -0.032936387 -0.14801522 -0.19431013
0.5684902 -0.7217338 -0.44552264 -1.250689 -0.14275111 -0.41109297 -0.56913346 -0.38152632
0.6995672 -0.59020567 0.15011345 -0.28676605 0.9437851 -0.3934427 -0.1284005 -0.020529587
-0.0955772 0.059179906 0.03167276 0.17791523 0.4820384 0.6612091 0.63471574 0.5889981
-0.06778473 0.5496364 0.5070977 0.19417328 -0.1549836 0.54580593 0.4425176 0.3552625
-0.15265602 0.049705863 -0.036924813 0.069197 0.53208333 0.86445487 0.6316179 0.7060828
0.13054019 0.45801586 0.577486 0.20349155 0.06676521 0.42080614 0.38904968 0.3798446
0.10339117 0.36852008 0.25402746 0.33513382 0.3849255 0.5722123 0.33893666 0.31853646
0.098090924 0.68325 0.5174926 0.23813893 0.10353731 0.5952222 0.48817125 0.399458
0.7463516 -0.59699583 -0.058264025 -0.7379673 0.034893554 -0.33781555 -0.035272695 -0.22145048
1.0501664 -0.4564544 0.32194412 0.015052131 1.303905 -0.35157537 -0.11588346 0.06388086
-0.2097888 -0.5973433 -0.5398823 -0.3884791 -0.09931784 -0.3990337 -0.40497768 -0.30869108
-0.1130242 0.18622357 0.020958532 -0.08231264 -0.14066654 0.0006591023 0.044142146 -0.013265057
-0.023766981 0.20594756 0.05486082 0.31008056 0.029054895 0.32089588 0.07204847 0.19005427
0.22314803 0.38208932 -0.12521544 -0.24764359 0.216807 0.5075345 -0.11210565 0.2666196
-0.23544002 -0.04348396 -0.111848526 0.032637987 -0.14360441 0.02778276 -0.16679886 -0.061060924
0.13911013 0.21454996 -0.07254149 -0.29315114 0.03010877 0.30411848 0.05106271 0.63207287
0.0044838567 -0.48380166 0.3151276 -0.033219736 -0.062751554 -0.34721 0.2251298 0.05320946
0.29588482 -0.08783965 0.10437602 0.13985464 0.18396418 1.4092726 -0.40269393 1.1472802
-0.15987498 -0.04608856 0.020503173 -0.1451888 0.10454563 0.03202957 -0.029610896 -0.15731223
-0.12963672 0.107546255 0.11382066 0.11998785 0.018322596 0.23436125 0.23775008 -0.05873573
0.08278725 -0.41353396 0.35515225 -0.20121308 -0.23230544 -0.4042359 0.07261761 0.14592698
-0.0026007385 -0.058164295 -0.08518684 -0.031389594 -0.04054965 1.3308963 -0.19781643 1.0760993
-0.20740752 0.0456143 -0.031257782 0.010050014 -0.0868707 0.068649665 -0.09863221 -0.19310896
-0.07664479 0.3617375 -0.1854 -0.27966693 -0.10670531 0.35157657 0.11758587 0.36576486
00000000: 43e3 623e 1f6d b73c 2e6e e1bd fcd8 cb3c
00000010: c2dc 023f 00eb 243f 7784 073f b3e4 e13e
00000020: 8d9a 733d df03 d13e 8ba6 b93e 091e e33d
00000030: 91f9 af3e ab54 eb3e b94b 823e 2163 9b3e
00000040: 38c6 e6bc f529 08be b94a 003d ec1a 1b3e
00000050: 58ec 063f abd5 4b3f 213a 393f c5e8 073f
00000060: b726 6dbe 3a7f 343f 6793 523f f16c bc3e
00000070: 8f53 1ebe 1d0f 2f3f 54ac 643e 253c 9c3e
00000080: f118 8f3e df55 e4be 6a3b 3dbd cc92 b3be
00000090: ffe1 073d a019 88be e854 ac3d e859 e5bd
000000a0: d5f9 b33e 68de b2bd 69d2 d43e 58a9 b93e
000000b0: dd11 d43e 7d59 3dbe a5f2 633e 30ca 9d3e
000000c0: 7984 28be 801f a5be 4552 84be 50e4 63be
000000d0: 003c 25bd 7de4 40be 3d46 d1bd 80ed 33bc
000000e0: 6c3d 353d 6e04 85bc 73ec 0bbe 8d0a 21be
000000f0: a020 573d 4ee8 06bd 4d91 17be 3cf9 46be
00000100: 9388 113f 8cc3 38bf 8b1b e4be 9416 a0bf
00000110: 592d 12be c77a d2be bbb2 11bf 6b57 c3be
00000120: d616 333f b817 17bf 57b7 193e 00d3 92be
00000130: e69b 713f 5271 c9be 6c7b 03be aa2d a8bc
00000140: fbbd c3bd a166 723d 4cbb 013d 692f 363e
00000150: bdcd f63e 0045 293f bb7c 223f 94c8 163f
00000160: b8d2 8abd f9b4 0c3f 28d1 013f 5cd5 463e
00000170: 05b4 1ebe f0b9 0b3f ab91 e23e f7e4 b53e
00000180: dc51 1cbe 6098 4b3d 793e 17bd 28b7 8d3d
00000190: 9d36 083f ea4c 5d3f b6b1 213f d8c1 343f
000001a0: 54ac 053e 0e81 ea3e 1fd6 133f 1760 503e
000001b0: 33bc 883d e773 d73e 8531 c73e fe7a c23e
000001c0: c0be d33d aaae bc3e e30f 823e a996 ab3e
000001d0: f514 c53e 817c 123f 1b89 ad3e 3617 a33e
000001e0: e5e3 c83d 79e9 2e3f 657a 043f b1da 733e
000001f0: 5f0b d43d 7b60 183f 95f1 f93e c285 cc3e
00000200: e610 3f3f b8d4 18bf 42a6 6ebd 6deb 3cbf
00000210: 8bec 0e3d 29f6 acbe 1a7a 10bd eac3 62be
00000220: da6b 863f 64b4 e9be dcd5 a43e 379d 763c
00000230: 5ce6 a63f b001 b4be 4f54 edbd f8d3 823d
00000240: e0d2 56be 7eeb 18bf ba35 0abf bce6 c6be
00000250: 2767 cbbd 254e ccbe 3c59 cfbe c20c 9ebe
00000260: 3b79 e7bd 64b1 3e3e 3ab1 ab3c 8893 a8bd
00000270: e40a 10be 9bc7 2c3a 65ce 343d ae55 59bc
00000280: f9b2 c2bc ebe3 523e bdb5 603d e1c2 9e3e
00000290: 8804 ee3c 774c a43e 268e 933d 969d 423e
000002a0: eb80 643e 36a1 c33e 7a38 00be 4896 7dbe
000002b0: a702 5e3e c8ed 013f a697 e5bd 5d82 883e
000002c0: 3017 71be 3d1c 32bd d710 e5bd 69af 053d
000002d0: 090d 13be ac98 e33c 52cd 2abe 051b 7abd
000002e0: e372 0e3e fcb2 5b3e a290 94bd e817 96be
000002f0: aba6 f63c 6bb5 9b3e 2227 513d 87cf 213f
00000300: 51ed 923b dab4 f7be 6858 a13e 6b11 08bd
00000310: e383 80bd 82c5 b1be 6d88 663e 2af2 593d
00000320: 377e 973e 46e5 b3bd 18c3 d53d 0e36 0f3e
00000330: 1b61 3c3e 0b63 b43f e62d cebe 14da 923f
00000340: 44b6 23be 5cc7 3cbd 45f6 a73c 5fac 14be
00000350: 051c d63d 7031 033d 8d92 f2bc 7516 21be
00000360: 7dbf 04be 3641 dc3d ce1a e93d 31bc f53d
00000370: 4519 963c 65fc 6f3e c274 733e e094 70bd
00000380: 5d8c a93d b9ba d3be 84d6 b53e cd0a 4ebe
00000390: 7ae1 6dbe 02f8 cebe 8bb8 943d e26d 153e
000003a0: 2771 2abb af3d 6ebd 7076 aebd 6092 00bd
000003b0: 6417 26bd cf5a aa3f 6490 4abe 9fbd 893f
000003c0: a362 54be 0fd6 3a3d 2908 00bd d0a8 243c
000003d0: 44e9 b1bd 3298 8c3d afff c9bd 5bbe 45be
000003e0: f2f7 9cbd a835 b93e 7fd9 3dbe 8130 8fbe
000003f0: 5088 dabd d801 b43e dcd0 f03d 8845 bb3e

conv2.bias f4 [20]
0.13191831 -0.053474765 -0.06651269 0.006559894 0.01733782 0.084465615 -0.13448575 -0.14395799
0.119216695 0.09211806 0.05653993 0.05095023 -0.07740481 -0.11991201 0.002900028 0.053674966
-0.016186753 -0.0018575123 0.0077867536 0.044508383
00000000: 9815 073e 5b08 5bbd ce37 88bd 61f4 d63b
00000010: 0b08 8e3c 4ffc ac3d a2b6 09be b969 13be
00000020: e227 f43d 65a8 bc3d 6a96 673d 30b1 503d
00000030: 6a86 9ebd 6e94 f5bd 650e 3e3b 48da 5b3d
00000040: 159a 84bc c577 f3ba 0628 ff3b 6c4e 363d

conv3.weight f4 [10, 20, 3, 3]
-0.4323741 0.18202643 0.17889918 -0.13494317 0.45819312 -0.2149838 -0.21296756 -0.07483296
-0.10180887 -0.1537376 -0.004334465 -0.044980485 0.2141091 -2.3086822 -0.36971965 0.2374725
0.5100168 0.32436845 -0.19143903 0.06180761 0.063617416 -0.36547846 -0.853186 0.46115035
-0.49583876 -0.25632104 0.73402345 0.25202793 -0.072833866 -0.04156194 0.29681593 0.33876485
-0.4908313 0.33816966 0.101263985 -0.120689735 -0.48637208 -0.2512752 -0.07630926 -0.25249705
-0.007167071 -1.3524916 -0.34452668 -0.58116525 0.06552146 0.10515815 -0.010820854 0.05628027
-0.06458023 0.017250214 -0.13564843 -0.11518126 0.08778777 -0.07323949 -0.50687337 0.44252634
0.47958854 -0.62547076 0.7213565 0.5609602 -0.6448986 0.2290812 0.40209475 -0.01614209
-0.31770104 -0.2912829 0.038750466 -0.31793356 -0.043867532 -0.026211204 -0.2544288 -0.13495874
0.14167064 0.17553826 0.3236863 -0.15449964 -0.0090104295 -0.060681067 -0.1385761 0.04416904
-0.28375277 -0.09575467 -0.26457527 -0.1495164 0.21327098 -0.25088596 -0.8680677 0.15142846
0.3016034 0.043120038 -0.17202377 -0.34146532 -0.23908855 -0.22632405 0.07308806 -1.1935254
-0.112262614 0.34001094 0.043824993 -0.32507938 -0.34601414 -0.19482622 -0.4379887 -1.3738974
-0.8083583 -0.39053866 0.25489533 0.18821068 -0.31327644 0.3697738 0.47220492 -0.31204993
0.2429727 -0.59911764 -0.21661349 0.06472776 0.12028138 -0.27111197 -0.26195195 -0.34873915
-0.089870095 -0.4622511 -1.9061943 -0.1612399 -0.33130798 -0.10427163 0.30268523 0.297005
0.23592803 -0.018977864 0.08765578 -0.20562427 -0.044625383 0.13275075 -0.0004560792 -0.31421697
-0.18870664 -0.13129945 0.083449885 -1.2324785 -0.13345696 0.17293027 0.12851162 -0.14298265
-0.44526723 -0.1770453 -0.3100703 -0.04088911 -0.98718506 0.21863298 0.00093119417 0.313058
0.57086205 0.014837569 0.075571544 0.24496575 -0.111667566 -0.15942346 -0.08912333 -0.15647408
-0.09921116 -0.024309188 0.18074848 0.09961531 0.036865108 -0.32027334 0.45856285 -1.0487618
-0.24014446 -0.019340497 0.045823187 -0.08445967 0.007308541 0.062027317 0.15940963 -0.09068058
0.041812055 0.23191018 -0.28092983 -0.26068342 -1.0372372 -0.24721684 -0.23564297 -0.4415943
0.3449645 -0.20657074 -0.49245468 -0.16750237 -0.18299116 0.09620316 0.25755355 0.27021927
0.104718775 -1.6988186 -0.24646889 0.15836424 -0.31992483 -0.20348379 -0.2706876 -0.023179568
-0.038499158 -0.31594554 -0.33846933 0.012680097 -0.31195417 -0.554698 -0.027374769 0.11473521
0.16947559 0.12071284 -0.05777428 0.115571685 -0.35794872 -0.04095162 0.29162955 -0.1335867
-0.25005093 -0.14120731 -0.25773296 -0.2821709 0.38135406 -1.3401562 -0.27637178 -0.69571954
0.053669244 0.32091337 0.14273664 0.18239734 0.15136273 -0.0072683687 -0.009693106 0.14532796
0.27736753 0.06592893 -0.6722204 -0.04756987 -0.05088684 -0.8058892 0.33642712 0.056211513
-0.78011096 -0.3470341 -0.20055401 -0.18708736 -0.07760093 -0.106011614 0.16569078 -0.10777253
0.117001146 0.20287924 -0.5498146 0.1595846 0.09227313 0.07800393 0.11747307 0.03664434
00000000: 2360 ddbe 2365 3a3e 5931 373e 8b2e 0abe
00000010: 4a98 ea3e b724 5cbe 2b14 5abe 0642 99bd
00000020: 2b81 d0bd 646d 1dbe 2108 8ebb 753d 38bd
00000030: 6a3f 5b3e 73c1 13c0 e54b bdbe fe2b 733e
00000040: 7690 023f 9f13 a63e 9808 44be fa29 7d3d
00000050: d949 823d fe1f bbbe 666a 5abf e61b ec3e
00000060: 94de fdbe 833c 83be f6e8 3b3f ce09 813e
00000070: ec29 95bd da3c 2abd 42f8 973e 9672 ad3e
00000080: 3d4e fbbe 9324 ad3e 7e63 cf3d 2e2c f7bd
00000090: c305 f9be 25a7 80be 0848 9cbd 4b47 81be
000000a0: c0d9 eabb 721e adbf cd65 b0be 3fc7 14bf
000000b0: 1d30 863d 285d d73d f449 31bc 2486 663d
000000c0: a442 84bd 5250 8d3c 6ce7 0abe 27e4 ebbd
000000d0: 13ca b33d 96fe 95bd 74c2 01bf d092 e23e
000000e0: a18c f53e da1e 20bf d2aa 383f 169b 0f3f
000000f0: 1318 25bf 4394 6a3e 5ddf cd3e 6b3c 84bc
00000100: b6a9 a2be 0823 95be cfb8 1e3d 30c8 a2be
00000110: 71ae 33bd e1b8 d6bc 7e44 82be a032 0abe
00000120: 1c12 113e 4dc0 333e 36ba a53e 2735 1ebe
00000130: 7ba0 13bc b68c 78bd e5e6 0dbe 98ea 343d
00000140: 0b48 91be 061b c4bd 6976 87be d41a 19be
00000150: b563 5a3e 2074 80be af39 5ebf 1010 1b3e
00000160: c36b 9a3e a39e 303d 0027 30be 8bd4 aebe
00000170: a1d3 74be 7ec1 67be 31af 953d 71c5 98bf
00000180: f1e9 e5bd ea15 ae3e d681 333d ce70 a6be
00000190: c428 b1be 8680 47be 0e40 e0be dfdb afbf
000001a0: 92f0 4ebf aff4 c7be a481 823e 4dba 403e
000001b0: c565 a0be fe52 bd3e d8c4 f13e 02c5 9fbe
000001c0: d6cd 783e c65f 19bf edcf 5dbe fd8f 843d
000001d0: 1656 f63d 30cf 8abe 911e 86be f08d b2be
000001e0: d00d b8bd 2dac ecbe 2dfe f3bf 131c 25be
000001f0: 33a1 a9be 5d8c d5bd 8ff9 9a3e 0a11 983e
00000200: 1e97 713e 7777 9bbc e084 b33d 2b8f 52be
00000210: 1bc9 36bd d0ef 073e ea1d efb9 0ce1 a0be
00000220: 503c 41be 5d73 06be c6e7 aa3d dbc1 9dbf
00000230: f1a8 08be a214 313e 8d98 033e 0b6a 12be
00000240: 11fa e3be 5d4b 35be 89c1 9ebe 577b 27bd
00000250: 29b8 7cbf 53e1 5f3e 621b 743a 2349 a03e
00000260: 0424 123f 4619 733c 41c5 9a3d 4dd8 7a3e
00000270: f7b1 e4bd e73f 23be 4b86 b6bd be3a 20be
00000280: 382f cbbd 1024 c7bc 2116 393e 1d03 cc3d
00000290: deff 163d defa a3be c0c8 ea3e d43d 86bf
000002a0: 6ee8 75be f66f 9ebc 18b1 3b3d 31f9 acbd
000002b0: 7c7c ef3b 5b10 7e3d 473c 233e bdb6 b9bd
000002c0: 1e43 2b3d dd79 6d3e 09d6 8fbe 4c78 85be
000002d0: 30c4 84bf 6926 7dbe 644c 71be a618 e2be
000002e0: 309f b03e 4887 53be 0523 fcbe be85 2bbe
000002f0: 0962 3bbe 2a06 c53d 0fde 833e 2e5a 8a3e
00000300: cc76 d63d e372 d9bf 5762 7cbe 3c2a 223e
00000310: 30cd a3be 0e5e 50be 9197 8abe 14e3 bdbc
00000320: 4bb1 1dbd 9dc3 a1be da4b adbe 2ec0 4f3c
00000330: 75b8 9fbe b000 0ebf 0d41 e0bc 4bfa ea3d
00000340: 028b 2d3e 4b38 f73d b9a4 6cbd d9b0 ec3d
00000350: 0e45 b7be e3bc 27bd 7850 953e f4ca 08be
00000360: ad06 80be a698 10be 93f5 83be b478 90be
00000370: d740 c33e 3d8a abbf 9a80 8dbe ad1a 32bf
00000380: 48d4 5b3d c24e a43e 8e29 123e 5ec6 3a3e
00000390: d5fe 1a3e 7f2b eebb d5cf 1ebc dad0 143e
000003a0: 1e03 8e3e bf05 873d a316 2cbf a0d8 42bd
000003b0: b86e 50bd c14e 4ebf 2d40 ac3e 0b3e 663d
000003c0: 5ab5 47bf 74ae b1be 085e 4dbe d493 3fbe
000003d0: 3ded 9ebd 9e1c d9bd d8aa 293e d8b7 dcbd
000003e0: 4c9e ef3d 93bf 4f3e a6c0 0cbf 256a 233e
000003f0: b2f9 bc3d 86c0 9f3d b995 f03d 6018 163d

conv3.bias f4 [10]
0.05688845 0.09585248 0.05478661 -0.073652744 0.009170357 -0.102286026 -0.04880529 -0.04594037
-0.08742989 -0.04167657
00000000: dd03 693d 4e4e c43d ed67 603d 40d7 96bd
00000010: 443f 163c 567b d1bd 0ee8 47bd f82b 3cbd
00000020: 710e b3bd 0db5 2abd

linear.weight f4 [4, 160]
-0.004731046 0.061683215 0.011161787 0.009910998 -0.052480794 0.09769127 0.0119124 -0.04461294
-0.013722084 0.013812093 -0.05963599 0.036724586 -0.015625328 0.022142166 0.06060038 -0.021918833
-0.030907938 -0.043994665 -0.0722704 0.059885964 0.08800967 -0.024075797 -0.07551848 0.112478115
-0.0040245424 0.029844118 -0.043026794 -0.029741887 -0.07998743 -0.034539483 -0.04103852 0.008156485
-0.060775068 -0.003004144 -0.019356692 -0.09901924 -0.005950165 0.01375409 0.009684245 -0.049185738
0.0027863788 -0.10821352 0.02145008 0.009643837 0.044138968 -0.08938912 0.003097879 0.029804682
0.042542897 -0.024649428 -0.14083901 0.0037027015 0.110101014 0.008320559 -0.14001314 0.031661637
0.012753754 0.06675028 -0.058149174 0.030235248 -0.013089512 -0.07629347 -0.06081111 -0.02763417
-0.0247539 -0.041192643 0.02672931 0.04575113 0.049577836 -0.048304904 0.0063885315 -0.015435305
-0.041488457 0.038684506 0.03658684 0.004393681 0.025499946 -0.057083033 0.016789591 0.02835515
0.014033206 -0.022754973 -0.028382221 0.019901311 0.00015321288 0.057861663 0.081499584 -0.02394403
0.059014205 -0.026336802 -0.065098315 0.04917816 -0.009057947 -0.050047126 0.076008 -0.015854592
0.0048226872 0.022950334 -0.04541136 0.03745904 -0.0027732279 0.050923802 -0.059958335 -0.058104236
0.0061405646 -0.038818877 -0.12884681 0.030085519 -0.053727582 -0.062888086 0.08965415 0.059194308
-0.06340228 0.0058842474 0.027059454 0.06629118 -0.07815015 0.05453859 0.10808211 -0.034097333
-0.22142054 -0.0051169395 -0.060001485 0.014744815 -0.04147133 -0.13822363 0.009253407 -0.039097473
-0.06835546 0.023391128 -0.03056807 -0.017333644 0.053003147 0.056862716 -0.009711095 0.01662325
0.023013908 0.06964985 0.13000295 0.056011103 -0.03115314 -0.031332545 -0.09927584 0.048739783
-0.04431801 -0.014010346 0.034921646 0.036832042 -0.03551942 0.090440676 -0.0385731 -0.07411803
0.07037209 -0.0463585 -0.004297984 -0.035208784 0.14377682 -0.042019278 0.009941501 0.016759958
-0.054865126 -0.1732601 0.06672949 0.06267591 -0.15495121 0.022109605 0.08502057 -0.20077094
0.09787364 -0.10241915 0.10655759 0.07883199 0.026548216 0.04637702 -0.03196506 -0.06252276
0.031168392 -0.067980796 -0.0042928904 -0.020827912 0.081822984 -0.023341674 0.14020081 -0.07022644
0.0058799055 0.04153084 -0.038971204 -0.028137835 -0.01642464 0.026197229 0.121299766 0.023252554
0.0960805 0.07108523 0.14575295 -0.012286037 0.12408079 -0.051113486 -0.11377305 0.12580992
0.079790324 0.072532386 -0.08040771 -0.0147301275 0.026088335 0.110236175 0.047112476 0.029897643
-0.04071195 -0.098611645 -0.0330721 0.070702046 -0.0562663 -0.025885442 0.098397166 -0.11641976
0.1490718 0.013173676 0.044807035 -0.030664656 0.02234961 -0.0046076947 -0.04620837 -0.018681604
-0.024347277 0.0017769558 0.18584874 -0.024986405 -0.020885088 0.033820357 0.04760765 -0.081602864
0.10639668 -0.09570695 0.060033415 -0.08749177 0.09043804 0.045696206 0.054578867 0.033552177
0.041002393 0.02659465 0.12573633 0.1962137 0.15860441 0.08463048 0.055153 -0.16690744
-0.032639254 -0.047028963 0.1391126 0.010998382 -0.055228457 0.07460588 -0.011535843 -0.10792271
00000000: e406 9bbb 8aa7 7c3d eedf 363c bd61 223c
00000010: 1af6 56bd 5c12 c83d 3a2c 433c 0fbc 36bd
00000020: 98d2 60bc 1e4c 623c de44 74bd 856c 163d
00000030: b000 80bc 7d63 b53c 1b38 783d 208f b3bc
00000040: a532 fdbc c033 34bd 8102 94bd fc4a 753d
00000050: 6a3e b43d 9b3a c5bc 6fa9 9abd ed5a e63d
00000060: 4fe0 83bb a77b f43c dd3c 30bd 42a5 f3bc
00000070: 73d0 a3bd 4679 0dbd 0218 28bd c7a2 053c
00000080: 47ef 78bd 2ce1 44bb ed91 9ebc 99ca cabd
00000090: 9af9 c2bb d658 613c abaa 1e3c fc76 49bd
000000a0: ae9b 363b 0d9f ddbd 14b8 af3c 2f01 1e3c
000000b0: 10cb 343d a511 b7bd c905 4b3b f328 f43c
000000c0: 7641 2e3d 99ed c9bc 1a38 10be 06a9 723b
000000d0: a47c e13d f452 083c 9b5f 0fbe a2af 013d
000000e0: 1ff5 503c 5fb4 883d d42d 6ebd e9af f73c
000000f0: 6475 56bc c03f 9cbd 1215 79bd 0e61 e2bc
00000100: b1c8 cabc 9eb9 28bd 6df7 da3c 8965 3b3d
00000110: 2112 4b3d 5ddb 45bd e356 d13b 5de4 7cbc
00000120: cdef 29bd a573 1e3d 15dc 153d def8 8f3b
00000130: 43e5 d03c e6cf 69bd 538a 893c 0f49 e83c
00000140: 88eb 653c a368 babc d581 e8bc 1308 a33c
00000150: c5a7 2039 5a00 6d3d 41e9 a63d 4526 c4bc
00000160: e1b8 713d 47c0 d7bc 4452 85bd 0a6f 493d
00000170: c967 14bc 37fe 4cbd 15aa 9b3d 7de1 81bc
00000180: a207 9e3b 5702 bc3c 4301 3abd a66e 193d
00000190: 0bbf 35bb 7a95 503d df96 75bd b5fe 6dbd
000001a0: ca36 c93b 8b00 1fbd 6bf0 03be e875 f63c
000001b0: 7411 5cbd 78cb 80bd 989c b73d bb75 723d
000001c0: 0ed9 81bd a5d0 c03b caab dd3c acc3 873d
000001d0: 300d a0bd db63 5f3d 275a dd3d a5a9 0bbd
000001e0: 11bc 62be 00ac a7bb 1ec4 75bd 3d94 713c
000001f0: d7dd 29bd 7f8a 0dbe 9a9b 173c ac24 20bd
00000200: f3fd 8bbd c09e bf3c e469 fabc 49ff 8dbc
00000210: d419 593d e1e8 683d 491b 1fbc 7b2d 883c
00000220: aa87 bc3c 95a4 8e3d 7e1f 053e e66b 653d
00000230: df34 ffbc 8e56 00bd 2251 cbbd 5ea3 473d
00000240: cd86 35bd a68b 65bc 000a 0f3d 32dd 163d
00000250: d07c 11bd f638 b93d d4fe 1dbd 32cb 97bd
00000260: 3e1f 903d 69e2 3dbd 1ad6 8cbb 1637 10bd
00000270: 3b3a 133e 681c 2cbd ade1 223c 2e4c 893c
00000280: 41ba 60bd 186b 31be 79a9 883d 3a5c 803d
00000290: 88ab 1ebe 341f b53c 441f ae3d e696 4dbe
000002a0: fa71 c83d 22c1 d1bd de3a da3d ab72 a13d
000002b0: a57b d93c d5f5 3d3d cbed 02bd ef0b 80bd
000002c0: db54 ff3c 8439 8bbd 60ab 8cbb 4c9f aabc
000002d0: cf92 a73d 0a37 bfbc cd90 0f3e e1d2 8fbd
000002e0: 39ac c03b 3e1c 2a3d 45a0 1fbd 5181 e6bc
000002f0: f78c 86bc 929b d63c 036c f83d 247c be3c
00000300: dac5 c43d 2295 913d 4340 153e 604b 49bc
00000310: 121e fe3d 605c 51bd d801 e9bd 51d4 003e
00000320: 1c69 a33d dc8b 943d ccac a4bd a256 71bc
00000330: 34b7 d53c 81c3 e13d 03f9 403d e7eb f43c
00000340: 93c1 26bd e7f4 c9bd 9c76 07bd 3ccc 903d
00000350: 7e77 66bd b50d d4bc 7484 c93d 7c6d eebd
00000360: 47a6 183e 67d6 573c 9587 373d 7234 fbbc
00000370: 8816 b73c 25fc 96bb fd44 3dbd 2a0a 99bc
00000380: f173 c7bc bee8 e83a 224f 3e3e 4ab0 ccbc
00000390: 3417 abbc 3787 0a3d 3d00 433d 671f a7bd
000003a0: 81e6 d93d 0102 c4bd 99e5 753d e32e b3bd
000003b0: 9437 b93d f22b 3b3d 178e 5f3d 026e 093d
000003c0: 20f2 273d 06dd d93c 06c1 003e 3fec 483e
000003d0: 3269 223e bf52 ad3d 1de8 613d c9e9 2abe
000003e0: bdb0 05bd 71a1 40bd 8973 0e3e 8f32 343c
000003f0: 3c37 62bd f8ca 983d d500 3dbc 9506 ddbd

linear.bias f4 [4]
-0.011924073 0.06267939 -0.0150377955 0.13688989
00000000: 305d 43bc 0d5e 803d 1661 76bc dd2c 0c3e
