2048AI_model_3_lr_0.01_ver_4.pt (torch_old, 36117 bytes, 8 tensors)

conv1.weight f4 [10, 3, 10, 10]
00000000: 5503 ab3d d70f 643e 323f cf3e 5acd 493f
00000010: cc81 803f 07f3 283f b74f e43e 9f68 003f
00000020: 3d3e 103f 862a b13e 4b7f 913d 90aa 6d3e
00000030: a29d 193e d039 0d3f 1b6a 8a3f 36a2 fa3e
00000040: aa8b c53e 095a d03e e307 cb3e 8342 7c3e
00000050: a826 a63d 6d39 8c3e c830 303e b4bd 233f
00000060: 227d 803f fe1b 153f 7d41 9f3e d873 8e3e
00000070: deab 883e f021 603e e78c d53e f870 df3e
00000080: 0c5d c43e fac9 503f c5db 963f 9c42 383f
00000090: 9a92 143f 7f55 0d3f 662e 203f 79e0 e33e
000000a0: 0758 dd3e dafb 833e 6e7f ba3e a12e 453f
000000b0: 7541 8d3f 3e2b 333f 6ba0 113f e7d4 203f
000000c0: 1cc0 2b3f 86f2 013f dbc5 d13e 5a2c 863e
000000d0: edc3 603e ecf4 4a3f 6df7 853f b286 373f
000000e0: c69f 183f 1620 273f 0266 713f 867a 1b3f
000000f0: 3863 723e a84b 713e c9ab 3c3e 518d 503f
00000100: 7ab4 883f 31d9 423f cabb 2d3f e777 3b3f
00000110: 6554 643f 9e1b 033f 6da2 4e3e 45ee 043e
00000120: 7e1e 2a3e 360f 813f db6b 873f 752c 6d3f
00000130: cdfa 533f a4c3 453f 1951 533f e522 093f
00000140: c20d 4d3e 4dd6 c83d cdaf 813e 0f7c 703f
00000150: 49a2 963f 25fe 673f bbfd 2e3f 5485 0f3f
00000160: 36b8 033f 2065 e83e 330c a53e f098 2b3e
00000170: 67d8 9a3e d316 503f ee88 813f b255 4c3f
00000180: b38a 053f 3212 bb3e 43f8 0f3f 4d03 e83e
00000190: f15e 97be e564 07be 72a8 9dbd b2ec 993e
000001a0: d389 e83e dd9b 443e e41b 023d cb1a ffbc
000001b0: 6091 043e 4aa3 7b3c 74a5 0cbf b974 f5be
000001c0: faa7 b5be d435 e5bd e784 523e ed10 d9bd
000001d0: 5292 76be dc01 bbbe f5dd 8abe f774 8dbe
000001e0: 79cc e1be 19fb adbe 30a3 d1be 68b8 6fbd
000001f0: 426a 823d 78b2 4fbe dc80 99be b14e bbbe
00000200: 2ff5 95be caa9 c6be d473 adbe 7bee 81be
00000210: c707 64be 0bf7 233d ac46 323e 945b 82bc
00000220: 36d6 49be 4212 22be 023f 83bd da1b 3ebe
00000230: a85a 7ebe bd3e 9cbe 63a4 33be bb6c 453d
00000240: 5931 da3d 6424 22be b4c3 5fbe bbe9 83be
00000250: 2185 81bd 845a 15be 6998 9dbe b11c 9dbe
00000260: 2604 93be eb4c 6e3c 9219 903e 522c 6f3c
00000270: 40dc 5fbc 5973 a1bd 690f 073e 2ccc 693c
00000280: beb3 efbe 6ff6 ecbe 4428 d8be 6819 883d
00000290: 1138 3f3e 18dc 683d 5ce9 9dbc 24ee 353d
000002a0: 3364 a83d 73e8 d2bd c53e f3be 8b29 f5be
000002b0: d9a3 debe bcea 033e 0c77 183e cdaa c73d
000002c0: d2c7 b63d ed9c 463c dade 7bbd 9bd0 21be
000002d0: 6533 dcbe e9db f8be 3b2b d2be fc4f 703e
000002e0: dd5a 973e 8881 2a3e 19e3 99bc 60a1 f1bd
000002f0: 3022 efbd f2df 8ebd 8fe0 abbe b7a2 b7be
00000300: 78e2 bdbe 4b62 0c3e bc84 933e 7dba 943d
00000310: a2a6 10be dd09 3cbe 2656 10be e7cc 09be
00000320: b375 01bf 4181 ddbe 2149 3fbe 25ca c8bd
00000330: eedc 3a3d f934 f9bd e645 8cbe 3bc9 8ebe
00000340: da32 6dbe 97ff 17be 6367 3dbf afde 24bf
00000350: 08d8 12bf e0c3 debe 39e3 88be a30a f0be
00000360: b730 23bf 1c9d 09bf 11e7 03bf 95e0 f3be
00000370: 64f3 3bbf 355e 13bf 7473 16bf d7e0 aabe
00000380: b370 8cbe 3617 06bf 30a8 24bf 899b 1ebf
00000390: cc36 0abf 1d1f 16bf 113a 15bf 9588 13bf
000003a0: 95a1 cebe eda2 9dbe 6ff1 05be 62ef dbbe
000003b0: f6db ecbe db08 04bf 7b63 bebe 0bd5 b8be
000003c0: 58b3 1ebf fa8b 21bf 8623 c6be 2d1d 83be
000003d0: 4c46 3fbe 923e febe d533 14bf 9029 14bf
000003e0: 53f6 cbbe 68ac a5be 2615 15bf 7cd0 2abf
000003f0: ef45 01bf a328 6fbe 9c35 1bbe 6a8d b7be
0.08350245 0.22271667 0.40477902 0.78828967 1.0039611 0.6599583 0.44592068 0.5015964
0.5634497 0.34602755 0.07104357 0.23209596 0.15001538 0.5516634 1.0813631 0.48951882
0.38583118 0.4069369 0.39654455 0.24634747 0.08112842 0.27387562 0.17206109 0.6396134
1.0038188 0.5824584 0.3110465 0.27822757 0.26693624 0.21887946 0.41709062 0.43640876
0.3835224 0.8155819 1.1785818 0.7197664 0.58036196 0.5520858 0.625708 0.44507197
0.43231222 0.25778085 0.36425346 0.77024275 1.1035601 0.6998786 0.56885403 0.62824863
0.6709001 0.50760686 0.40971264 0.26205713 0.2194974 0.7927997 1.0466133 0.71689904
0.59618795 0.65283334 0.94296277 0.6073383 0.23670661 0.23564017 0.18424906 0.8146563
1.0680077 0.7611266 0.6786467 0.7322983 0.89191276 0.51214015 0.20179148 0.12981518
0.16613194 1.0082767 1.057979 0.9264596 0.82804567 0.7725165 0.8254562 0.5356887
0.2002478 0.098065 0.25329438 0.939393 1.1768275 0.9062217 0.6835591 0.5606282
0.5145296 0.45389652 0.3223587 0.1675756 0.30243227 0.81284827 1.0119913 0.7981826
0.52164763 0.3653732 0.5623819 0.45315018 -0.29564622 -0.13222082 -0.07698144 0.30063397
0.45417652 0.19200082 0.03176488 -0.031140706 0.12946081 0.015358755 -0.5493996 -0.47940615
-0.35479718 -0.111919075 0.2055851 -0.105989315 -0.24079254 -0.36524856 -0.27122465 -0.276283
-0.44101313 -0.33980635 -0.40944815 -0.058525473 0.06367923 -0.20282924 -0.29981124 -0.36583474
-0.29288623 -0.38801414 -0.33877432 -0.2537726 -0.22268592 0.04003052 0.17409772 -0.015912808
-0.19710621 -0.15827277 -0.06408502 -0.18565312 -0.2483927 -0.30516616 -0.17543177 0.048199397
0.106539436 -0.15834194 -0.21851999 -0.2576426 -0.063242204 -0.1458531 -0.30780342 -0.30685952
-0.28714103 0.014544706 0.2814451 0.014597969 -0.013663352 -0.07883329 0.13189472 0.01426987
-0.4681682 -0.46281764 -0.4221822 0.06645471 0.18673731 0.056850523 -0.019276313 0.04441656
0.082222365 -0.102982424 -0.47508827 -0.47883257 -0.4348438 0.12882513 0.14889163 0.097493745
0.089248314 0.012122375 -0.061491825 -0.15802233 -0.4300796 -0.48605278 -0.41048607 0.23468012
0.2956151 0.16650975 -0.018785046 -0.11798358 -0.116764426 -0.06976308 -0.33569762 -0.3586633
-0.37086844 0.13709371 0.28812206 0.07262132 -0.14126065 -0.18363138 -0.14095363 -0.1345707
-0.5057022 -0.43262675 -0.1868024 -0.09804181 0.04562085 -0.12168307 -0.27397078 -0.27887902
-0.2316393 -0.14843594 -0.7398588 -0.6440229 -0.5736089 -0.43508816 -0.26735857 -0.46883115
-0.6374621 -0.53755355 -0.51524454 -0.4763228 -0.7341826 -0.57565624 -0.5876992 -0.33374664
-0.27429733 -0.5237917 -0.64319134 -0.6195608 -0.53989863 -0.58641225 -0.5829173 -0.5763028
-0.40357652 -0.30788365 -0.13080381 -0.42956072 -0.46261567 -0.5157601 -0.37185273 -0.3610004
-0.61992407 -0.6310421 -0.38698977 -0.25608197 -0.1867916 -0.49657112 -0.5789159 -0.5787592
-0.39836368 -0.32358098 -0.58235395 -0.6672437 -0.50497335 -0.23355345 -0.15157169 -0.35850078

conv1.bias f4 [10]
00000000: 30cd 80be 91c8 dd3e fa5d 83bc 4c70 09be
00000010: a4a3 323e e893 53bd 7df5 c4bd e059 56be
00000020: b0a3 003d 653f 293f
-0.25156546 0.43317083 -0.016036022 -0.13421744 0.17445236 -0.051654726 -0.09617136 -0.20932722
0.031406105 0.6611236

conv2.weight f4 [20, 10, 4, 4]
00000000: 01a1 493e f67b 043e 3cd4 0e3e 63af 3d3e
00000010: ffed 233f 21bd 333f 9d2c 323f 841d 173f
00000020: 46e0 8b3e 6f18 0a3f 5a9e 213f 5c50 b53e
00000030: f3cf 0b3f 8096 173f 5eec e63e 6788 2c3f
00000040: 5458 653d 3e56 c63d 7d07 a43e a7ee ee3e
00000050: 5b6e 963e 1203 303f 4c01 2e3f 92a8 fe3e
00000060: 0b46 c6be 0d07 673f d84c 8d3f 4d48 023f
00000070: 8b70 c1be 9841 543f 0656 803e 4c38 193f
00000080: d252 ec3e c09d d2be f08b a7bd bcf8 0dbe
00000090: 984f 153f 3487 3cbe 861b d03e 2847 383d
000000a0: 1bf8 153f f422 71be 93d1 303f f3e3 6a3e
000000b0: eb9c 563f 7202 9cbe 5ea0 8a3d 0b0e 3b3f
000000c0: dd7d 67be 76c4 0dbf 3f06 05bf fe94 efbe
000000d0: 11e2 9abd ffb4 88be 821c 88be dc05 58be
000000e0: 8a80 d2bb 0437 2bbe 02d7 85be 4502 b1be
000000f0: 736d 6cbd ed4b 63be 0a5b a1be 744d b7be
00000100: 4c00 183f 6616 43bf 4dd7 22bf cc25 b2bf
00000110: 5f13 023e c8f7 edbe 748d 13bf baaf cdbe
00000120: 813c 323f cbee 64bf 4a73 cd3d 949c 19bf
00000130: e518 6d3f 33c3 14bf ce3f dcbe 9c82 2a3e
00000140: e54e 0bbe 6d1e 783e 63f8 863e 01a2 d93e
00000150: 7075 313e eda7 ef3e 7412 103f b0ad 083f
00000160: 7767 bfbe be22 433f 3625 4d3f c6bd d73e
00000170: cc87 e3be c18a 283f d4f8 093f 8cf3 2b3f
00000180: 0373 34be 324a ab3e e59b c23e a78e d03e
00000190: 2ad6 c93e 6f2d 443f 0424 283f 8384 3c3f
000001a0: 869c d43b 09a9 cc3e 12a3 3a3f 013e ef3e
000001b0: 016a 02bd 08ff d33e 02a9 b63e 3001 433f
000001c0: dd9f 0e3e d3a7 ce3e fb40 3a3e 931f 8c3e
000001d0: 7275 d53e aa64 153f befe a53e 027a aa3e
000001e0: b711 063e 21d2 303f 67c2 033f a1c4 923e
000001f0: 0545 eb3d dbc9 233f f603 e13e 33f4 b53e
00000200: efaa 4f3f 3ab7 2bbf f2fc 5d3c a701 0cbf
00000210: 56a4 6ebc afdf cfbe d7c0 313e 7fec 13bd
00000220: 2ca6 803f 1157 24bf c7f7 d53e b33c 343b
00000230: bd11 a93f a503 06bf 694f 97be 8992 853e
00000240: 2932 9cbe 03ff 43bf 2efc 07bf 6957 a5be
00000250: a713 e6be 8011 18bf 9e1c e3be 3575 a7be
00000260: b30e 22bf c33d 3abd bece 0f3e a98e a5bd
00000270: 566b 22bf ec45 59be 1f29 9f3d 9645 c23d
00000280: 443f 173e d6d9 8d3e 07a6 f53d 87a3 a53e
00000290: 5552 643e be0f b23e 136d 043e b9af 823e
000002a0: 868d 123f ca66 393e d325 9bbe 95e7 1dbe
000002b0: a755 023f 1d10 1d3f faa2 8bbe 4291 803e
000002c0: 4c6b 75be 4d9a d73b 1f52 913d c70b 09bd
000002d0: d295 53be 3950 a9bd db86 2fbe e05f ecbd
000002e0: 85c8 3f3d 9a56 58bd e511 bfbd 9add a9be
000002f0: 5a1d bbbd 182b 923e f95a 9bbd 35fa ed3e
00000300: 0548 47bd c431 29bf d03a 143e 6325 32be
00000310: c064 b7bd f105 86be 278e 183e 18ef 153e
00000320: bd62 313e 0568 87be ca6e 9d3c 3d74 053e
00000330: 461d 9a3d 1187 d83f 78f8 09be 3143 9a3f
00000340: 938a 3bbe 3181 603d d784 973d 3068 1fbe
00000350: 08c3 ed3d abf2 d03d 515f 88bb 06bc 45be
00000360: 2bf3 24be 132f 173e 8f57 873e bf9b 353e
00000370: a6a2 9dbc 8729 af3e 3480 a53e 89e2 a23d
00000380: 2a27 123e a574 c4be 6db8 1b3f 5b0e cbbc
00000390: d4ca 01bd f99f 42be a85f 893e e8e0 1e3f
000003a0: b5ac 0a3d 4769 5abd a107 3f3d 6c93 453e
000003b0: 24a7 a8bc 5921 e53f 2a86 4f3e b4d4 ca3f
000003c0: 8f2f 63be 4830 9b3d 9f83 ab3d dc75 9cbc
000003d0: 52ac d5bd b289 1ebd 06d0 d4bd 1636 80be
000003e0: b40e e4bd 2d3f 6f3d 2de6 89be 77bf acbe
000003f0: d2db 23be 3539 c33e eccc adbd 035f 9f3e
0.19690324 0.12937912 0.13948148 0.18523936 0.6403503 0.7021046 0.69599324 0.5902941
0.27319545 0.5394353 0.6313225 0.35412872 0.5461418 0.5921402 0.4510221 0.67395633
0.05599244 0.09684418 0.32036963 0.46666452 0.2938107 0.68754685 0.6797073 0.49737984
-0.38725314 0.90245134 1.1039076 0.5089157 -0.37781176 0.8291259 0.2506563 0.5985153
0.46156937 -0.4113598 -0.08180988 -0.13864416 0.58324575 -0.18410951 0.40646 0.044989735
0.58581704 -0.2354849 0.69069785 0.22938518 0.8383319 -0.30470616 0.06768869 0.730683
-0.22606607 -0.553779 -0.51962656 -0.4679336 -0.0756265 -0.2670059 -0.2658425 -0.21095985
-0.0064240145 -0.16720206 -0.261406 -0.34572044 -0.057721566 -0.22196932 -0.3151477 -0.3580128
0.59375453 -0.7620605 -0.6360977 -1.3917785 0.12702702 -0.46478105 -0.57637715 -0.4017313
0.6962357 -0.8942687 0.10031755 -0.60004544 0.9261611 -0.5811035 -0.4301743 0.16651386
-0.13604315 0.24230357 0.2636138 0.42506412 0.17329955 0.46807805 0.5627816 0.53390026
-0.37383625 0.7622489 0.80134904 0.42136973 -0.44439542 0.6583672 0.53895307 0.671685
-0.17621998 0.33455044 0.38009563 0.40733835 0.39421207 0.76631826 0.65679955 0.73639697
0.0064883856 0.39972714 0.72905076 0.46726993 -0.031839374 0.4140551 0.35675818 0.76173687
0.1392817 0.40362415 0.1818885 0.2736784 0.41691166 0.58356726 0.32420915 0.3329621
0.13092695 0.6907063 0.5146851 0.2866564 0.11487774 0.6397988 0.43948334 0.35537872
0.811202 -0.67076457 0.013549076 -0.5469002 -0.014565548 -0.40600345 0.17358719 -0.036114212
1.0050712 -0.6419535 0.41790602 0.0027502 1.3208538 -0.5234931 -0.29552773 0.2608836
-0.3050702 -0.7656099 -0.5311917 -0.3229325 -0.4493687 -0.594017 -0.4435777 -0.3270661
-0.6330368 -0.045469057 0.1404371 -0.08083851 -0.6344503 -0.2121808 0.07771515 0.09485929
0.14770228 0.27705258 0.11994558 0.32351324 0.22297032 0.34777635 0.12932234 0.2552469
0.572472 0.18105617 -0.30302295 -0.15420373 0.50911945 0.6135271 -0.2727278 0.25110823
-0.23966712 0.0065796734 0.070957415 -0.033458497 -0.2066262 -0.082672544 -0.17141287 -0.11541724
0.04682209 -0.052816965 -0.09329585 -0.3317688 -0.09136458 0.28548503 -0.07585711 0.46479955
-0.048652668 -0.6609156 0.1447556 -0.17397074 -0.089547634 -0.26176408 0.14897977 0.14641988
0.17322822 -0.26446548 0.019217867 0.13032623 0.07525115 1.6916219 -0.1347369 1.2051755
-0.1831458 0.054810707 0.07398384 -0.15567088 0.11609465 0.10202535 -0.004161753 -0.19310006
-0.16108386 0.14764051 0.2643399 0.17735194 -0.019242596 0.3421137 0.32324374 0.079533644
0.14272752 -0.38370243 0.60828286 -0.024787119 -0.031687573 -0.19006337 0.26830792 0.6206193
0.033856113 -0.053323057 0.046638135 0.19294518 -0.020587511 1.7900802 0.20266023 1.5846162
-0.22186111 0.07577568 0.08374714 -0.019099168 -0.10433258 -0.038705535 -0.1039124 -0.25041264
-0.11135617 0.05840986 -0.26933423 -0.33739826 -0.16001824 0.38129583 -0.08486351 0.31127176

conv2.bias f4 [20]
00000000: 5664 ef3d b524 78bd 9c22 3fbd 93ed 883b
00000010: 31dc 5b3c bdce a33d d4f5 17be 11f3 0ebe
00000020: 9e7b 083e 0299 a93d 67a8 2e3d 8c9f 7b3d
00000030: 1b49 a5bd 2280 0abe e4f0 e7bb da24 333d
00000040: 9b45 d5bc f769 01bb 5182 593d 4389 513d
0.116890594 -0.06058188 -0.046663865 0.0041787117 0.013419197 0.079984166 -0.1483987 -0.1395991
0.13328406 0.08281137 0.04264107 0.061431453 -0.080705844 -0.13525441 -0.007078277 0.043736316
-0.026034167 -0.0019746998 0.053102795 0.051156294

conv3.weight f4 [10, 20, 3, 3]
00000000: b732 0dbf b062 413e 5b96 553e f152 bdbe
00000010: dbae e43e e05d c3be 692b e6be bcad e5bd
00000020: 3c31 adbe 61d7 cbbe ece5 e4bd 7bc6 d73d
00000030: 3c8f 90be 1145 4bc0 f548 20bf c3be 96be
00000040: ea1e aa3e 9732 21be 5fa9 81be 3b54 763e
00000050: 85a5 743e b568 e3bd c42d 7cbf e11b 223f
00000060: f1aa 6ebe 6c8b 8dbd 809a 573f 37d7 973e
00000070: 8572 efbd ce27 babd add3 e03e 31e8 b93e
00000080: c171 19bf 50e7 f13e e35e a13e 390d 503e
00000090: 4307 cf3d 1d4f 2dbe 059e c33a c5d9 863e
000000a0: 4647 103e bd46 b7bf 72f1 383e 105f d2be
000000b0: 7a19 573e ef60 9e3d 81b3 23bd 9290 f43c
000000c0: cecd 1b3d c581 0a3e 9bf4 c3bd f668 d2bc
000000d0: 0c85 c53e 1827 17be caef 26bf f249 a53e
000000e0: ec9b c03e 814e 65bf f7c1 433f c9e2 f03e
000000f0: 5a17 6bbf 7bee 8c3e 4da3 a53e 9e6f 743e
00000100: f52b 1d3e a868 3c3e b401 933e 142d a9be
00000110: 54c1 463e 2366 653e c3bb 983d c443 bc3d
00000120: a1b8 f13e a418 d43e ca43 0f3f 3e84 1c3e
00000130: 9759 cd3d 3c92 833e 7d6a 333e 807d cd3e
00000140: 44fe f0bb 3a2f 073e 3905 ae3d 4445 473e
00000150: b991 aa3e ef31 cb3d 8d26 a4bf febf 8c3e
00000160: 6b16 1e3f 4a13 71bc ad11 06bd 41a5 0bbf
00000170: 80db c6be 5b04 1bbe 20ed 3a3e 54f8 ebbf
00000180: 2eb2 62bd 36af ae3d 1141 5d3e 3bec 6abe
00000190: fd22 95be 025d d5bd 12e4 89bd e0e4 99bf
000001a0: dc65 f6be c61b c23b 6c12 f33e 31d6 243f
000001b0: 8bbd d2be 5303 ea3d 83e4 693e ac3a 0fbf
000001c0: 4437 aa3e 0cc5 3bbf 4036 ecbe 7697 7b3e
000001d0: 0c65 913e b0bd b73e b893 543b 1b5b acbd
000001e0: 5568 2e3f 9707 44be 9099 fabf 8c36 1c3f
000001f0: 5b95 0cbb 91aa ee3d 27e7 0d3f d178 1e3f
00000200: b378 0e3f b842 823e a0fc 373e e396 443d
00000210: e68c 633e 4d6b ec3e de68 a43e 5b17 debd
00000220: ddc0 2a3d 9bf4 0a3e 4b99 c63e c7a7 a6bf
00000230: b105 223e 7307 f73e 7340 d73e 1e44 523d
00000240: 3096 39be ecc0 3f3e c579 8c3c d36b db3e
00000250: c117 b0bf 049f 113f 9595 f33e 3096 f03e
00000260: 3601 593f cf6f c73e 3f10 ea3e e6c3 1e3f
00000270: 7529 3e3e d672 0e3e e6bf 3a3e 3886 113e
00000280: 670e bf3e 601c 8a3e bca5 f03d 1a41 633e
00000290: 64f1 323e 2ad4 2cbe b762 153f f4a6 9fbf
000002a0: 47e9 94bd 7796 7e3e aa60 4c3e 0627 373e
000002b0: 6c84 cd3e 3853 e33e 586f ba3e e773 38be
000002c0: dbc9 873e 471e e13e f7f7 e4bb f765 70bd
000002d0: b7d9 79bf 87f1 0cbe d6db 03be a9b6 edbe
000002e0: 7e16 e63e 5934 1fbe ae3b 05bf 728d 04be
000002f0: 2df4 59be 7098 4a3e c379 c73d 4487 c83d
00000300: f94e eb3d 313b f9bf cc4c dfbe 76ca 3d3e
00000310: fd89 9dbe 7669 9cbe 59d9 3cbe 50de 003c
00000320: 8c8f da3c 07c9 d9be f891 3abf 3f3e 53bd
00000330: 9aab d9be 9a40 95be e2d3 88bd 9ef0 9f3e
00000340: 85d2 1b3e 778f e33d 978c 333e e3e0 193f
00000350: bb82 f23a c36e 393e 16ad 423f b3c1 6a3e
00000360: 0f79 7cbe e9bc e8be 7f19 13bf ea87 94be
00000370: 7f2a 883e 93c7 c5bf fd2a acbe f66d 26bf
00000380: 7dab 5bbd f194 8b3e 12b1 b93c 3e11 8a3d
00000390: a028 8c3e 55d4 a63e ec8a 023f c098 823e
000003a0: 20c3 253f 1eed 713e d170 45bf 5557 9a3c
000003b0: ca55 303c 8b8b 54bf 3dc8 c93e 8ac5 043e
000003c0: 882e 4ebf 0079 51be 471b f4bc fa7d 683c
000003d0: d123 8b3d ea5a 6a3d 62c4 d83e 6a58 16bf
000003e0: 3589 b63e 1deb f03e 9319 2ebf 2ebb 933e
000003f0: 2bc2 c2bd 2bad 133e 390c 423e b176 b8bd
-0.5515551 0.18885303 0.20858137 -0.36977342 0.44664654 -0.38157558 -0.44954994 -0.11214778
-0.33826625 -0.3981276 -0.111766666 0.10535904 -0.2823428 -3.1760905 -0.62611324 -0.29442415
0.3322671 -0.15741955 -0.25324532 0.24055569 0.23891266 -0.11103956 -0.9850733 0.6332379
-0.23307396 -0.06911358 0.84220123 0.29656383 -0.11691765 -0.090896234 0.43911496 0.3630996
-0.599392 0.4724679 0.31517705 0.20317544 0.10108807 -0.1692471 0.0014924413 0.2633802
0.14089689 -1.4318463 0.18060854 -0.41088152 0.21005812 0.07733332 -0.03996611 0.029854093
0.038038068 0.13526066 -0.09568139 -0.025684815 0.3857807 -0.14761007 -0.6520964 0.32282978
0.3761896 -0.8957291 0.7646784 0.47048023 -0.91832507 0.27525696 0.3235115 0.23870704
0.153488 0.18399298 0.28712237 -0.33042204 0.19409686 0.22402243 0.07457688 0.09192613
0.47211173 0.4142505 0.5596281 0.15284821 0.100268535 0.25697505 0.17521091 0.4013481
-0.0073545296 0.13201609 0.0849709 0.19460016 0.33314303 0.099216335 -1.2824265 0.27490228
0.6175296 -0.0147140715 -0.0327317 -0.5454903 -0.3883934 -0.1513838 0.18254519 -1.8435159
-0.055345707 0.085295126 0.21606852 -0.22941677 -0.29128256 -0.104181305 -0.06732954 -1.2022972
-0.48124588 0.005923721 0.47474992 0.6438933 -0.41160235 0.11426415 0.22841077 -0.559489
0.3324529 -0.73347545 -0.4613514 0.24569497 0.28397405 0.35886908 0.003243668 -0.084158145
0.6812795 -0.1914352 -1.9578114 0.6102073 -0.0021451327 0.11653627 0.55430835 0.619031
0.5565292 0.25441527 0.17967463 0.04799546 0.22221717 0.46175614 0.32111257 -0.108442985
0.041687835 0.13569872 0.38788828 -1.3019952 0.15822484 0.4824787 0.42041358 0.051334493
-0.18123698 0.18725938 0.017147908 0.428557 -1.3757249 0.56883264 0.4757506 0.46989584
0.8476747 0.3895249 0.4571552 0.6201767 0.18570502 0.13910994 0.18237266 0.14211357
0.37315676 0.26974773 0.11750361 0.22192803 0.17474896 -0.16877809 0.5835375 -1.2472825
-0.072710566 0.24862085 0.1995875 0.1788598 0.40140092 0.44399428 0.36413074 -0.18012963
0.2652119 0.43968412 -0.0069875675 -0.05869099 -0.9759783 -0.1376401 -0.1287683 -0.4642842
0.44939035 -0.15547313 -0.5204419 -0.12944582 -0.21284552 0.19784713 0.09740021 0.09791425
0.11489672 -1.9471189 -0.4361328 0.18534264 -0.3076934 -0.3054921 -0.18442287 0.007865503
0.026679777 -0.42536184 -0.7287898 -0.051573034 -0.42513734 -0.2915085 -0.066810384 0.31238264
0.15217026 0.11111348 0.175341 0.60108775 0.0018502095 0.18108658 0.7604536 0.22925453
-0.24655555 -0.45456627 -0.5746078 -0.29009944 0.26594922 -1.545153 -0.33626547 -0.6501154
-0.05363034 0.2726207 0.022667442 0.0674157 0.27374744 0.3258387 0.5099323 0.25507164
0.6475086 0.2362561 -0.7712527 0.018840471 0.010762641 -0.83025426 0.39410582 0.1296598
-0.8053975 -0.20456314 -0.029798163 0.014190191 0.06793941 0.05721561 0.42337328 -0.5872866
0.35651556 0.47054377 -0.68007773 0.28853744 -0.09509691 0.14421527 0.18949975 -0.090070136

conv3.bias f4 [10]
00000000: cc19 513d a9b9 dd3d b207 343d 072e 96bd
00000010: ffcb 833c a43a d9bd 85c7 5dbd 491c 95bd
00000020: 8ffd babd cf6e 3abd
0.051049992 0.108264275 0.04395265 -0.07332998 0.016088484 -0.10606888 -0.054145355 -0.072807856
-0.09130394 -0.04551583

linear.weight f4 [4, 160]
00000000: dcc2 64bc 5101 1c3d 66c9 0d3d 7683 133d
00000010: cc20 9ebd 6ab6 d43d 409f ed3d ebdd 41bd
00000020: d734 dfbd c530 00bd f5ca d6bc 3824 bb3d
00000030: 0aa7 06be e274 b13d e820 823d 9c44 58bd
00000040: 40b0 8cb8 828e 19bd fea4 63bd 80d7 c73d
00000050: d268 273e 34cc d83c 9265 213b 4395 203d
00000060: 5fc4 6dbd 6e58 343c cf01 d8bd 2cd5 7cbc
00000070: 14b2 34be 294f 403b e2a8 463d 5d98 b73b
00000080: 75fa 68bd 9042 99bc ee37 c6bc 3bbe 22be
00000090: be9c 213d d091 8cba 1405 213d 7208 ac3c
000000a0: 8468 7ebc 54d7 1dbe 34fa 2c3c a730 b2bd
000000b0: dc65 483c 9edc 58bd 40b5 953d 37c2 9f3d
000000c0: 5a70 ab3c 8203 cbbc b7b2 9abd b692 c03d
000000d0: b22c d93d d8ef 1ebd 5219 3abd 0de1 343d
000000e0: 4c39 afbd 1d5f fdbc 984b 373b f0d9 b43d
000000f0: fa34 29be bdd7 15bd cc53 15bd add3 fdbc
00000100: eb3c a83c ba95 be3a c043 07bb e5e9 76bd
00000110: 3207 253e 7241 d2bd ac2f 943c a521 9dbd
00000120: a69b 82bd 5403 a4bd f210 043e 4289 08bd
00000130: ab5d a8bd 6cfb b63d b2e4 a33d 15bf 643d
00000140: ad50 11bc f701 25bd 5827 a3bb 53c8 013d
00000150: a06c 9ebd 5dd2 42bd 5d76 013e 1438 873c
00000160: 1471 07bd bee5 703c f50a d2bd 6d63 423e
00000170: b179 873d f565 c2bd d9ab d7bd 06d0 843d
00000180: 193f 0a3c f465 d03a 70e4 5c39 8481 cd3d
00000190: f752 d2bd daa2 0cbd 4a79 dd3c e66d c03d
000001a0: 929c 9cbd d030 39bc c483 8fbd e93e d63d
000001b0: 14d7 01bd 024f 40be cb3b bf3c 4a50 093e
000001c0: 6314 3cbd 53c1 b93c bef3 8bbb 3273 3abd
000001d0: cf0c 0abd a22d 773d b31f d4bc 8474 b2bd
000001e0: 143d 94be 4021 3e3d 778a 12be 6b40 1f3d
000001f0: 4079 803d d033 e1bd 497d c63d fa44 e6bc
00000200: fcc2 4cbd 5c05 463d 9a7a ca3b 02ce 303d
00000210: 6e62 36bc eba2 5c3d ab0b 85bc a57f 003d
00000220: 8226 cabd 28e0 a2bc 662e ec3d c163 be3d
00000230: 15f4 52be 5fec 703d 0d20 253d c261 9c3c
00000240: 4fc0 85bd f89d 41bd 204c 2a3d ad85 c93d
00000250: 82b2 05bd 8883 273d 4892 c239 208a 13bd
00000260: 04d4 11bd ea3a 00be d7bd 47bc f0f1 31b9
00000270: 12ac 14bc beab 0cbd e2f5 933d ed42 a83c
00000280: 9c2b ba3c e92a 56be e83b 903d b87a 073d
00000290: 4a59 fabd 4db0 db3d 8a9a f33d 2caf 10be
000002a0: 95f9 123e 6821 f7bd 2b83 b83d 35a3 a13d
000002b0: cddd 823c ab15 bf3c 4c78 32bd df06 dcbc
000002c0: 44b4 333e 9ab2 55bb f219 be3d a9d8 1abd
000002d0: f514 053e 6f6e 663d efff 643e a717 cbbd
000002e0: 4b47 02bd 9478 d73c 2f37 acbc a744 aabd
000002f0: 3671 e9bd d767 9ebc d3dd 3d3c 0a52 143d
00000300: 91e9 ec3d b808 333e de5d 233e 7ebd f9bc
00000310: 60dd 2c3e ac4d c7bc 6b04 c1bd 9208 953d
00000320: 1a64 f3bb 406c ca3b 6557 d03b 2055 55bd
00000330: e873 25bd 2186 0e3e 5f87 8e3d 6dba a83c
00000340: 2599 343d 8900 10be 6fc6 01bb 27af ffbb
00000350: 7813 97b9 aef9 173d 6d95 033e b6c6 3bbd
00000360: 1ac2 223e 7975 25bb f4f0 ed3b 2fb2 0fbd
00000370: e0d6 083b c034 0dbd 0c07 32bd c9d3 66bb
00000380: 42bd cb3c 4190 ba3c 2dbe 823e 3d05 10be
00000390: 3e37 dbba 3c4e 31bc e42b 463c c015 6dbd
000003a0: b0b0 913c 5b10 05be 4c29 263d 4a72 9dbd
000003b0: 8d7f 163e 040e b13d e38c 07bd ec5c 693d
000003c0: 039c 283c 1f39 573c 432b 013e 74f4 1f3e
000003d0: 109c 163e b7d9 dc3d d0ff 88bc 71da 10bd
000003e0: e894 923d 20a6 113d 8a43 253e 5144 42bc
000003f0: fd0e 09be 623d 693c 8ca5 fd3c 30d8 ae3e
-0.013962474 0.038087193 0.034615897 0.036014043 -0.07721099 0.10386355 0.1160264 -0.047330778
-0.1089875 -0.03129651 -0.026219824 0.091377676 -0.13149658 0.08664872 0.063539326 -0.052799806
-6.708549e-05 -0.03748942 -0.05557727 0.097579 0.1634858 0.02646456 0.002462719 0.039204847
-0.058048602 0.011007411 -0.1054722 -0.0154316835 -0.17646056 0.0029344058 0.048500903 0.00560288
-0.05687948 -0.018708497 -0.024196591 -0.1589288 0.03945612 -0.0010724608 0.039311484 0.02100012
-0.015527848 -0.15414172 0.0105577 -0.08700686 0.012231316 -0.052944772 0.07309961 0.078007154
0.020927597 -0.024781946 -0.075536184 0.09402983 0.10604228 -0.03880295 -0.045434304 0.044159938
-0.085558504 -0.030929143 0.0027968641 0.08830631 -0.16524115 -0.036582697 -0.036456868 -0.030984724
0.02053686 0.0014540472 -0.0020639747 -0.060281653 0.16116026 -0.10266389 0.018089138 -0.07672433
-0.06377344 -0.08008447 0.12897089 -0.033334024 -0.08220991 0.08934674 0.080026045 0.055846293
-0.008869332 -0.040285077 -0.0049790554 0.031685185 -0.07735562 -0.0475639 0.12642808 0.016506232
-0.033066824 0.014703212 -0.10255996 0.1898324 0.06615008 -0.09492103 -0.10530824 0.0648499
0.008437895 0.0015899525 0.00021065935 0.10034469 -0.102697305 -0.034334995 0.027035374 0.093959615
-0.07647051 -0.011303142 -0.07007554 0.10461218 -0.031699255 -0.18780139 0.023343941 0.13409534
-0.04591788 0.022675192 -0.0042709997 -0.045520015 -0.03370362 0.060346253 -0.025894022 -0.0871363
-0.2895285 0.04641843 -0.14310633 0.038879793 0.062731266 -0.109962106 0.09691865 -0.028109062
-0.04999064 0.048344955 0.006179166 0.043165214 -0.011131866 0.05386631 -0.016240915 0.03137173
-0.09870626 -0.019882277 0.11532287 0.0929637 -0.20600922 0.05881917 0.04031377 0.019089583
-0.065308206 -0.04726979 0.041576505 0.0983995 -0.03264094 0.040896922 0.00037111552 -0.0360204
-0.035602584 -0.12522474 -0.012191257 -0.00016970164 -0.009074228 -0.034343474 0.07224633 0.020539725
0.022725873 -0.20914806 0.07042676 0.033076018 -0.12224062 0.10726986 0.1189471 -0.14129323
0.1435302 -0.120669186 0.09009393 0.078924574 0.015974903 0.023325762 -0.043571755 -0.026858745
0.17549235 -0.0032607676 0.092822924 -0.03780428 0.12996276 0.05625766 0.22363256 -0.09916621
-0.03180627 0.026302613 -0.021022407 -0.08313876 -0.113985464 -0.019336624 0.011588532 0.03621105
0.11567987 0.17483795 0.15953776 -0.030485865 0.16881323 -0.024329029 -0.09424671 0.07277025
-0.0074277045 0.006177455 0.0063580745 -0.052083135 -0.04039374 0.13918354 0.06959414 0.020596707
0.044091363 -0.14062704 -0.0019802114 -0.007802862 -0.0002881547 0.037103347 0.1284997 -0.045843802
0.15894356 -0.002524702 0.00726139 -0.03508204 0.0020880029 -0.034474134 -0.04346375 -0.0035221449
0.024870519 0.022773864 0.25535718 -0.14064498 -0.0016724837 -0.010821875 0.012095425 -0.05788207
0.017784446 -0.1299452 0.040566728 -0.076878145 0.14697094 0.086452514 -0.033093344 0.056973383
0.010291102 0.013136177 0.1261416 0.15620595 0.1470797 0.10783713 -0.016723543 -0.035364572
0.07157308 0.03555882 0.16139045 -0.011857108 -0.13384624 0.014235826 0.030962728 0.34149313

linear.bias f4 [4]
00000000: c958 69bb 3782 ba3d e04e 043b e48a 153e
-0.0035605899 0.09106868 0.0020188615 0.14603764
