2048AI_model_3_lr_0.01_ver_5.pt (torch_old, 36117 bytes, 8 tensors)

conv1.weight f4 [10, 3, 10, 10]
0.091109194 0.24597171 0.6043577 1.0835925 1.2082382 0.8065405 0.52136225 0.5578136
0.5983431 0.29382458 0.01179904 0.17372522 0.30590352 0.822485 1.2875829 0.66615057
0.47544712 0.39960518 0.32362893 0.13264892 0.023500606 0.18411109 0.26530275 0.835856
1.0936676 0.68266433 0.36713567 0.23170647 0.08752246 0.08209752 0.32975024 0.32910314
0.42346695 0.94141275 1.123092 0.6151869 0.531845 0.42684764 0.31876102 0.2616196
0.38280573 0.23798528 0.41561973 0.878085 1.0351968 0.5437697 0.41105726 0.54284894
0.4578543 0.3706861 0.4361157 0.23745357 0.34016523 0.9527102 1.0504884 0.6574892
0.5174026 0.6505877 0.9557609 0.5318237 0.19434664 0.09024782 0.2519292 0.91605467
1.054534 0.70302844 0.5861299 0.6654013 0.91061753 0.3739989 0.07277252 -0.028667562
0.22706392 1.0819573 1.0520618 0.87561715 0.7525989 0.72097594 0.7992773 0.41773474
0.16416596 0.00451492 0.36556858 1.1503073 1.3049644 1.0175475 0.80859965 0.6605295
0.6198497 0.52959883 0.24487866 -0.077832535 0.19401237 0.9264392 1.1468287 0.9516874
0.60773677 0.41856617 0.6097034 0.53783995 -0.26364958 -0.115763254 0.031086398 0.5074731
0.5768598 0.27975136 0.07354678 -0.008334003 0.13751279 -0.0062127193 -0.6055891 -0.5537363
-0.30150664 0.052024405 0.2858184 -0.0516254 -0.24226531 -0.44554803 -0.3910252 -0.37908605
-0.5015434 -0.4490673 -0.4097625 0.038446143 0.049538363 -0.22424495 -0.36233383 -0.49653083
-0.49438617 -0.5154744 -0.43025059 -0.3957191 -0.286133 0.059318833 0.020710733 -0.21564147
-0.3695014 -0.38989943 -0.37867135 -0.35644084 -0.30887544 -0.38718137 -0.24038132 0.037942976
-0.06564015 -0.38810554 -0.45212865 -0.45890546 -0.30363998 -0.2676029 -0.2954742 -0.38306054
-0.30265895 0.053230476 0.1822071 -0.12128831 -0.15350243 -0.17501748 0.073394984 -0.046018045
-0.52906716 -0.646547 -0.4890296 0.05288535 0.073387526 -0.07726415 -0.16279036 -0.083400995
0.009128711 -0.23291484 -0.59388596 -0.6644635 -0.49405608 0.1035883 0.05039308 -0.02270416
-0.03816547 -0.101103865 -0.17323656 -0.28757727 -0.4406652 -0.5931355 -0.38956127 0.34983322
0.33510464 0.20430768 0.038052678 -0.074765496 -0.06995817 -0.03138263 -0.40791985 -0.6138044
-0.52888465 0.17681846 0.34806696 0.15011352 -0.099826336 -0.15394828 -0.11845077 -0.093166694
-0.44817904 -0.39731023 -0.1340328 0.03169605 0.113361575 -0.065466836 -0.24206376 -0.26010105
-0.22345197 -0.15291333 -0.75029397 -0.6586008 -0.5608655 -0.34320042 -0.25126386 -0.47538784
-0.6721022 -0.6265233 -0.61599267 -0.5662371 -0.73582923 -0.60853106 -0.6274939 -0.30120367
-0.33248737 -0.6117643 -0.7732097 -0.7789612 -0.7129965 -0.706795 -0.60668737 -0.657562
-0.51272905 -0.34941593 -0.31451187 -0.6636558 -0.6973616 -0.7909972 -0.6475099 -0.52361107
-0.63177985 -0.70508254 -0.5018713 -0.33328772 -0.39751762 -0.74635714 -0.839762 -0.842462
-0.6312761 -0.44187954 -0.54163325 -0.7282027 -0.5895066 -0.27297676 -0.30246255 -0.5301118
00000000: 7597 ba3d 02e0 7b3e 30b7 1a3f 29b3 8a3f
00000010: 8da7 9a3f 7079 4e3f ff77 053f dfcc 0e3f
00000020: 032d 193f 2d70 963e c350 413c 06e5 313e
00000030: 639f 9c3e 618e 523f 84cf a43f d888 2a3f
00000040: ce6d f33e 0d99 cc3e b1b2 a53e 1ed5 073e
00000050: 5884 c03c 9e87 3c3e c3d5 873e a9fa 553f
00000060: 4dfd 8b3f 17c3 2e3f 35f9 bb3e 7644 6d3e
00000070: fa3e b33d bf22 a83d 06d5 a83e 3580 a83e
00000080: a9d0 d83e 6d00 713f 7bc1 8f3f e47c 1d3f
00000090: fe26 083f c68b da3e a534 a33e 01f3 853e
000000a0: 1dff c33e 6ab2 733e 1ccc d43e 2eca 603f
000000b0: 5481 843f 7e34 0b3f 1976 d23e 26f8 0a3f
000000c0: e16b ea3e 92ca bd3e 8f4a df3e 0727 733e
000000d0: 232a ae3e d1e4 733f 6776 863f 3651 283f
000000e0: 7f74 043f ea8c 263f bfac 743f 9925 083f
000000f0: ce02 473e d9d3 b83d ddfc 803e 8f82 6a3f
00000100: f8fa 863f acf9 333f 9c0c 163f bd57 2a3f
00000110: 3b1e 693f c97c bf3e c209 953d 3cd8 eabc
00000120: 7283 683e 947d 8a3f f6a9 863f 7228 603f
00000130: 52aa 403f e191 383f 709d 4c3f 54e1 d53e
00000140: 1f1b 283e e5f1 933b ce2b bb3e 453d 933f
00000150: 1309 a73f ff3e 823f 6300 4f3f 7618 293f
00000160: 78ae 1e3f ca93 073f 79c1 7a3e aa66 9fbd
00000170: 2eab 463e 1f2b 6d3f 48cb 923f c9a1 733f
00000180: a394 1b3f 4e4e d63e 8615 1c3f e1af 093f
00000190: 14fd 86be 4915 edbd e7a8 fe3c c2e9 013f
000001a0: 15ad 133f 923b 8f3e b29f 963d 588b 08bc
000001b0: 27d0 0c3e 1194 cbbb e307 1bbf aac1 0dbf
000001c0: 145f 9abe 8b17 553d ca56 923e 2875 53bd
000001d0: 6614 78be df1e e4be 7434 c8be 9117 c2be
000001e0: 2665 00bf 26ec e5be 64cc d1be b479 1d3d
000001f0: bde8 4a3d 78a0 65be d283 b9be 4a39 febe
00000200: 2f20 fdbe 21f6 03bf ce49 dcbe b29b cabe
00000210: 0680 92be 4ef8 723d 8ea9 a93c 1ed1 5cbe
00000220: 4a2f bdbe e6a0 c7be 36e1 c1be 6a7f b6be
00000230: ec24 9ebe a33c c6be 8526 76be 186a 1b3d
00000240: 586e 86bd c5b5 c6be 687d e7be a8f5 eabe
00000250: b376 9bbe 3f03 89be 6548 97be 8320 c4be
00000260: 1df6 9abe 3308 5a3d 7f94 3a3e 0166 f8bd
00000270: be2f 1dbe c837 33be 1c50 963d 6b7d 3cbd
00000280: f270 07bf 1b84 25bf 1662 fabe 4f9e 583d
00000290: 334c 963d ab3c 9ebd 84b2 26be 24ce aabd
000002a0: 9790 153c 3a81 6ebe e908 18bf 481a 2abf
000002b0: ebf4 fcbe 1a26 d43d f968 4e3d 13fe b9bc
000002c0: 6553 1cbd 8b0f cfbd ed64 31be 543d 93be
000002d0: de9e e1be bad7 17bf 9374 c7be 571d b33e
000002e0: d692 ab3e 0836 513e 20dd 1b3d a71e 99bd
000002f0: 3b46 8fbd 138b 00bd dfda d0be 4922 1dbf
00000300: fc64 07bf e60f 353e d535 b23e 5cb7 193e
00000310: c071 ccbd 9ea4 1dbe 5196 f2bd 2ece bebd
00000320: b977 e5be 3f6c cbbe e53f 09be b8d3 013d
00000330: 1d2a e83d 7a13 86bd 90df 77be f72b 85be
00000340: 98d0 64be 5095 1cbe 4413 40bf 109a 28bf
00000350: e294 0fbf f7b7 afbe a8a5 80be 0966 f3be
00000360: e40e 2cbf d563 20bf b2b1 1dbf eaf4 10bf
00000370: 4e5f 3cbf b1c8 1bbf 71a3 20bf 5e37 9abe
00000380: c93b aabe 969c 1cbf 12f1 45bf 006a 47bf
00000390: f086 36bf 84f0 34bf dd4f 1bbf fc55 28bf
000003a0: 3642 03bf a5e6 b2be b307 a1be 59e5 29bf
000003b0: 4a86 32bf cb7e 4abf 35c3 25bf 600b 06bf
000003c0: 53bc 21bf 4a80 34bf a37a 00bf b0a4 aabe
000003d0: 6e87 cbbe 4311 3fbf a4fa 56bf 97ab 57bf
000003e0: 4f9b 21bf 093e e2be 7aa8 0abf 7e6b 3abf
000003f0: e8e9 16bf 9cc3 8bbe 5fdc 9abe 68b5 07bf

conv1.bias f4 [10]
-0.3851569 0.49350816 0.2065537 -0.01773025 0.2674316 0.0031510312 0.15622602 0.014534181
-0.0929642 0.8052587
00000000: 4933 c5be 1aad fc3e d082 533e 073f 91bc
00000010: cbec 883e 8881 4e3b b7f9 1f3e c620 6e3c
00000020: 0464 bebd 6f25 4e3f

conv2.weight f4 [20, 10, 4, 4]
0.05081709 0.09398108 0.013188919 0.024193134 0.6545308 0.6487462 0.5965185 0.48305523
0.1789896 0.5329905 0.5289213 0.29125085 0.5073082 0.60360605 0.4309323 0.72065383
-0.13523205 0.024589598 0.092898145 0.15203723 0.3095155 0.77248347 0.6009064 0.4166781
-0.574643 1.0665529 0.8901703 0.18406278 -0.4973804 0.9996966 0.072874285 0.5912823
0.3514882 -0.6059977 0.070612684 0.07055831 0.6112533 -0.6143802 0.84405583 0.52068174
0.3481375 -0.5076006 0.6298384 0.36576822 0.59430146 -0.6137557 0.22696738 0.73346335
-0.5054395 -0.83429897 -0.95785415 -0.80309755 -0.13672455 -0.4473382 -0.51050067 -0.44567356
-0.29989836 -0.4589007 -0.5655945 -0.504554 -0.41512793 -0.44098708 -0.5096354 -0.66223097
0.46527416 -1.3016224 -0.8681907 -1.5190387 0.1542505 -1.0513716 -0.5758115 -0.39042953
0.4866382 -1.0935916 0.13478473 -0.64668405 0.69614756 -0.7713205 -0.18642743 0.1766512
-0.49736875 0.20766264 0.1741203 0.28380072 -0.08270465 0.52826685 0.5146915 0.5513276
-0.757816 0.8328031 0.6956226 0.34486783 -0.80716383 0.87711126 0.5271482 0.7958249
-0.09532953 0.40220788 0.32058892 0.44238773 0.6756683 0.89481896 0.8088548 0.8714666
0.082365885 0.5721864 0.7391083 0.51224333 0.025072636 0.55422115 0.43332377 0.8083778
0.44601655 0.6486318 0.33950537 0.44331425 0.6100249 0.6681851 0.25854802 0.23380591
0.17720821 0.8408542 0.36856008 0.03342887 0.17148069 0.78254884 0.30105066 0.23790525
0.7360699 -0.7877175 0.12043249 -0.3525546 -0.20496097 -0.95153594 0.40943173 0.16679431
0.7916825 -0.82808346 0.31004193 0.12304847 1.1202977 -0.72567964 -0.13787971 0.2577436
-0.5129172 -0.8590187 -0.6178612 -0.18675275 -0.4187454 -0.45767426 -0.18861836 -0.13046353
-0.85567486 -0.075282 0.32305917 0.20586072 -0.8040926 -0.1722425 0.38857388 0.17497025
0.27363604 0.45729834 0.27405387 0.42148852 0.21786703 0.33842507 0.017134557 0.29949114
0.5826418 0.15786749 -0.16244428 -0.28058445 0.6236987 0.74884903 -0.31348863 0.15334158
-0.2539648 0.12861085 0.013415737 -0.0945272 -0.1370778 0.026600996 -0.040624518 -0.015904106
0.034868605 0.023030601 -0.16398877 -0.56172067 0.12455007 0.38582653 -0.1927091 0.40107745
-0.0780196 -0.85918784 -0.17824472 -0.31069097 0.10401723 -0.32414675 0.20786417 0.2594844
0.4794285 -0.20804805 -0.15728386 0.2348878 0.18623847 1.9128476 -0.113250256 1.5880121
-0.21705976 0.09370696 -0.022503033 -0.23935394 0.23368177 0.110000275 0.04107574 -0.27878186
-0.20117289 0.14638445 0.32909372 0.17874414 -0.08911002 0.3435789 0.183478 -0.031558428
0.07478427 -0.73420227 0.36477846 -0.3124257 -0.102480546 -0.50227857 -0.11050627 0.40557083
0.05287392 -0.13420856 -0.30833435 0.054408897 -0.09970793 1.6627055 -0.023932097 1.5639849
-0.27598977 0.166602 0.048953183 -0.057009637 -0.101201065 -0.02683798 -0.044555437 -0.1974555
-0.23927696 0.11799454 -0.20824924 -0.35606644 -0.15387471 0.5513495 -0.09899883 0.2064881
00000000: 9525 503d 2779 c03d 5616 583c ae30 c63c
00000010: 558f 273f 3b14 263f 70b5 183f 0453 f73e
00000020: 0d49 373e 1172 083f 6367 073f d51e 953e
00000030: f3de 013f ed85 1a3f 29a3 dc3e c57c 383f
00000040: 457a 0abe 2070 c93c 6241 be3d a6af 1b3e
00000050: d178 9e3e 7ac1 453f 00d5 193f d556 d53e
00000060: ce1b 13bf ce84 883f 33e2 633f f47a 3c3e
00000070: a5a8 febe 1eec 7f3f 1d3f 953d 475e 173f
00000080: 43f6 b33e aa22 1bbf 629d 903d e080 903d
00000090: 197b 1c3f 0548 1dbf 0b14 583f 664b 053f
000000a0: 143f b23e 1df2 01bf 173d 213f f945 bb3e
000000b0: 2424 183f 181f 1dbf 236a 683e 41c4 3b3f
000000c0: 7c64 01bf 9e94 55bf ee35 75bf cd97 4dbf
000000d0: 8501 0cbe 8309 e5be 2cb0 02bf 532f e4be
000000e0: 478c 99be 08f5 eabe cdca 10bf 732a 01bf
000000f0: a68b d4be 0fc9 e1be 7777 02bf f887 29bf
00000100: 6a38 ee3e 909b a6bf bf41 5ebf dc6f c2bf
00000110: d8f3 1d3e 5893 86bf 6268 13bf 61e6 c7be
00000120: a428 f93e cffa 8bbf 0205 0a3e 168d 25bf
00000130: ba36 323f 4375 45bf d5e6 3ebe 0de4 343e
00000140: 1ea7 febe 84a5 543e 984c 323e 544e 913e
00000150: 0e61 a9bd 7f3c 073f d2c2 033f ce23 0d3f
00000160: 3b00 42bf 9532 553f 5314 323f 8492 b03e
00000170: 4aa2 4ebf 5d8a 603f 2ff3 063f 2ebb 4b3f
00000180: 213c c3bd 31ee cd3e 3b24 a43e a580 e23e
00000190: 99f8 2c3f db12 653f 1c11 4f3f 6f18 5f3f
000001a0: 72af a83d cf7a 123f 3436 3d3f 6122 033f
000001b0: 2165 cd3c 70e1 0d3f 9ddc dd3e d9f1 4e3f
000001c0: 485c e43e bc0c 263f a6d3 ad3e 16fa e23e
000001d0: 982a 1c3f 2e0e 2b3f 6860 843e d16a 6f3e
000001e0: 1276 353e 3942 573f e8b3 bc3e b6ec 083d
000001f0: a298 2f3e 1f55 483f 5023 9a3e 6f9d 733e
00000200: 146f 3c3f dba7 49bf 4fa5 f63d 0982 b4be
00000210: 4ae1 51be dc97 73bf 09a1 d13e 21cc 2a3e
00000220: b4ab 4a3f 47fd 53bf d1bd 9e3e d600 fc3d
00000230: ea65 8f3f 24c6 39bf 5730 0dbe f8f6 833e
00000240: 8b4e 03bf a6e8 5bbf 272c 1ebf 1d3c 3fbe
00000250: cc65 d6be 4854 eabe 2c25 41be 3b98 05be
00000260: 820d 5bbf 732d 9abd 0368 a53e 27cd 523e
00000270: 03d9 4dbf 5760 30be 28f3 c63e 672b 333e
00000280: 061a 8c3e 0223 ea3e ca50 8c3e 58cd d73e
00000290: 8918 5f3e 0d46 ad3e c55d 8c3c e756 993e
000002a0: 0328 153f 04a8 213e cb57 26be c4a8 8fbe
000002b0: b8aa 1f3f 92b4 3f3f 9581 a0be 9305 1d3e
000002c0: ad07 82be 90b2 033e aecd 5b3c 7a97 c1bd
000002d0: 1f5e 0cbe 55ea d93c e565 26bd 5449 82bc
000002e0: 62d2 0e3d acaa bc3c acec 27be edcc 0fbf
000002f0: 1b14 ff3d 0e8b c53e 8955 45be 065a cd3e
00000300: bdc8 9fbd bcf3 5bbf c985 36be e312 9fbe
00000310: fc06 d53d 90f6 a5be 58da 543e 24db 843e
00000320: a777 f53e 8c0a 55be 050f 21be 6d86 703e
00000330: 4cb5 3e3e 31d8 f43f c0ef e7bd fb43 cb3f
00000340: ea44 5ebe 6fe9 bf3d 4858 b8bc 3319 75be
00000350: 464a 6f3e d347 e13d 093f 283d 7fbc 8ebe
00000360: 4400 4ebe cee5 153e f97e a83e b408 373e
00000370: 507f b6bd 93e9 af3e a8e1 3b3e 6943 01bd
00000380: 7f28 993d aef4 3bbf 3ec4 ba3e 43f6 9fbe
00000390: 52e1 d1bd 5495 00bf 1c51 e2bd fba6 cf3e
000003a0: 5392 583d f86d 09be 00de 9dbe dddb 5e3d
000003b0: ac33 ccbd 89d3 d43f 3f0d c4bc a830 c83f
000003c0: 884e 8dbe b799 2a3e 2283 483d f082 69bd
000003d0: 8142 cfbd 53db dbbc c37f 36bd c631 4abe
000003e0: 0505 75be 1fa7 f13d 4a3f 55be 574e b6be
000003f0: 5591 1dbe 3e25 0d3f e6bf cabd 9e71 533e

conv2.bias f4 [20]
0.12640792 -0.06518377 -0.051088378 -0.016582007 0.017491763 0.08512887 -0.1771262 -0.118628204
0.09225596 0.10293587 0.034502044 0.075757 -0.08715557 -0.13565208 -0.008749458 0.06273787
-0.020633673 -0.0077573177 0.05043741 0.056524646
00000000: 1471 013e 127f 85bd 0c42 51bd fdd6 87bc
00000010: e34a 8f3c 0c58 ae3d 9260 35be 58f3 f2bd
00000020: b1f0 bc3d 0bd0 d23d 0452 0d3d 7c26 9b3d
00000030: 9f7e b2bd 61e8 0abe e359 0fbc b67c 803d
00000040: f307 a9bc 1931 febb 7597 4e3d 6386 673d

conv3.weight f4 [10, 20, 3, 3]
-0.5778902 0.34543455 0.36746618 -0.46659708 0.48906085 -0.19330215 -0.54664314 -0.024039123
-0.069859035 -0.60230786 0.006990609 0.21283658 -0.34751824 -3.2901797 -0.57025146 -0.36346355
0.57695794 -0.07575807 -0.25318548 0.610352 0.5776112 -0.15819097 -1.3489493 0.44645646
-0.27986524 -0.4928911 0.50478005 0.21329412 -0.37706292 -0.3420022 0.25594345 0.22571507
-0.9183549 0.28993258 0.32878065 -0.021194974 -0.3169921 -0.25240877 -0.076772265 -0.2651888
-0.011993634 -1.522728 -0.35421875 -0.49160242 0.09195928 0.11339711 0.08056448 0.17704262
-0.054959588 0.124677114 -0.21907674 -0.11769822 0.21578893 -0.18354462 -0.63836634 0.51138717
0.5646227 -1.0011587 0.7239653 0.43529385 -1.0239234 0.25555182 0.3103896 0.4511343
0.33264357 0.35017267 0.4962961 -0.44179186 0.39675206 0.43250015 -0.34565738 0.20577428
0.62196094 0.52760726 0.6750576 0.27961046 0.11791151 0.27540922 0.30049562 0.49497545
-0.1057881 -0.31905073 -0.11939413 0.0017684092 0.108270295 0.07566314 -1.1872501 0.051040184
0.50700504 0.010954368 -0.22747833 -0.37008777 -0.1774725 -0.19306743 0.13189352 -1.7857739
-0.10045862 -0.24373662 0.18863729 -0.5844801 -0.41025046 -0.22870897 -0.12099732 -1.4150816
-0.52037233 -0.06408027 0.57075614 0.48658797 -0.44476715 0.49916786 0.6155716 -0.7468542
0.16946544 -0.6124422 -0.64870846 0.21366212 0.16090015 0.13798714 -0.20911737 -0.30027136
0.5735051 -0.051940985 -1.6913053 0.5020119 0.25678867 0.36923957 0.59852135 0.6908577
0.62142813 0.3986641 0.11145781 0.17330524 0.3649371 0.57690096 0.39742127 -0.26229137
0.04116201 0.12589267 0.042288676 -1.4553982 0.18472621 0.12825765 0.5949468 0.30075085
-0.4580556 0.29136714 0.11306469 0.16541947 -1.6067307 0.36781323 0.20362988 0.32626393
0.6522301 0.5844782 0.5413253 0.7044592 0.29330575 0.176661 0.32530376 0.24851188
0.35794634 0.355487 0.04380828 0.22240512 0.1834707 -0.26410487 0.33120146 -1.071948
-0.16849972 0.15554638 0.15780523 0.30689737 0.55438864 0.58938706 0.572244 -0.30333453
0.4251371 0.6469793 -0.2753799 0.033646002 -0.96391976 -0.19420242 -0.18741047 -0.351802
0.47868708 -0.2699186 -0.40882587 -0.1364884 -0.18645309 0.4376551 0.10016353 0.09589445
0.10164168 -2.0970685 -0.4803419 0.16202568 -0.23561195 -0.24797331 0.01871022 0.08440745
0.11493346 -0.26377115 -0.99640113 0.36468327 -0.2714955 -0.007912914 0.31939507 0.40923396
-0.010472739 -0.045295957 0.37494484 0.54516596 -0.16784883 0.3788682 0.810787 0.23246574
-0.24122763 -0.59564227 -0.7071309 -0.39527553 0.06636838 -1.9250408 -0.44628075 -0.726032
-0.16444924 0.12814984 -0.21994431 -0.17168874 0.36070287 0.26835376 0.5038457 0.34285513
0.6513284 0.35120335 -0.8170737 -0.024307499 -0.027928261 -0.9160814 0.3776284 0.076353036
-0.8909557 -0.24277782 -0.082142375 0.0155947395 0.06390453 0.05795989 0.5245637 -0.51631284
0.39320096 0.5699714 -0.7685718 0.28412282 0.038478892 0.17780145 0.22510317 0.06969181
00000000: 9df0 13bf ccdc b03e 8724 bc3e d0e5 eebe
00000010: 2f66 fa3e 00f1 45be cef0 0bbf b2ed c4bc
00000020: 4112 8fbd d930 1abf 7b11 e53b d5f1 593e
00000030: e9ed b1be 4e92 52c0 00fc 11bf e517 babe
00000040: 84b3 133f 0c27 9bbd 87a1 81be 0740 1c3f
00000050: 54de 133f d0fc 21be 5faa acbf f195 e43e
00000060: 7f4a 8fbe 395c fcbe 4439 013f c669 5a3e
00000070: 640e c1be ea1a afbe 050b 833e da21 673e
00000080: 4f19 6bbf 0b72 943e f055 a83e 15a1 adbc
00000090: ca4c a2be b93b 81be c73a 9dbd d4c6 87be
000000a0: f280 44bc c0e8 c2bf 295c b5be 50b3 fbbe
000000b0: 2655 bc3d be3c e83d fdfe a43d a94a 353e
000000c0: 4e1d 61bd b756 ff3d a755 60be c40b f1bd
000000d0: c6f7 5c3e 1ff3 3bbe fa6b 23bf 45ea 023f
000000e0: 1d8b 103f f825 80bf ca55 393f d6de de3e
000000f0: ec0f 83bf b0d7 823e 63eb 9e3e 13fb e63e
00000100: 4250 aa3e d549 b33e 861a fe3e 8b32 e2be
00000110: 1623 cb3e a970 dd3e 01fa b0be 7eb6 523e
00000120: d538 1f3f 4511 073f 93d0 2c3f 1a29 8f3e
00000130: 977b f13d 7002 8d3e 90da 993e 6c6d fd3e
00000140: 6ea7 d8bd 9e5a a3be e984 f4bd f7c9 e73a
00000150: d1bc dd3d 47f5 9a3d d0f7 97bf 830f 513d
00000160: 15cb 013f f379 333c 14f0 68be 257c bdbe
00000170: 5abb 35be 78b3 45be 180f 073e 3d94 e4bf
00000180: 40bd cdbd 1896 79be 222a 413e 7da0 15bf
00000190: 590c d2be af32 6abe 71cd f7bd 6521 b5bf
000001a0: 1f37 05bf 843c 83bd 131d 123f 0f22 f93e
000001b0: 85b8 e3be ee92 ff3e 1a96 1d3f d631 3fbf
000001c0: 5988 2d3e 03c9 1cbf c211 26bf 3eca 5a3e
000001d0: 02c3 243e 804c 0d3e dd22 56be 2bbd 99be
000001e0: 3bd1 123f 12c0 54bd b17c d8bf da83 003f
000001f0: ce79 833e f80c bd3e b238 193f 0ddc 303f
00000200: ea15 1f3f b31d cc3e fe43 e43d ee76 313e
00000210: 09d9 ba3e c8af 133f cd7a cb3e 0e4b 86be
00000220: 7f99 283d 02ea 003e e436 2d3d 7d4a babf
00000230: de28 3d3e f955 033e 6f4e 183f 04fc 993e
00000240: 4386 eabe 132e 953e 768e e73d b963 293e
00000250: 5aa9 cdbf 0452 bc3e 5a84 503e 110c a73e
00000260: 8df8 263f 5da0 153f 4b94 0a3f 7057 343f
00000270: 2c2c 963e 9fe6 343e 378e a63e e679 7e3e
00000280: be44 b73e 6402 b63e 5070 333d 2bbe 633e
00000290: bedf 3b3e c138 87be 3d93 a93e 9835 89bf
000002a0: 318b 2cbe 8d47 1f3e b297 213e a721 9d3e
000002b0: 6aec 0d3f 12e2 163f 957e 123f aa4e 9bbe
000002c0: 92ab d93e 6fa0 253f 98fe 8cbe 64d0 093d
000002d0: 72c3 76bf 00dd 46be 88e8 3fbe 641f b4be
000002e0: 7916 f53e c532 8abe a051 d1be 9dc3 0bbe
000002f0: 8fed 3ebe 5414 e03e 8922 cd3d 4f64 c43d
00000300: 8329 d03d 5f36 06c0 60ef f5be 0fea 253e
00000310: 4244 71be b7ec 7dbe 2d46 993c d0dd ac3d
00000320: 3c62 eb3d 030d 87be 2514 7fbf c4b7 ba3e
00000330: 7501 8bbe 2ba5 01bc c087 a33e 1d87 d13e
00000340: da95 2bbc 4188 39bd c5f8 bf3e ff8f 0b3f
00000350: 90e0 2bbe 03fb c13e bd8f 4f3f 800b 6e3e
00000360: 6004 77be 037c 18bf 8806 35bf 8e61 cabe
00000370: 25ec 873d bd67 f6bf e97e e4be 3cdd 39bf
00000380: 6265 28be b639 033e 1539 61be 2ccf 2fbe
00000390: 0cae b83e aa65 893e 08fc 003f b58a af3e
000003a0: 75bd 263f edd0 b33e be2b 51bf 8520 c7bc
000003b0: cfc9 e4bc 5084 6abf 8258 c13e fb5e 9c3d
000003c0: ac15 64bf c09a 78be 433a a8bd 1481 7f3c
000003d0: 61e0 823d 5a67 6d3d cf49 063f 142d 04bf
000003e0: a351 c93e a5e9 113f 1fc1 44bf 8c78 913e
000003f0: 0b9c 1d3d 9511 363e 7281 663e 94ba 8e3d

conv3.bias f4 [10]
0.046985812 0.11020261 0.02695705 -0.071769334 0.006478226 -0.10467077 -0.0586431 -0.088189185
-0.082574815 -0.04924658
00000000: 3274 403d e8b1 e13d 08d5 dc3c cdfb 92bd
00000010: 4c47 d43b a15d d6bd bf33 70bd 889c b4bd
00000020: fc1c a9bd c8b6 49bd

linear.weight f4 [4, 160]
0.020346979 0.025397634 0.011420473 0.006573562 -0.102214694 0.026678134 0.11494994 -0.027149167
-0.043994453 0.0070426622 0.015337257 0.091467 0.00044334983 0.054539174 0.03676819 -0.048740316
0.070089675 -0.03469004 -0.0026751708 0.022151513 0.14309373 -0.00213552 0.0018990701 0.07465101
0.01807481 0.09410841 -0.12382781 -0.1107287 -0.14324433 0.01748924 0.078941 -0.029963955
0.00499628 -0.029867815 -0.025423432 -0.05960682 0.00517995 0.090897456 0.06310628 0.06863506
0.051202375 -0.14563261 -0.0045946054 -0.024148563 0.093141474 -0.11087138 -0.017281279 0.061991684
0.03952126 -0.041442238 -0.036874156 0.0017360616 0.084308095 -0.06898627 -0.02307368 0.023949867
-0.032206293 0.01502686 0.00967277 0.008292679 -0.11005025 -0.09114955 -0.08075976 -0.00738666
0.02450548 -0.055310406 -0.03847113 -0.012019062 0.102679975 -0.04711134 0.059677277 -0.02311065
-0.03421674 -0.08372605 0.12171198 -0.043188825 0.024969948 0.018661488 -0.0118594915 0.04864444
-0.013188694 -0.038803384 -0.07748161 -0.04718791 -0.027020833 0.0034336178 0.037366763 0.0040619965
-0.016510103 0.020616576 -0.10918589 -0.034898836 -0.042397864 0.032423586 -0.010933683 -0.14894426
0.027192472 -0.023055447 -0.033797577 0.05376751 -0.0668586 -0.03956953 -0.052780576 -0.016712194
-0.008047933 -0.10025531 -0.089100234 -0.05064436 -0.05956565 -0.14706959 0.04193409 0.075047046
0.024122313 0.02315916 -0.059863538 -0.121246845 -0.027872436 -0.0846219 0.015406989 -0.0594338
-0.15224311 0.19527751 -0.08146433 0.00063236454 0.18573827 -0.023830991 0.10603091 -0.015240667
0.023776768 0.05803007 -0.016831696 0.027042039 0.001659292 0.04090368 -0.035398237 0.057389643
0.014596311 0.075399496 0.114789955 0.04718846 -0.1264966 0.094679154 0.019414064 0.010946177
0.017354894 -0.04788265 -0.033755668 0.072043054 -0.03134349 -0.01802986 -0.015919799 -0.020485401
0.061263483 -0.022170294 0.025557743 -0.02352107 0.074092835 -0.021366159 -0.024343207 0.008416558
-0.075595 -0.08378093 -0.0017464957 0.03416266 -0.050502945 -0.0058944607 0.06781125 -0.015783193
0.085548945 -0.05638017 -0.002574807 0.15107524 0.04831543 0.04246309 0.0012032045 -0.043698456
0.004611669 -0.025030354 -0.014557019 -0.06885356 0.18054281 -0.09189706 0.10757143 0.010343873
-0.14365306 0.07094903 0.009343374 -0.024924254 -0.06275071 0.06491373 0.051646322 0.04840168
-0.04531965 0.19948417 0.039161067 0.046683453 0.19647981 -0.0799459 -0.1460548 0.14681435
-0.06798351 0.09835478 0.025331989 -0.00094904174 0.0699016 0.05405932 0.11311362 0.029918287
-0.09012575 -0.052192766 -0.07967673 0.012448036 0.020114476 -0.06123165 0.066386774 0.025910107
0.08283129 0.066920415 0.017727023 0.017039921 0.07385888 -0.029563326 -0.06177532 -0.003735523
-0.08317325 0.069954626 0.10777614 -0.097043805 0.07406823 -0.092021264 -0.0829632 0.0059473277
-0.017029304 -0.045493774 0.015244877 0.03318529 0.1597277 0.05101011 0.05732183 0.03730712
0.056142427 -0.038213983 0.032850154 0.31259495 0.18476458 0.06443641 -0.07713681 -0.044474345
-0.016129602 0.03558259 0.16553867 -0.12122712 -0.16120088 -0.0005576707 -0.044471443 0.1276984
00000000: b5ae a63c b30e d03c f01c 3b3c 0967 d73b
00000010: f055 d1bd 1a8c da3c e06a eb3d ee67 debc
00000020: 8733 34bd 22c6 e63b 1e49 7b3c 0d53 bb3d
00000030: 6871 e839 7864 5f3d 3e9a 163d eda3 47bd
00000040: 2d8b 8f3d 2517 0ebd eb51 2fbb 1777 b53c
00000050: 2a87 123e 15f4 0bbb 38ea f83a a1e2 983d
00000060: a011 943c e9bb c03d 6f99 fdbd bbc5 e2bd
00000070: a4ae 12be 9845 8f3c d2ab a13d f876 f5bc
00000080: d6b7 a33b 59ad f4bc cd44 d0bc 4826 74bd
00000090: 92bc a93b 7228 ba3d de3d 813d 8a90 8c3d
000000a0: 95b9 513d b720 15be 588e 96bb 35d3 c5bc
000000b0: f5c0 be3d 8910 e3bd 7891 8dbc feea 7d3d
000000c0: 0be1 213d 56bf 29bd 5b09 17bd 908c e33a
000000d0: b9a9 ac3d ac48 8dbd 0405 bdbc 8332 c43c
000000e0: bfea 03bd 3833 763c 8a7a 1e3c 04de 073c
000000f0: 0762 e1bd 9eac babd 6065 a5bd cc0b f2bb
00000100: b7bf c83c 2a8d 62bd e793 1dbd 9aeb 44bc
00000110: e149 d23d d2f7 40bd 2970 743d 8c52 bdbc
00000120: da26 0cbd 9078 abbd 2144 f93d c4e6 30bd
00000130: c78d cc3c fadf 983c 504e 42bc 643f 473d
00000140: 6415 58bc 4cf0 1ebd aeae 9ebd 1c48 41bd
00000150: cb5a ddbc 8c06 613b e40d 193d 7f1a 853b
00000160: 3240 87bc 18e4 a83c da9c dfbd 15f2 0ebd
00000170: 62a9 2dbd 98ce 043d 3123 33bc d884 18be
00000180: bfc2 de3c c7de bcbc 546f 0abd 523b 5c3d
00000190: 29ed 88bd a913 22bd 7230 58bd 03e8 88bc
000001a0: 7adb 03bc a852 cdbd 2f7a b6bd 7670 4fbd
000001b0: 1cfb 73bd 6999 16be 15c3 2b3d 44b2 993d
000001c0: 289c c53c 47b8 bd3c 7833 75bd 4450 f8bd
000001d0: bc54 e4bc 3f4e adbd 986d 7c3c db70 73bd
000001e0: 9ee5 1bbe d4f6 473e c5d6 a6bd 44c5 253a
000001f0: 2c32 3e3e 3639 c3bc bc26 d93d feb3 79bc
00000200: 7fc7 c23c f0b0 6d3d a0e2 89bc 4487 dd3c
00000210: 9a7c d93a 9e8a 273d befd 10bd 6711 6b3d
00000220: 5e25 6f3c 0d6b 9a3d ff16 eb3d b048 413d
00000230: 5388 01be 25e7 c13d 3e0a 9f3c 9857 333c
00000240: da2b 8e3c 9920 44bd 6243 0abd 4f8b 933d
00000250: 0862 00bd 5bb3 93bc 3d6a 82bc 00d1 a7bc
00000260: 6bef 7a3d 7a9e b5bc 795e d13c 42af c0bc
00000270: fcbd 973d 1508 afbc 686b c7bc 9ae5 093c
00000280: 8dd1 9abd 5695 abbd acea e4ba 25ee 0b3d
00000290: 2ddc 4ebd 5226 c1bb a0e0 8a3d c14b 81bc
000002a0: 4934 af3d e5ee 66bd 18be 28bb 78b3 1a3e
000002b0: 66e6 453d c7ed 2d3d d8b4 9d3a 27fd 32bd
000002c0: 7c1d 973b 750c cdbc 9080 6ebc 1803 8dbd
000002d0: 37e0 383e 8734 bcbd 694e dc3d 5979 293c
000002e0: ca19 13be ba4d 913d f314 193c f32d ccbc
000002f0: 7283 80bd 7df1 843d 188b 533d d740 463d
00000300: 19a1 39bd 9445 4c3e 5b67 203d 2637 3f3d
00000310: 0132 493e adba a3bd 648f 15be 8056 163e
00000320: f03a 8bbd 3b6e c93d 0885 cf3c 1dc9 78ba
00000330: 9228 8f3d 4e6d 5d3d 1da8 e73d 3217 f53c
00000340: d993 b8bd 15c8 55bd 8e2d a3bd d9f2 4b3c
00000350: 1dc7 a43c 0ace 7abd caf5 873d 6f41 d43c
00000360: 74a3 a93d 920d 893d 4338 913c 4e97 8b3c
00000370: 5343 973d ca2e f2bc 1e08 7dbd adcf 74bb
00000380: bd56 aabd 5f44 8f3d bdb9 dc3d e7be c6bd
00000390: 16b1 973d a575 bcbd 9ce8 a9bd cde1 c23b
000003a0: 0a81 8bbc ae57 3abd a6c5 793c 4ced 073d
000003b0: a88f 233e faef 503d 4cca 6a3d 5acf 183d
000003c0: 9af5 653d 4486 1cbd e28d 063d 720c a03e
000003d0: ed32 3d3e 3df7 833d e7f9 9dbd bb2a 36bd
000003e0: 3a22 84bc 0dbf 113d f882 293e ed45 f8bd
000003f0: d811 25be a630 12ba b027 36bd 5fc3 023e

linear.bias f4 [4]
-0.0036274265 0.076122604 -0.0046269405 0.19838798
00000000: 1eba 6dbb 2be6 9b3d 979d 97bb 3826 4b3e
