2048AI_model_3_lr_0.01_ver_1.pt (torch_old, 36117 bytes, 8 tensors)

conv1.weight f4 [10, 3, 10, 10]
000000 6d 7e b5 3c b8 44 8b bc 6b 8e dc 3d cd f3 d0 3d
       0.022155011 -0.017000541 0.107693516 0.10202751
000010 e5 3c c6 3d 85 54 01 3e b4 57 0f 3d d7 01 0d 3e
       0.096795835 0.12629898 0.03499575 0.13770233
000020 7c da e7 3d cf c1 80 3d 34 95 ab 3d 0d 27 bb 3d
       0.113209695 0.06286966 0.083780676 0.09138308
000030 29 a0 b3 3d 07 44 e0 3c 13 8e be 3d 3f f8 85 3c
       0.087707825 0.027376188 0.09304442 0.016353725
000040 10 7d 5f 3d 1e e5 9f 3d 1a 58 3e 3d 48 05 16 3d
       0.05456263 0.078073725 0.04647074 0.03662613
000050 8c fd 33 3d 89 73 cc 3d 01 61 d9 3d 39 77 ee 3d
       0.043942973 0.09982974 0.10614205 0.11643834
000060 28 05 04 3e e0 99 d1 3d d8 50 2b 3d d9 70 a1 3d
       0.12892592 0.102344275 0.041825145 0.07882852
000070 f8 6a cf 3c 95 55 ac 3d bd c9 1d 3e a3 75 9e 3d
       0.025319561 0.08414761 0.15408988 0.07737281
000080 3d 59 63 3d f5 fe 02 3e 1f ad e5 3d 72 12 56 3d
       0.055505026 0.12792571 0.11214661 0.052263685
000090 db 1e 42 3d 11 85 aa 3d 29 8a e4 3d 64 4d 54 3d
       0.047392707 0.08326162 0.111591645 0.051831618
0000a0 7a ec 1e 3e 0a 4e 44 bd 1b 5c 67 3d e0 31 d1 3d
       0.15519896 -0.047925986 0.056484323 0.10214591
0000b0 9a bf fa 3d cc 3f ce 3d 86 90 76 3d 6e 65 e6 3d
       0.12243576 0.10070762 0.060196422 0.11249815
0000c0 1a 60 1f 3d f9 bc 9f 3d 2b cb 00 3e c9 45 4c bc
       0.03891001 0.077997155 0.12577502 -0.01246781
0000d0 78 24 89 bc 8e 84 a5 3d 2a 03 08 3e 84 df 02 3e
       -0.016741022 0.080819234 0.13282457 0.12780577
0000e0 6a fa a9 3c ed d1 78 3d 56 1e ce 3d 64 58 c7 3d
       0.02074929 0.060747076 0.1006438 0.09733656
0000f0 be 71 a6 3d 21 30 c1 3d 11 a0 a5 3d ee 9b bf 3d
       0.08127163 0.09433008 0.08087171 0.09355913
000100 e1 9d 01 3e a5 2a 58 3d f2 1d 01 3d d2 15 2e 3d
       0.12657882 0.052775044 0.0315227 0.04250128
000110 d0 93 e5 3d 9e 64 7a 3d 0e de e7 3d c0 9a 2b 3d
       0.112098336 0.061131112 0.113216504 0.041895628
000120 28 e7 59 3d 39 28 e2 3d fb c6 55 3c be 90 ab 3d
       0.053198963 0.11042828 0.013047929 0.08377217
000130 b9 ad 14 3c 37 00 d4 3c f3 1d d0 3d 3e 92 a1 3d
       0.009074622 0.025879009 0.10161962 0.078892216
000140 73 a8 a1 3d 1f 5c ec 3d 54 08 ba 3d 75 be 93 3d
       0.07893457 0.11541008 0.0908362 0.07214061
000150 3d 81 e0 3d 9f a0 f5 3d 97 d2 3a 3d fc e0 a5 3d
       0.1096215 0.11993527 0.04561099 0.08099553
000160 5b bb 89 3c 9c 8a 86 3d 46 e6 7c 3d e1 ef 05 3d
       0.01681297 0.065694064 0.061743043 0.03269947
000170 87 eb 37 3d a7 56 9e 3d d7 83 a2 3d 79 9a ec 3d
       0.04490235 0.077313714 0.07935303 0.11552901
000180 dc b2 ee 3d f4 5c 12 3d 99 e1 c4 3c c2 c9 73 3d
       0.116552085 0.03573318 0.024033355 0.059518583
000190 a9 74 48 bd 44 f7 06 bd d3 91 b4 bd 88 9a 80 bc
       -0.04893938 -0.032950655 -0.08816876 -0.015698686
0001a0 24 3f cc 3b a4 10 05 bc 5a 9c fe bc 86 fd 44 bd
       0.006233113 -0.008121643 -0.031080414 -0.04809334
0001b0 d7 a5 d9 3c f4 88 59 bc 3d 34 9d 3c c6 77 f0 bc
       0.026568336 -0.013277281 0.019189948 -0.029353987
0001c0 f5 c4 af 3d 28 85 1a 3d 04 c4 6b 3d 60 a7 e1 3d
       0.085824884 0.037724644 0.057559982 0.110182524
0001d0 75 aa f1 3d e0 f9 11 3c a8 02 77 3c 72 13 be 3d
       0.1180009 0.0089096725 0.015076317 0.09281053
0001e0 8f f0 6b 3d 1e 6d 6f 3d 6a 37 75 3d 88 6d c7 3d
       0.05760246 0.05845367 0.0598673 0.09737688
0001f0 5a 46 59 3c b9 3d aa 3d d8 c3 c2 3d aa c4 89 3d
       0.013261402 0.08312554 0.095100105 0.06726964
000200 c5 c2 9c 3d 99 59 23 3d d4 a5 3f bd 19 af 72 3c
       0.07654337 0.03988037 -0.046789005 0.014812254
000210 de d6 1a 3d 50 8c a5 3d 52 9e 91 3c ec c8 d1 3d
       0.03780257 0.08083403 0.017775688 0.10243401
000220 03 2f b8 3c 55 5c c6 3d c6 5e f1 3d c3 97 45 3d
       0.022483354 0.0968558 0.11785655 0.048240434
000230 68 aa 26 3d 6b 05 10 3c 83 aa a3 3d 09 9d ae 3d
       0.040689856 0.008790354 0.07991507 0.08526046
000240 d4 31 ce 3c 14 a2 58 3d df 82 86 3d 18 81 c0 3c
       0.025170244 0.052888945 0.065679304 0.023499057
000250 f6 d5 9d 3d 99 eb bd 3d 8c 8e 07 bb e6 85 82 3c
       0.077068254 0.09273452 -0.002068433 0.015932988
000260 43 a3 13 bc a2 b4 f5 bc 2c 9c d4 3d 8b 1c c9 3d
       -0.009011093 -0.029993359 0.1038135 0.09819897
000270 25 6e f5 3d a4 20 8c 3d 8c c0 14 3d 3a 85 c0 3d
       0.11983899 0.06842163 0.03631644 0.09400411
000280 64 57 3b bd 53 42 02 bd 45 c8 1a bd 47 86 ef bb
       -0.04573764 -0.031801533 -0.03778865 -0.0073097083
000290 ca 84 97 bc 5d 51 1b 3d 2a 33 4b 3d 17 de 8e 3d
       -0.018495936 0.03791939 0.04960934 0.06975954
0002a0 5b 41 25 3d ce 55 9b 3d a9 92 a4 3b 2b 80 0f 3c
       0.04034553 0.07584725 0.005022366 0.008758585
0002b0 a9 40 eb bc 05 ab 62 bd f5 da 63 bd b8 73 66 3d
       -0.028717356 -0.05533888 -0.055628736 0.0562627
0002c0 cc 37 40 3d 28 06 fb 3c 41 36 69 3c 9e 48 74 3d
       0.046928212 0.030642584 0.014234127 0.059639566
0002d0 86 e9 ab 3c 8e ca b5 3d f0 6e 41 bc 6a f0 b2 3d
       0.020985376 0.08876525 -0.011806235 0.087372616
0002e0 e8 04 44 3d 9e 42 cc 3d 9a 6d 55 3c 97 a0 3c 3d
       0.04785624 0.09973644 0.013026619 0.046051588
0002f0 d2 9f 1a 3d 82 38 f7 3d ac 5f 74 3c ce 40 c4 3d
       0.037750073 0.12071325 0.014915388 0.09582673
000300 26 53 9f 3c 1e 5e 52 3d 43 ff 9f 3d 39 a6 36 3d
       0.019448828 0.05135929 0.07812359 0.044592116
000310 ba c4 49 3d b6 78 8a 3d a9 98 4f 3b d6 c5 49 3d
       0.04925988 0.06761305 0.0031676686 0.049260937
000320 d6 8a 1c bd dc 33 a7 bd 49 f2 6d bc ce 57 83 bd
       -0.03821834 -0.08164188 -0.014523097 -0.06413232
000330 68 58 57 b9 95 3b cb bc ce 70 66 bd 9d 5d cb bc
       -0.00020536932 -0.024808684 -0.056259923 -0.024824912
000340 c1 e0 6f bd fe 05 d5 3c db b4 75 3d ff b3 91 3d
       -0.05856395 0.026003834 0.05998693 0.0711441
000350 1e c8 60 3d 64 00 6e 3d 98 ad c7 3b 64 5d 1a 3d
       0.054878347 0.05810584 0.006093692 0.03768672
000360 9b c4 ed 3c d5 75 0a 3e 5e b6 62 3d 0e 89 de 3d
       0.029024413 0.13521512 0.0553497 0.10865985
000370 77 f1 8e 3d b6 78 f7 3d 56 fc b0 3d e0 4f f5 3d
       0.069796495 0.12083571 0.08641879 0.119781256
000380 67 2c 41 3d 38 ea ef 3c 20 26 a5 3d 5c 9d d1 3d
       0.047161486 0.029286489 0.080639124 0.10235092
000390 d7 52 a0 3d e3 2d 24 3d 1f 64 c0 3d fd e7 9d 3d
       0.078283004 0.040082823 0.093940966 0.07710264
0003a0 1a c8 d6 3d 8e c1 2b 3d 25 03 d9 3d b7 71 ba 3c
       0.10487385 0.041932635 0.10596303 0.022759302
0003b0 5a 2b fb 3d 00 5b 76 3d 5d 69 c7 3d 5e 0a 92 3d
       0.12264128 0.060145378 0.09736893 0.07130884
0003c0 19 80 a5 3d 9e e8 c2 3d 9b 0b ed 3d 27 c0 ac 3d
       0.08081073 0.095170245 0.11574479 0.08435088
0003d0 f2 0c dd 3d 63 a2 26 3d c3 f7 63 3d 79 b2 d1 3c
       0.10793485 0.040682208 0.055656206 0.025597798
0003e0 97 59 6a 3d 60 bb 08 3e 6e fa 04 3e 17 86 e8 3d
       0.057214346 0.13352728 0.12986156 0.113537006
0003f0 5f 92 a7 3d 65 57 b0 3d 41 a8 bd 3d 60 d3 fd 3d
       0.08182215 0.08610419 0.092606075 0.12393832

conv1.bias f4 [10]
000000 e4 33 43 bc ac 95 10 3e f9 27 2d be c3 e8 0b be
       -0.011914227 0.14119595 -0.1690978 -0.1366301
000010 98 8e c4 3d 2f 49 0d 3e 10 98 d7 bd 27 a9 10 3d
       0.0959751 0.13797449 -0.105270505 0.035317566
000020 ad a6 98 3d 26 6f f0 bd
       0.07453666 -0.1173995

conv2.weight f4 [20, 10, 4, 4]
000000 d6 89 4d bd ce af 18 3d 34 51 95 3c e7 1f 41 3d
       -0.05018028 0.037277035 0.018227197 0.047149565
000010 68 84 67 bd fb 8b d4 3d f6 a0 e7 3d 00 3c b6 3d
       -0.056522757 0.10378262 0.11309998 0.08898163
000020 24 bc 95 3d 13 ca 2e 3e 5e 25 3f 3e 28 73 31 3e
       0.073112756 0.17069273 0.18666598 0.17329085
000030 83 e6 b5 3d de d0 15 3e af a5 16 3e f5 43 31 3e
       0.08881857 0.14630458 0.14711641 0.1731108
000040 4f d2 1b bd 27 09 d7 bc a5 ad 29 3e 2e ba 9a 3d
       -0.038042363 -0.026249481 0.16570146 0.07555042
000050 6e 0f 7b bd 13 82 af 3d 8a 81 14 3e 41 fa 4c 3b
       -0.06129401 0.085697316 0.1450254 0.0031277093
000060 ad 59 5f bc fc e4 0c 3e 5e a8 70 3e a9 1c 3b 3e
       -0.01363222 0.13759226 0.23501727 0.18272652
000070 f8 12 b0 3d 6b 42 6e 3e 2c 43 6c 3e 08 15 28 3e
       0.08597368 0.23267524 0.23072499 0.16414273
000080 d1 86 73 3c da a2 ee bc 26 fb 94 bd 51 83 e1 bd
       0.014863686 -0.029130388 -0.07274465 -0.11011375
000090 df a7 b6 3d 6a f2 a3 bd d9 d4 10 3c 44 40 8e bd
       0.089187376 -0.08005221 0.008839809 -0.069458514
0000a0 a0 33 55 bc 85 5d 59 bd 47 33 0d bd a3 67 cb 3d
       -0.013012797 -0.053067703 -0.03447273 0.099318765
0000b0 89 43 0e bd 9d ba 53 bd c9 07 21 3e 62 fc aa 3b
       -0.034732375 -0.05169164 0.15725626 0.0052180747
0000c0 91 18 68 bd 59 77 01 bc af 89 04 3e 35 17 f0 3d
       -0.056664053 -0.00790199 0.12943147 0.117231764
0000d0 a6 8c ef bc a2 8a 96 3b 44 0e 73 3c ca 29 c9 3d
       -0.029241871 0.004594163 0.014834944 0.09822424
0000e0 2a 0d 39 3d a4 53 72 3d 51 fc 83 3c 10 a5 85 bb
       0.04517857 0.059161797 0.016111525 -0.004078515
0000f0 66 49 17 3e 81 f4 64 3d 8b 49 83 bd 9c d3 9f 3b
       0.14774093 0.05589724 -0.064105116 0.0048775207
000100 de 3b 00 3e 04 36 67 3d c4 b7 c3 bd 98 97 14 be
       0.12522838 0.056447998 -0.09556535 -0.14510953
000110 67 b1 6e bd 29 cf 66 3d 95 49 dd bd 69 f9 66 3d
       -0.058274653 0.056349907 -0.1080505 0.0563902
000120 c1 1a 75 3d d3 92 ce bd 56 43 31 3e ae 0a 26 bc
       0.059839968 -0.10086598 0.17310843 -0.010134382
000130 aa 62 17 3e 18 d7 89 bd ee 4e 5f bc 21 02 fe bd
       0.14783731 -0.06730479 -0.013629658 -0.1240275
000140 62 7c b9 bd 52 7e 9e 3d 04 f7 eb 3d 26 03 1d 3d
       -0.09056927 0.077389374 0.11521724 0.03833308
000150 98 d3 4c bd 62 bf a2 bc 30 91 52 3d c1 b7 9a 3c
       -0.05000648 -0.019866649 0.051407993 0.018886449
000160 0b 1c 55 3d a2 d5 b1 3d ab ae e1 3d e9 48 3c 3e
       0.052028697 0.08683325 0.110196434 0.18387188
000170 c6 99 b4 3d eb f1 f2 3d 47 ab 3c 3e 9b 0e b9 3d
       0.088183925 0.118625484 0.18424712 0.09035989
000180 66 89 80 bc 8c 4f 9a bc c2 cd 81 bd bd 86 a7 bd
       -0.015690517 -0.018836759 -0.06338073 -0.08179996
000190 2d 9c 5f 3d b6 39 76 bd 4c 4e a0 bd 81 97 f4 3c
       0.0545923 -0.06011363 -0.07827434 0.029857399
0001a0 9b cc 1d 3e 9e 3f a4 3d 53 35 06 3e 71 d6 36 bc
       0.15410082 0.080199465 0.13106279 -0.011159525
0001b0 a2 28 3b 3e 66 c5 89 3d ab 01 d5 3d d5 b3 61 3d
       0.18277219 0.06727104 0.10400709 0.05510314
0001c0 da 63 8b bd 63 94 74 3c 1b c1 90 3c e1 1b 85 bd
       -0.068061545 0.014927956 0.017670205 -0.06499458
0001d0 72 c4 a0 bd 84 4e 6b bd b9 0a cd bd de a8 35 bd
       -0.07849969 -0.057447925 -0.10011811 -0.044350497
0001e0 01 a2 3c 3e 86 03 70 3e dc 25 37 3e f6 5c aa 3d
       0.18421175 0.23438844 0.17885536 0.08318512
0001f0 f0 7d d3 3d 4f d4 9d 3c 44 41 e4 3d 8d 58 0c 3e
       0.10326755 0.019266276 0.11145261 0.13705654
000200 25 fb 1b 3e a0 40 21 bd 15 4d 35 bd 7c 38 e0 bc
       0.15232523 -0.03936827 -0.044262964 -0.027370684
000210 44 b4 09 3e 11 8b e2 bb c4 34 69 bb 1a a4 84 bc
       0.13447672 -0.0069135507 -0.003558443 -0.016191531
000220 7e 08 b6 bd 8b 0a 68 bd 61 22 9f 3b c1 55 75 3d
       -0.088883385 -0.05665068 0.004856393 0.059896234
000230 80 76 8b bd b2 a5 84 3d f5 5a f3 3d dd b7 ce 3d
       -0.068097115 0.064769164 0.11882583 0.10093663
000240 58 a7 28 3c 35 32 8a bc 89 ea 4c 3d 6e 12 4e 3d
       0.010293804 -0.016869644 0.050028358 0.050310545
000250 b5 d4 ef 3c 60 d1 c0 3d cf 91 18 3b 7c e5 54 3d
       0.029276231 0.09414935 0.0023280268 0.051976666
000260 ed 1b c7 bd 53 b8 c4 3d 01 6d ce bc f3 0e de bc
       -0.09722123 0.096054696 -0.025198461 -0.027106738
000270 5f da a4 3c ef 2d 77 3b 80 ea c0 3d 3b e0 e4 bc
       0.020123659 0.0037716588 0.09419727 -0.027938953
000280 5b cc 60 3d 1c 9d 10 3d 43 d0 1a bd bc 28 17 3e
       0.05488239 0.03530608 -0.03779627 0.14761633
000290 b0 c5 7a 3d f3 a8 3d 3e 43 b9 97 3c 0f d0 18 3e
       0.061223686 0.1852148 0.018520957 0.14923118
0002a0 e2 cd 13 bc 13 94 d5 bc ef 6e 47 bd 2f 0d 91 bd
       -0.009021254 -0.026071584 -0.04868978 -0.07082593
0002b0 59 9d a4 3d b2 14 ae bc 28 55 d9 bd d6 b2 20 3c
       0.08037824 -0.021250103 -0.106119454 0.009808263
0002c0 dc 95 e5 3d e3 a0 88 3c c1 0f 08 bd 60 2f 1a 3e
       0.11210224 0.01667828 -0.03321815 0.15057135
0002d0 00 36 3e 3d f7 aa 8c 3d 73 28 a4 3d ba 2c ba 3d
       0.046438217 0.068685465 0.080155276 0.09090562
0002e0 a1 67 a8 3d b5 77 8e bd 28 b7 23 3d bc 41 bb bc
       0.08222891 -0.06956426 0.039969593 -0.022858493
0002f0 8e fa 8f 3d 12 f8 cb bd ba 32 04 be 77 e3 93 bc
       0.070302114 -0.09959425 -0.12909976 -0.0180528
000300 d5 eb 8e bd 8c 93 87 3d f5 1a 1e 3e 7c bc 38 bd
       -0.06978575 0.06619939 0.15439971 -0.045101628
000310 96 61 bc 3d 9d eb 06 3e dc 7d 76 3e aa 40 56 3e
       0.091983005 0.13175817 0.24071449 0.20923105
000320 cc 90 a7 3d f6 0f 95 3d e1 ff 03 3e f4 c6 cf bc
       0.08181915 0.07278435 0.12890579 -0.025363423
000330 68 e3 d4 bc 36 be 4b 3e 53 99 80 bd ae df 0e 3e
       -0.025987342 0.19896778 -0.06279244 0.13952515
000340 38 9f 86 bd f4 08 19 3d e6 65 a6 3d 3a cf cd bd
       -0.06573337 0.037362054 0.08124904 -0.10049291
000350 6e 10 c2 3d 60 70 0c bd ad 1b fd bd 45 6f 95 bd
       0.0947579 -0.034286857 -0.12358794 -0.072966136
000360 e0 2d 98 bd 12 5f 1b 3d 28 ec a7 3b ba a6 95 3d
       -0.07430625 0.037932463 0.0051245876 0.07307191
000370 78 44 48 3c f0 ba 17 3d a1 18 d9 3d ac 70 ec bd
       0.0122233555 0.037043512 0.10600401 -0.11544928
000380 2e f3 51 bc 12 b9 95 bd 94 f9 49 3e 9a 1e 95 bc
       -0.012814326 -0.0731069 0.19724113 -0.018203069
000390 8b 1a 23 bc 81 2b b0 3d 97 61 a9 3d 95 d6 16 3e
       -0.009955059 0.08602048 0.08270567 0.14730294
0003a0 ff de 45 3e c6 0f 17 3d 01 d3 20 bd dd dc 32 bd
       0.19323348 0.036880277 -0.03926373 -0.043667663
0003b0 a8 4f 19 3e 03 2b 4c 3e e2 43 5c bd 9e 89 a3 3d
       0.14971793 0.19938283 -0.053775676 0.07985233
0003c0 15 2d f9 3d 89 ce ae 3d b5 1f 97 3d ce ad 19 3e
       0.12166802 0.08535487 0.073790945 0.15007707
0003d0 05 ba 11 3e 7b 5c be 3d f5 89 19 3e 89 3b 1f bc
       0.14231117 0.09294983 0.14994033 -0.009718784
0003e0 81 11 86 3c 87 95 a8 3d 59 77 e3 bd 0a e6 4c bd
       0.016365768 0.08231645 -0.11106748 -0.05002407
0003f0 3a d9 0f bc 4a 2e 06 bd 5c 8c 52 3d 38 5f e9 bd
       -0.008779818 -0.03275899 0.05140339 -0.11395115

conv2.bias f4 [20]
000000 05 e1 30 3d a8 78 62 3d 19 7b 79 bd f9 54 7d bc
       0.043183345 0.055290848 -0.06090841 -0.015462154
000010 41 2f 8a 3d 59 b3 80 3d 2e bd 96 bd fc 01 e4 bd
       0.06747294 0.06284208 -0.07360302 -0.11133191
000020 22 09 e5 3d c8 52 ea 3d b7 7b 80 3d 20 7e 9c bb
       0.111833826 0.114415705 0.06273597 -0.0047757775
000030 84 72 b7 bd ca 5d 95 bd 1b 8b 71 3c 83 d9 95 3d
       -0.08957389 -0.072932795 0.014742638 0.07316878
000040 ce e3 56 bb 2b f5 89 bc b2 03 02 bd d2 ce 17 3d
       -0.003278959 -0.016840538 -0.031741805 0.037062474

conv3.weight f4 [10, 20, 3, 3]
000000 a3 cb 20 be 29 67 e7 bd 0f df 2d be 62 fa 2c bd
       -0.15702681 -0.11298973 -0.16979621 -0.04223097
000010 59 54 a6 3d d2 03 1c bd 7f b8 f0 bd c5 02 bb bd
       0.08121557 -0.03808958 -0.1175394 -0.091313876
000020 0b b2 ac bd 1d 3c 94 bd ee 19 80 bd ba 90 4f bd
       -0.084323965 -0.07238028 -0.06254946 -0.05067513
000030 e0 f6 dc bd c5 81 4e be 34 f1 63 be 1d 0a b4 bd
       -0.10789275 -0.2016669 -0.2225998 -0.087909915
000040 40 9e 3c be ea 99 15 be 4b 01 10 be 8c af c7 bd
       -0.18419743 -0.14609495 -0.14062993 -0.0975028
000050 5e ee ef bd d1 13 15 be fe 1c 1c be f0 26 ab bd
       -0.11715387 -0.1455834 -0.15245435 -0.08357036
000060 aa b0 8d be 96 4e de bd 23 64 f6 bb 34 50 4a 3d
       -0.27673846 -0.10854833 -0.0075192614 0.049392894
000070 7e be 90 ba 23 e8 e3 3a a5 f0 41 bb 44 d4 b4 bd
       -0.0011043099 0.0017387908 -0.0029592898 -0.08829549
000080 e9 26 35 be b7 c2 2d 3d 7a 3e 49 bd 4e 57 7a be
       -0.17690624 0.042422023 -0.049131848 -0.24447367
000090 f4 2c 98 bd 85 b7 fc bc 71 bf 12 3c 6c af 8b bd
       -0.07430449 -0.030849228 0.008956776 -0.068205684
0000a0 04 ba 8a bd 7d 92 b3 bd 5e 9f 25 be a9 3d 13 be
       -0.06773761 -0.08768175 -0.16174075 -0.1437899
0000b0 31 8a b0 bc 11 f0 92 bc 00 81 f6 ba 21 d4 e3 3c
       -0.02155027 -0.017936738 -0.0018806756 0.027811112
0000c0 d4 85 82 3d 9a 0a 3e 3c 9f f7 ea bc b9 ac 5c 3c
       0.06373182 0.011599207 -0.028682528 0.013468915
0000d0 3e 07 58 bc 82 c4 4c 3b 4c a0 a3 bd 38 1a bb bb
       -0.01318532 0.0031245057 -0.079895586 -0.0057099126
0000e0 aa 6a 4f bc b8 13 aa bd 58 4e 98 3d 2d ad b5 3d
       -0.012659708 -0.08304542 0.07436818 0.08870921
0000f0 c1 40 ca bd a0 6c 77 3b 90 3e ec 3d 0b 28 fd 3c
       -0.09875632 0.0037753955 0.1153537 0.030902883
000100 a9 55 1b bd 20 05 63 bb 71 5f 11 3d c7 c4 f5 bd
       -0.03792349 -0.0034640506 0.03549141 -0.12000423
000110 64 d0 e8 bd f4 2f 09 bd 3e 1e 26 be 54 16 bf bd
       -0.11367872 -0.033492997 -0.16222474 -0.093304306
000120 68 f5 fa 3d de c3 aa bc 98 9c f7 3d 63 9e 31 be
       0.12253839 -0.02084535 0.12090415 -0.17345576
000130 94 5c 7d bd e4 23 4a 3d 9b 3e 07 be 66 2a ca 3c
       -0.061855868 0.049350634 -0.13207476 0.02467842
000140 53 1d 9a be 74 51 1b bd 56 04 b5 bd 49 b1 92 bd
       -0.30100498 -0.037919477 -0.08838718 -0.07162721
000150 44 a9 22 3b bb 45 12 bd d1 d2 94 3b 85 0e 65 bd
       0.0024820128 -0.03571103 0.004541733 -0.05592205
000160 48 26 57 3c c3 54 2d be a7 b2 72 bd a0 e5 9b bd
       0.013131686 -0.16926865 -0.059252407 -0.07612157
000170 3f 45 d3 bc eb 02 df bd 56 d4 02 bc 21 81 96 bc
       -0.025789855 -0.108892284 -0.007985195 -0.01837212
000180 e2 71 8e 3c b1 a8 ad bb 5c 98 84 3d 39 8f b6 bd
       0.017388288 -0.0052996506 0.06474373 -0.08914036
000190 a5 5e d9 bc 45 91 b7 3d b4 23 30 bb 80 b8 7e bd
       -0.026534388 0.08963255 -0.002687675 -0.06218767
0001a0 bb 19 d5 3c 4a 5a 6f 3d 93 4c 86 3d 2e ac 04 3d
       0.026013246 0.058435716 0.06557574 0.032390766
0001b0 6f 66 23 be 9a f8 20 be bd b5 c0 bd 9f 28 41 be
       -0.15957044 -0.15719834 -0.09409664 -0.18863152
0001c0 d7 9e 4c 3d 75 82 c6 bd a0 fc e0 bd 63 31 16 be
       0.04995617 -0.096928515 -0.109856844 -0.14667277
0001d0 ee 1e 7a bb ff 5d a1 bd c0 b9 b1 bb b4 d6 b1 bd
       -0.0038165408 -0.078792565 -0.0054237545 -0.086835295
0001e0 23 f6 81 bd 39 f8 b2 3c 34 8e 81 3c 43 3e 9e bd
       -0.06345775 0.021846877 0.015814878 -0.07726719
0001f0 2d e6 98 bc b8 b3 19 be e1 ed aa 3d 59 d8 12 3e
       -0.018664444 -0.15009964 0.08346153 0.14340343
000200 cb ea 96 3d ff bb a9 3d ba 24 fa 3d b1 69 03 bc
       0.07369002 0.082878105 0.12214036 -0.008020804
000210 bd dc 9c 3d 37 fa df 3d e3 63 2f 3e a0 20 c1 bd
       0.0765929 0.109363966 0.17127948 -0.09430051
000220 ea 03 69 3b 46 99 65 3d 8c 87 29 ba 0a d0 6d 3d
       0.0035555311 0.056054376 -0.00064670364 0.05805973
000230 41 ba aa 3d 8b e4 ca 3d 3f 5a de 3d dd d6 1b 3e
       0.08336306 0.09906872 0.10857057 0.15218683
000240 8f 62 8a bc b4 2f 52 bd b6 95 31 3b 2e ef c6 bd
       -0.0168927 -0.051315024 0.0027097291 -0.09713589
000250 38 b5 07 bd 23 22 bf 3d aa 7f 70 bd 3f 03 d4 bc
       -0.033131808 0.09332683 -0.0587155 -0.025880454
000260 78 95 95 3d b1 c4 0c bc 8a 24 8d bd 08 a1 a3 3d
       0.073038995 -0.008591817 -0.06891735 0.07989699
000270 36 c3 78 bd 51 6a 18 3e 94 bd 8b bd b6 89 c4 bd
       -0.060733043 0.14884306 -0.068232685 -0.09596579
000280 99 79 95 3d 07 52 3a 3d f6 a1 ec 3d be 57 14 3e
       0.072985835 0.045488384 0.11554329 0.14486596
000290 04 c2 79 3d be 3e 9d bd 86 92 f2 3d df 44 32 be
       0.060976043 -0.07677983 0.118443534 -0.17409085
0002a0 ba d6 1a bd 35 5b 9a 3b 1a 62 a0 3d d5 79 0e 3b
       -0.037802435 0.0047105798 0.078312114 0.0021740098
0002b0 39 3d f7 bc c9 78 04 3d 9a c5 a5 3d fd 67 94 3d
       -0.03018056 0.032341752 0.0809433 0.07246397
0002c0 fe 3e 9d 3d d3 78 23 3e 55 0b 20 be 4f 87 1b be
       0.076780304 0.1596406 -0.15629323 -0.15188335
0002d0 b7 10 1a be 4a ad 9b bd c6 7c b7 bd d7 1f 00 be
       -0.15045439 -0.07601412 -0.089593455 -0.12512146
0002e0 02 c3 c1 3b 9a 72 e9 3c 3b a0 3b be 30 7e 34 be
       0.0059131393 0.02849703 -0.18322842 -0.17626262
0002f0 03 b7 36 be 4b f7 dc 3d 6b 07 a9 3d e0 a2 86 3d
       -0.17843251 0.10789355 0.08253368 0.06574035
000300 4a 03 df bb c4 16 53 be 65 fb db bd 69 36 18 3d
       -0.006805812 -0.20614153 -0.10741309 0.037161265
000310 a1 ac 4e be 5c 6d 29 bd 36 b1 1f 3d ae 9a 76 bc
       -0.2018304 -0.04136406 0.03898736 -0.015051527
000320 84 ae 86 bd c9 16 07 be 09 c6 a3 bc b6 71 2f 3d
       -0.06576255 -0.13192286 -0.019991891 0.042833053
000330 0e 11 07 be 58 ac 58 be b5 22 45 bd d4 f3 31 3c
       -0.131901 -0.21159494 -0.048128802 0.010861356
000340 0d 82 9d 3c b6 72 01 bd cc d7 00 bc c0 b1 64 bd
       0.019227052 -0.031603537 -0.00786395 -0.055833578
000350 e9 3f e3 3d b9 02 43 3c d2 36 a7 3d 0c 91 e7 39
       0.11096174 0.011902505 0.08164753 0.00044167822
000360 4b ff 42 be ce 23 a3 bd 20 da 58 be bd 0e 43 be
       -0.19042699 -0.079658136 -0.21176958 -0.19048591
000370 5b 43 8c bc df 3d 8b bd 0c 45 3c be a0 38 77 be
       -0.017121961 -0.0679891 -0.18385714 -0.24142694
000380 95 b2 73 be 42 a9 45 3d 21 aa 1f bd 5d bf bd 3c
       -0.23798592 0.04825712 -0.038980607 0.023162538
000390 9c e9 42 3d 53 b7 77 bd 4a 41 be 3c 90 83 1d 3d
       0.04758607 -0.060477566 0.023224492 0.038455546
0003a0 c4 7d a7 3c b4 10 19 bd bc cd a4 bd 03 a6 f7 bc
       0.020445712 -0.037369445 -0.08047053 -0.030230528
0003b0 94 d8 f0 bc e4 fa 38 bd 8b b9 14 3c 26 9c 2b 3d
       -0.029400147 -0.045161143 0.00907744 0.04189696
0003c0 d2 45 9d bc d0 cd de bd 32 1e e9 bb b9 aa 23 bd
       -0.019198332 -0.10879099 -0.0071141953 -0.039957736
0003d0 ce 31 d1 3d c0 f0 56 3d 16 55 3c 3d 0d 8c dc bd
       0.102145776 0.05247569 0.04597958 -0.107689
0003e0 7a 3f 24 3c 49 76 ab 3d ad d7 18 be 2f 33 dc 3d
       0.0100249 0.083721705 -0.14926024 0.1075195
0003f0 70 1d 1e bd 82 f6 26 be 8a c8 03 be 08 e3 5d bb
       -0.038602293 -0.16304973 -0.12869468 -0.0033857245

conv3.bias f4 [10]
000000 54 b1 5f 3d 5a 29 de 3d 14 d2 35 3d cd f2 8c bd
       0.054612473 0.10847731 0.0443898 -0.06882248
000010 e5 9b 63 bc 05 41 a8 bd f9 4c 45 bd 78 2d 3a bd
       -0.013892149 -0.082155265 -0.04816911 -0.04545352
000020 35 39 aa bd c7 15 a7 bc
       -0.083116926 -0.020396126

linear.weight f4 [4, 160]
000000 65 26 b8 bd a3 d4 57 3d a5 5a f5 bc 6c f7 ac bd
       -0.08991698 0.05269302 -0.02995045 -0.084456295
000010 19 b3 c8 bd 3a 07 88 3d fd 2c f4 bc c3 2e a7 bc
       -0.09799785 0.06642003 -0.029806608 -0.02040804
000020 4e 89 95 3c 45 51 11 3d f9 1f e2 bb 06 c1 75 bd
       0.018253949 0.035477895 -0.006900784 -0.059998535
000030 f7 14 27 3c dd 5d cd 3d 75 2e 79 3d 13 00 73 bc
       0.0101978695 0.100276686 0.06083532 -0.014831561
000040 f3 df da bc 44 39 17 bd 01 41 c2 3c be ce a8 3d
       -0.026718115 -0.036919847 0.023712637 0.08242558
000050 5d 32 77 3b 72 05 0d bd ba cd 22 bd 33 5d f9 3d
       0.0037719228 -0.03442902 -0.039746977 0.121759795
000060 80 31 eb bb fe 51 be 3d d3 cf 82 bd 63 78 0e 3c
       -0.0071775317 0.092929825 -0.063872956 0.008695695
000070 57 e1 3e bd e2 59 d2 bb 1f 48 af bd 39 82 b8 bd
       -0.04660162 -0.0064194063 -0.08558678 -0.09009213
000080 ee 7a 08 3d 3a bc 15 bc 01 e8 70 3c c8 52 33 bd
       0.03332036 -0.009139115 0.014703752 -0.04378012
000090 c3 4d 99 bb c7 df 2f 3c 05 71 5d 3d 35 f6 8b 3c
       -0.0046784594 0.010734505 0.054062862 0.017085174
0000a0 b3 9f a3 bd d1 d2 b3 bc 38 61 24 3d ec 29 1e bc
       -0.079894446 -0.021951111 0.040131778 -0.00965355
0000b0 9d 11 8d bd 7e 15 c2 bc ec 1a 93 bc aa be 4b 3d
       -0.06888125 -0.023691889 -0.017957173 0.04974238
0000c0 d3 1b 80 bc f9 73 04 bd b9 bb b8 bd 44 d2 b0 b9
       -0.015638268 -0.032337163 -0.0902018 -0.00033725996
0000d0 01 b0 5a 3d f2 cd cc bd 39 85 4c bd e5 aa 24 3d
       0.053390507 -0.100002185 -0.04993174 0.04020204
0000e0 c9 6e 25 3d 5f 48 8a 3c 7f a5 dd ba 26 43 35 bd
       0.040388856 0.016880212 -0.0016910284 -0.04425349
0000f0 59 93 ec 3c 01 cd 31 bd 1e d2 b0 bc ed 86 8b bc
       0.028878855 -0.043408398 -0.021584567 -0.017032111
000100 24 dd a4 3d ba 0a 53 bd e7 a4 ce 3c 1c be 04 3d
       0.08049992 -0.0515239 0.025225116 0.032407865
000110 f0 3f 73 bd 96 23 ee 3b 97 d1 36 bd fb 5f 01 3d
       -0.059387147 0.007267426 -0.044633474 0.031585675
000120 e5 e4 77 bd 15 65 bc 3d bf a6 81 bd b1 b0 da bc
       -0.060521025 0.09198967 -0.063306324 -0.026695581
000130 69 6b c5 3d a8 cc 7b 3d 0c 5c 75 bc ee ee ae 3d
       0.096396275 0.061474472 -0.014975559 0.08541666
000140 4d cc 3b bc d0 b6 01 3d ab 29 82 3c 11 59 d1 3c
       -0.011462283 0.031668484 0.01588901 0.025555165
000150 61 2e a8 3d 37 8f ab bb be 73 9d 3d 06 3c ba 3d
       0.08211971 -0.0052355784 0.07688092 0.0909348
000160 00 e3 0a bc da 37 15 bd 31 6c 92 bd 95 3c 4a 3d
       -0.008476973 -0.036430217 -0.07149542 0.04937418
000170 b8 01 8b 3c 8f 8c 55 3d 9e e2 24 3d c4 58 2f 3d
       0.016968593 0.052136 0.04025518 0.042809263
000180 d9 bb 22 3c ae 16 02 3d fc 54 24 bd c9 16 14 bd
       0.009932482 0.03175991 -0.04012011 -0.036154542
000190 21 33 82 3b 21 c8 2e bc 66 85 09 bd f0 91 86 bd
       0.00397338 -0.010667832 -0.033574484 -0.06570804
0001a0 03 94 33 3d 1f 37 0f bd 65 b9 a0 3c 65 cc a5 3a
       0.043842327 -0.034964677 0.019619653 0.0012649415
0001b0 c7 8c 8c bd 8b b9 3e 3d b0 de da bd 41 e4 74 3d
       -0.06862789 0.046563666 -0.106870055 0.059787992
0001c0 16 80 ce bc d1 55 1a 3b f3 ac a5 3d f9 20 8d 3d
       -0.02520756 0.0023549686 0.08089628 0.06891055
0001d0 19 12 b2 bd ca a6 28 bd 6b d1 bb 3d be 76 5f bb
       -0.08694858 -0.041174687 0.09170803 -0.0034097875
0001e0 03 0f ea bd 75 ae 95 39 8a dc 96 bd c2 ff a0 3d
       -0.114286445 0.00028549475 -0.07366283 0.07861282
0001f0 5f 6d bb bd 3c 1a 8e bd 9e a1 e6 bc 9d 33 a3 3b
       -0.0915172 -0.069385976 -0.028153237 0.004980518
000200 d8 2f 36 bd 3d 40 82 bd e2 2e 2c bd e2 1d 3d bd
       -0.04447922 -0.06359909 -0.0420369 -0.046171077
000210 74 9b 93 bc 3d 86 32 bc ce 9e 33 3d ae 1f 8f 3c
       -0.018018462 -0.010896263 0.04385262 0.01747116
000220 79 d7 48 3c f7 b0 e5 bc 2a 4d 28 3d 8e 36 86 3d
       0.012258404 -0.028038485 0.041089214 0.06553374
000230 64 b6 42 3d dc 68 46 3d fe b2 64 3d 6e e8 e4 bb
       0.047537223 0.048439845 0.055834763 -0.0069857156
000240 a0 cd a8 bb ac 5b b5 bc 68 93 4a bd 1b 90 36 bb
       -0.0051514655 -0.02213844 -0.049456984 -0.002785689
000250 df c9 4d bd 87 3c 80 3c 03 e3 a3 3b f6 72 ca bd
       -0.050241347 0.015653862 0.005001427 -0.09885208
000260 3e f5 a3 3d 35 73 96 bc b9 76 f0 3b 48 5f e2 3c
       0.080057606 -0.018365482 0.0073383716 0.027633324
000270 bb 6d d3 3d 5a e4 09 bd 91 34 5a 3d 49 93 b8 bc
       0.10323664 -0.03366504 0.053272787 -0.022531169
000280 78 43 22 bc 57 70 a5 bd ee 22 2f 3d 33 37 24 3d
       -0.009903781 -0.08078068 0.04275792 0.040091705
000290 0c 06 cd bd 75 63 7e 3c f5 0a b7 3d 40 fa 05 3d
       -0.10010919 0.015526642 0.08937637 0.03270936
0002a0 1c 18 8d 3d 46 81 08 3d bc 55 a8 3c 6f 28 78 bd
       0.06889364 0.03332641 0.020548694 -0.060585435
0002b0 56 74 db 3c 4d 5d 04 3d ae a0 9d 3b cb 34 46 bd
       0.026788872 0.03231554 0.0048104143 -0.04839019
0002c0 d7 39 ac ba 39 9c dc bd 67 ac 15 3e 7c 16 a7 3d
       -0.0013139796 -0.107719846 0.14616548 0.081585854
0002d0 91 59 71 3d 96 5f 80 3d ba 86 86 3d 5f 0d 53 bc
       0.058923308 0.062682316 0.06568666 -0.012881606
0002e0 ca 3a 0f bd 47 6b be 3b 78 1f f7 bc 48 50 79 3d
       -0.034968175 0.0058111283 -0.030166373 0.060867578
0002f0 63 a5 c2 bc 57 5d 7d bd 82 da 87 3d 24 69 a6 bc
       -0.023760503 -0.061856594 0.06633474 -0.020313807
000300 b5 f9 a9 3d 00 db 38 bd 09 80 be 3d aa 16 a3 bb
       0.08299581 -0.04513073 0.093017645 -0.004977067
000310 5e 07 98 3c db bf af 3d 17 8a b3 bb 96 0a 96 3d
       0.0185582 0.085815154 -0.005479108 0.07326238
000320 ed b3 db 3d 14 52 2b 3c c9 c2 ba 3d 91 c3 c1 3c
       0.107276775 0.010456581 0.091191836 0.023652824
000330 f6 df 0d 3d 39 25 bd 3d 59 97 4b bc ce 4f 87 3d
       0.034637414 0.09235615 -0.012426221 0.066070184
000340 60 d8 5a 3c 94 c1 07 be 5b 98 36 3d 66 7c 98 3d
       0.013357252 -0.13257438 0.04457889 0.07445602
000350 cc 17 71 3b e4 e2 f7 bb 00 17 a2 3d 30 67 5b 3c
       0.0036787866 -0.0075648893 0.07914543 0.013391301
000360 89 2e f7 3d 42 90 45 3d e5 3e 54 3d de f0 69 bd
       0.12069423 0.048233278 0.051817793 -0.057114474
000370 fe ee b7 3d f9 31 9f bd b4 be d3 3c d4 f2 cb bc
       0.08981131 -0.077732034 0.02584777 -0.024896063
000380 bf 2f 4b 3d a6 7b b1 bc 5c 3f 48 3d e9 82 a3 bb
       0.04960608 -0.021665405 0.04888855 -0.004989971
000390 c5 66 1d bd 12 22 4d 3d 2c 05 f9 3d e0 25 61 bd
       -0.038428087 0.05008132 0.121591896 -0.05496776
0003a0 82 12 02 bd 7f 41 89 3d e1 4b 25 3d 1f a0 de bc
       -0.03175593 0.067019455 0.040355567 -0.027175961
0003b0 f7 3e da 3c 49 28 fb 3d 9b ae a0 3d 00 b0 8f 3d
       0.026641352 0.12263543 0.07845803 0.07015991
0003c0 11 fe e3 bc 03 fe 20 3d ca da 0f 3d 69 f1 17 3d
       -0.02783111 0.039304744 0.035120763 0.03709546
0003d0 62 8c 09 bc fe 6d 35 bc 2c c7 4d 3d cc 61 e9 3c
       -0.008395286 -0.011073587 0.050238773 0.028489016
0003e0 a0 43 94 3d 6e 56 d6 bd e2 8b dc 3b f1 6a 5f bd
       0.07239461 -0.10465704 0.0067305425 -0.054545347
0003f0 7c 3e 87 3b ff 1e 9d 3d 6e 41 67 3b 85 29 8f 3d
       0.0041273218 0.07671928 0.0035286802 0.06990341

linear.bias f4 [4]
000000 fa 10 54 bc 08 d1 2b 3c 64 74 8b bd 16 69 a3 3d
       -0.012943501 0.010486849 -0.06809309 0.07979028
