2048AI_model_2_lr_0.01_ver_3.pt (torch_old, 36117 bytes, 8 tensors)

conv1.weight f4 [10, 3, 10, 10]
000000 14 67 cf 3f a0 36 18 40 1f 0f 25 40 54 dc 0c 40
       1.6203332 2.378334 2.579048 2.2009478
000010 59 39 e8 3f 13 91 d5 3f 5e 4f ad 3f 87 62 ac 3f
       1.8142501 1.6684898 1.3539846 1.3467568
000020 45 6f 2b 3f 5e 4b 53 3e 50 a1 29 bf 22 9e 21 bd
       0.6696666 0.20634219 -0.6626177 -0.039457448
000030 f6 be 87 3e e0 34 c8 bd c5 49 d0 be c4 45 ef be
       0.2651288 -0.0977571 -0.40681282 -0.46732914
000040 9f 0d 37 bf 0c 03 63 bf 14 5a a5 bf ef 11 c5 bf
       -0.7150516 -0.88676524 -1.2918115 -1.5396098
000050 85 57 7d 3d c7 24 3e 3f 94 c0 8a 3f cd d0 33 3f
       0.061851043 0.7427487 1.084002 0.7024048
000060 32 b1 cd 3e 21 64 89 3e 40 64 49 b9 88 5f 8d 3d
       0.40174252 0.26834205 -0.000192062 0.06902987
000070 7c 90 02 bf 1c 19 40 bf 5e 1b 83 be 35 c9 9d 3e
       -0.51001716 -0.75038314 -0.25606817 0.3081757
000080 67 91 27 3f 59 a7 c4 3e 2a 33 14 3e 48 09 7a 3d
       0.6545624 0.38408926 0.14472643 0.061044008
000090 69 f9 71 be e4 98 91 be 2a e2 3e bf 68 06 83 bf
       -0.23630299 -0.2843696 -0.7456385 -1.023633
0000a0 57 45 ac be 57 b2 5d 3e 2f de 0b 3f bd 0f 8a 3e
       -0.33646652 0.21650063 0.546359 0.26965132
0000b0 8f 9d 1d 3b e0 23 9f bd 32 5d af be 52 2a ae be
       0.002405021 -0.077705145 -0.3425079 -0.34016663
0000c0 4f 5c 53 bf 07 90 98 bf b1 00 bf 3e 78 87 92 3f
       -0.82562727 -1.1918954 0.37305215 1.1447592
0000d0 d8 d7 ae 3f 5a 09 7e 3f d9 80 57 3f 55 26 4c 3f
       1.365962 0.9923302 0.8418098 0.7974599
0000e0 79 93 02 3f cd d1 f8 3e 15 d8 15 bd cd 76 07 bf
       0.51006275 0.48597565 -0.036583025 -0.5291565
0000f0 b1 ee 32 3f f3 31 9f 3f fd 73 b9 3f 78 60 7f 3f
       0.69895464 1.2437118 1.4488522 0.99756575
000100 0d 96 4a 3f 1c f2 63 3f ea d4 28 3f c7 2f f3 3e
       0.7913521 0.89041305 0.6594988 0.4749739
000110 29 98 03 3d 5d 77 9d be 05 2e 9a 3f 5a 00 d1 3f
       0.032127533 -0.3075513 1.2045294 1.6328232
000120 e2 e6 e7 3f 80 de b4 3f 02 5e 9d 3f 25 15 9a 3f
       1.8117335 1.4130402 1.2294314 1.2037703
000130 2e 99 63 3f 97 a9 58 3f 7b 76 bc 3e be f0 83 3d
       0.8890561 0.84633774 0.36809143 0.06442402
000140 6b e6 98 3f 83 c7 d0 3f ee 2c ee 3f 94 44 bf 3f
       1.1945318 1.6310886 1.8607461 1.4942803
000150 f7 c2 a5 3f 2e 54 97 3f c5 f5 56 3f b0 e0 4f 3f
       1.2950124 1.1822565 0.83968765 0.8120222
000160 ad c1 cd 3e 10 f6 15 3d 3f 36 89 3f 15 d4 be 3f
       0.40186825 0.036611617 1.071968 1.4908472
000170 8b 10 e1 3f ff 00 bf 3f 80 73 a0 3f 26 5f 91 3f
       1.7583174 1.4922179 1.2535248 1.1357162
000180 f1 d4 4e 3f b6 a8 40 3f 43 63 8c 3e 76 25 e1 bd
       0.8079367 0.7525743 0.2741948 -0.10993473
000190 57 77 52 3f 44 7a ce 3f fd 94 e8 3f 52 09 d2 3f
       0.8221335 1.6131063 1.8170468 1.6409094
0001a0 ec 7a a7 3f 5d 16 8f 3f d5 4c 66 3f a3 81 54 3f
       1.3084388 1.11787 0.89960986 0.8301031
0001b0 1c dd 4b 3e 3a 2d e0 be 9f c8 a8 bf 00 03 21 bf
       0.19908565 -0.43784505 -1.3186225 -0.628952
0001c0 74 0b dc be 70 04 2a bf 2a c2 84 bf ec b2 8b bf
       -0.42977488 -0.6641302 -1.0371754 -1.0913978
0001d0 db cb a1 bf c9 15 ad bf 5e 06 dc bf cd a9 00 c0
       -1.2640337 -1.3522273 -1.7189443 -2.0103638
0001e0 ff a1 36 bf 1e d2 21 bb 4f f5 93 3e ea 2d 06 3e
       -0.71340936 -0.002469189 0.28898093 0.13103452
0001f0 9c 31 4d be 2e c1 99 be 85 45 02 bf e3 37 0c bf
       -0.20038456 -0.30030197 -0.5088733 -0.54772776
000200 f5 46 6e bf a8 b0 ae bf 1e 7e 8b bf dc e4 06 bf
       -0.9307702 -1.3647661 -1.0897863 -0.5269296
000210 54 ae 38 be b7 2d 5e be ec e9 04 bf 91 1c 1d bf
       -0.18035251 -0.21697126 -0.51919436 -0.61371714
000220 41 2b 58 bf 63 cc 6d bf 38 0d af bf c8 04 d0 bf
       -0.84441 -0.92889994 -1.3675909 -1.6251459
000230 4b 9a 94 bf a8 83 23 bf 7c d6 a5 be 10 69 ca be
       -1.1609586 -0.63872766 -0.323902 -0.3953328
000240 9e 40 2f bf b9 24 24 bf c0 ca 64 bf 7b de 6b bf
       -0.68457973 -0.64118534 -0.8937187 -0.92136353
000250 64 cf a6 bf 86 37 d4 bf 8d e0 19 bf bb 07 31 3e
       -1.303204 -1.6579444 -0.6010826 0.17288105
000260 bb d7 c8 3e e2 89 28 3e 26 18 30 bd ce 40 5a 3d
       0.3922709 0.16458848 -0.04299178 0.05328446
000270 c3 70 3a be 7d b1 61 be 15 51 47 bf 64 46 99 bf
       -0.18207078 -0.22040363 -0.77858096 -1.1974607
000280 86 05 9a be 48 9f 8b 3e 80 0a e0 3e 15 17 7c 3e
       -0.3008234 0.2726996 0.4375801 0.2461818
000290 7f a0 b7 3c f5 1e bc 3d 4c 8d e6 bd 07 26 61 be
       0.022415398 0.09185592 -0.11257419 -0.21987163
0002a0 1c 89 32 bf b1 d9 7e bf 09 d9 16 3e c4 c6 28 3f
       -0.6974046 -0.9955092 0.1473123 0.6592829
0002b0 ab cb 35 3f f0 67 ec 3e 52 97 a4 3e 95 55 b4 3e
       0.710139 0.46173048 0.32146698 0.35221544
0002c0 67 f3 d8 3d 48 2b fa 3d 9d 33 b2 be e4 68 2c bf
       0.105933 0.122152865 -0.34805003 -0.6734755
0002d0 35 78 01 3e 4e 29 2c 3f 25 3d 44 3f d1 90 20 3f
       0.12643512 0.67250526 0.766558 0.6272097
0002e0 ab b5 cd 3e f2 36 8e 3e e1 12 d4 3d b4 b3 04 3c
       0.40177664 0.27776295 0.10355163 0.008099485
0002f0 1b 08 aa be 20 88 27 bf 41 fe 16 3d ab 70 0f 3f
       -0.3320931 -0.65442085 0.03686357 0.5603129
000300 68 58 31 3f 2b cb 08 3f 28 09 a5 3e 88 8e 9a 3e
       0.6927552 0.5343501 0.32233548 0.30186868
000310 e1 f4 88 3d 1d 5d aa 3c af 5d e7 be 0b 58 3a bf
       0.06687332 0.020796353 -0.45188662 -0.7279059
000320 bc b9 ed 3e 6b 30 93 3f af af af 3f ed 80 ac 3f
       0.46430767 1.1499151 1.3725489 1.3476845
000330 0f 4e 70 3f 01 e2 5e 3f cc 53 22 3f 4d 1b 12 3f
       0.9386911 0.87063605 0.63409114 0.5707291
000340 b8 6d 67 3d b4 a6 11 bf da 46 ca bf dc d6 66 bf
       0.05650112 -0.56894994 -1.5802872 -0.901716
000350 51 12 3b bf 0e 39 5a bf b2 48 91 bf 43 05 a9 bf
       -0.73074824 -0.8524331 -1.135031 -1.3204731
000360 d1 a3 b7 bf 2d 8e c4 bf 2d c9 e7 bf 79 67 0b c0
       -1.4346868 -1.5355889 -1.8108269 -2.1781905
000370 79 da 82 bf 2f ee b3 be a8 11 72 bd f4 83 d6 bd
       -1.0222923 -0.35142657 -0.05909887 -0.10474387
000380 91 17 eb be cd f8 ef be d2 ad 27 bf 70 fe 34 bf
       -0.45916417 -0.46869507 -0.65499604 -0.7070074
000390 a9 de 90 bf 56 bd b7 bf b0 01 a0 bf 52 72 3c bf
       -1.131795 -1.4354656 -1.2500515 -0.7361194
0003a0 14 04 cb be 87 15 be be e6 bb 13 bf 9b 02 3b bf
       -0.3965155 -0.371258 -0.57708585 -0.7305085
0003b0 b3 c7 6b bf cb ed 6c bf 37 47 a8 bf 5b 5d cf bf
       -0.9210159 -0.92550343 -1.3146733 -1.6200365
0003c0 aa 4e a6 bf da 10 57 bf 1d 9c 1a bf f8 2c 22 bf
       -1.2992756 -0.8401009 -0.6039446 -0.63349867
0003d0 f4 41 51 bf 1a c2 3d bf 86 08 62 bf 07 22 7b bf
       -0.8174126 -0.741243 -0.88294256 -0.98098797
0003e0 86 cd b2 bf 07 3e dd bf 41 75 52 bf ae 55 5e be
       -1.3968971 -1.7284554 -0.82210165 -0.21712372
0003f0 b8 96 8e bd 3c af bd bd fa 8f 8a be 9a 14 72 be
       -0.06962341 -0.09261939 -0.2706297 -0.23640671

conv1.bias f4 [10]
000000 b7 44 27 3f 16 6c ff 3f 8f 55 e8 3e 20 e7 c4 3e
       0.65339226 1.995486 0.45377776 0.38457584
000010 23 49 cc bf c2 66 15 be 99 0f e2 3e 14 bd 2f 3e
       -1.595982 -0.1458998 0.44152525 0.17161971
000020 78 9a 38 3f 80 24 3b 3f
       0.721107 0.7310257

conv2.weight f4 [20, 10, 4, 4]
000000 61 99 51 3f 43 de 42 3f f8 b7 8a be de bd bd be
       0.8187466 0.76120394 -0.27093482 -0.3705892
000010 64 7c 37 3e bf 2b 2d 3f 97 3d fa be ff 05 4e 3e
       0.17918545 0.67644876 -0.48875114 0.20119475
000020 99 24 49 3f 2f 8e 6a 3f 0f 96 c6 bd 18 f3 a7 be
       0.7857147 0.91623205 -0.0969659 -0.32802653
000030 e6 5d c3 3f 57 ba e7 3f 0c 42 86 bf ca 51 2c bf
       1.526303 1.8103741 -1.0488906 -0.673123
000040 50 82 7a 3e 97 5d f7 be 6f 3c 2b be 3e b5 32 bf
       0.24463773 -0.4831359 -0.16722272 -0.69807804
000050 d6 c1 cb be 27 69 69 bf 1f 2d 69 bf 0d c7 52 bf
       -0.39796323 -0.91176075 -0.91084474 -0.8233498
000060 cd a2 d7 be 21 ea 55 3f 0b fb 9e be 16 66 a8 3e
       -0.42116395 0.8356038 -0.31050906 0.32890385
000070 2d a9 ec 3e ed fe 3b 40 27 19 a7 3f 57 c8 1c 3f
       0.4622282 2.9374344 1.3054551 0.61243194
000080 05 71 8b 3f dc 38 9b bf 81 19 b4 be 39 65 07 bf
       1.0893866 -1.2126727 -0.35175708 -0.5288883
000090 2b bb f0 be d9 3b 8d bf 3e c9 8f bf 6a 52 9d bf
       -0.47017798 -1.1033889 -1.1233289 -1.2290776
0000a0 b7 b5 22 bf 43 cb 00 3f 52 b7 9a be f2 a6 79 bf
       -0.63558525 0.5031015 -0.30217987 -0.97520363
0000b0 67 19 a4 be 50 ee aa 3f f1 c1 c2 bc c6 b4 8e 3f
       -0.3205063 1.3353977 -0.02377412 1.1148918
0000c0 63 bc 50 3f b3 f2 6f bf 77 69 ff be de de d5 be
       0.81537455 -0.93729705 -0.4988515 -0.41771597
0000d0 25 d2 4b bf 65 74 25 bf e0 85 84 bf 00 58 06 bf
       -0.7961753 -0.6463073 -1.0353355 -0.5247803
0000e0 83 06 30 bf 93 39 0d bf f1 36 ad bd 28 70 e5 bf
       -0.68759936 -0.55165976 -0.08457745 -1.7924852
0000f0 44 56 8c 3f 45 59 8f 40 02 4a b0 bf 40 f5 86 3f
       1.0963826 4.479647 -1.3772585 1.0543594
000100 d4 2e a1 3f 8b 38 fc be 8b 64 ad 3e 11 8f 2b be
       1.2592416 -0.4926189 0.3386577 -0.16753794
000110 e4 55 cc be e3 f4 a9 be a4 aa 53 3e cb 67 00 be
       -0.3990928 -0.33194646 0.20670563 -0.12539594
000120 19 dd c4 bc 62 d5 d2 3e 14 fc 2d bf 3f 1b 9d bf
       -0.024031209 0.41178423 -0.67962766 -1.227394
000130 49 5c 71 3e e6 b7 19 40 46 67 4f bf 5b 54 9a 3f
       0.2357036 2.4018493 -0.8101696 1.2056993
000140 6f 76 a0 3f 5a 0d a0 bf f2 59 29 bf 10 53 99 bf
       1.2536143 -1.2504075 -0.6615287 -1.1978474
000150 1c f3 08 be 66 c3 12 bf c8 ca 36 bf 06 e3 ba be
       -0.13373989 -0.57329404 -0.7140317 -0.3650133
000160 67 28 60 3f 02 98 54 40 cd 1a 7e bf cb f8 fa bd
       0.8756165 3.3217778 -0.99259645 -0.12254485
000170 31 54 87 3f 3e a3 c6 3f 80 dc c3 3f cc d4 2f 3d
       1.0572568 1.5518568 1.5301666 0.04292755
000180 ac 94 20 3f 5f 6c 0d bf 7e 46 9a be f6 ba 4c bf
       0.62726855 -0.55243486 -0.30131906 -0.7997278
000190 fd 85 18 bf 8f a7 1e bf 8f cc 1f bf 59 f9 8f bf
       -0.5957945 -0.61974424 -0.62421507 -1.124797
0001a0 63 46 49 bf cb c0 ed 3e 30 ce d8 be ac 1d d3 bf
       -0.78623027 0.46436152 -0.4234481 -1.649343
0001b0 91 8f 7f bf b1 0b c9 3f 6f 85 81 bf 27 96 bf 3f
       -0.9982844 1.5706693 -1.0118846 1.4967698
0001c0 e6 aa 60 3f 42 27 6d be 8e 43 5d 3e f9 6a 95 be
       0.8776077 -0.23159507 0.21607801 -0.29183176
0001d0 7e db 8a be 03 0d a3 be 30 ad 04 3c b8 fb 7f be
       -0.27120584 -0.31845865 0.008097932 -0.24998367
0001e0 5a 2a b9 be c3 5b ab 3f da 68 a9 be c0 fc 83 bf
       -0.36165124 1.3387378 -0.33087808 -1.0311508
0001f0 8e a3 24 bc a5 eb a2 3f 82 29 65 be 97 7a 7d 3f
       -0.01004876 1.2728163 -0.22379115 0.9901518
000200 38 51 15 3f 6e 0f 9f be 3c b0 53 bf da af 8c be
       0.58327055 -0.3106646 -0.8269079 -0.27477914
000210 f4 9c 1d be 5c e7 8a be 84 33 9a bf 50 02 0c bf
       -0.15391904 -0.27129638 -1.2046971 -0.5469103
000220 95 4b 49 3e 06 45 4f 3f 4f d1 cf 3d 63 fa e7 bf
       0.19657739 0.80964696 0.10147344 -1.8123287
000230 38 d2 96 3f 77 c1 90 40 26 89 de bf 92 6c 61 3f
       1.1782904 4.5236163 -1.7385604 0.8805629
000240 58 05 f6 3f 66 0f e5 be aa 20 10 3f d8 18 9a be
       1.9220381 -0.4473831 0.5629984 -0.3009708
000250 f3 c0 02 bf 95 7e b7 be 60 7b 0e 3e a5 ab b8 bd
       -0.5107567 -0.35838762 0.13914251 -0.090171136
000260 ee 2a a0 3e d0 f0 00 40 a0 30 98 bf 0b 07 75 bf
       0.31282753 2.014698 -1.1889839 -0.9571387
000270 90 12 14 3f 8c 77 c2 3f 16 e7 a2 3d d0 0f 11 3f
       0.57840824 1.5192733 0.079542324 0.5666475
000280 f5 d6 9c 3f 3e 91 c5 3f 32 d2 c4 3e 95 cf 96 3f
       1.22531 1.5434949 0.38441616 1.1782099
000290 82 1e 88 3f 6b 77 2b 3f 6a 73 a1 bd 18 c3 99 3f
       1.063431 0.6697909 -0.078833416 1.2012663
0002a0 f8 0b b2 3e 68 01 88 3f e0 49 8d 3e 47 24 80 3f
       0.34774756 1.0625429 0.27595425 1.0011071
0002b0 f4 13 ee 3e b8 f2 be 3f f6 31 24 be 1a 67 a0 3f
       0.46499598 1.4917822 -0.16034684 1.2531464
0002c0 0e 2e 49 bf a1 e7 c0 bf 31 da 92 bf 0a 36 ed bf
       -0.785859 -1.5070688 -1.1472837 -1.8532116
0002d0 8c 7c 9c be 5f 2c c4 bf b1 e2 b1 bf aa 11 98 bf
       -0.30563772 -1.5326041 -1.3897306 -1.1880391
0002e0 5b 90 50 3e 20 b7 52 be 37 70 98 bf 98 8c 1d bf
       0.20367567 -0.20577669 -1.1909245 -0.61542654
0002f0 26 f5 3c 3f 89 ea 27 3f eb e4 cd be 8c 8c bd bd
       0.73811567 0.6559225 -0.40213713 -0.09255323
000300 eb cb b7 3d ff ff 5f bf 95 c3 af 3e 2d 44 9a bf
       0.08974441 -0.87499994 0.34328905 -1.2052056
000310 9d c2 82 bf 44 e5 b5 bf 41 b8 20 c0 16 c4 11 c0
       -1.0215641 -1.4210591 -2.511246 -2.2775931
000320 0a 3b aa 3f d2 5d 30 bf 5f e0 3a bf 66 a6 72 bf
       1.3299267 -0.6889316 -0.72998613 -0.94785154
000330 0a ed 93 3f 25 cf cb bd c1 d6 3c bf a3 51 3d 3d
       1.1556714 -0.09951619 -0.7376519 0.046220433
000340 81 00 97 3f 01 c4 c0 bd 4c b1 60 3f d1 e3 8a bf
       1.1797029 -0.09412385 0.87770534 -1.0850774
000350 d6 9f 86 bf 60 4f f0 bf 50 be 2c c0 fe 02 c6 bf
       -1.0517528 -1.8774223 -2.6991158 -1.5469663
000360 7a ec fa be d7 3c 4f bf 3f de d1 bf d4 41 e4 bf
       -0.49008542 -0.8095221 -1.6395949 -1.7832589
000370 e4 3f e2 3f 38 c6 e7 3f 65 cb 9f bf a9 90 03 3f
       1.7675748 1.8107367 -1.2483946 0.5139261
000380 97 7a ec 3e b5 70 bf be cf 2e 78 3e c6 4f a9 bf
       0.4618728 -0.37390676 0.24236606 -1.322747
000390 22 6c b6 bf 69 7c 59 bf 51 5f f2 bf 9e b3 ba bf
       -1.425175 -0.8495546 -1.8935338 -1.4586065
0003a0 be c1 84 3e 3d 77 8b be 16 cd a3 bf 24 02 ba bf
       0.25929064 -0.2723941 -1.2796962 -1.4531903
0003b0 71 de 57 3f 8e 82 b2 3e b8 68 bf bf 7b eb d3 3d
       0.84323794 0.3486523 -1.4953833 0.10347649
0003c0 0b c4 d5 3e d9 ee 64 bf 86 3d 79 bf 99 25 2b be
       0.4175113 -0.8942695 -0.973595 -0.16713561
0003d0 62 0e 11 bf f6 0c 02 c0 e1 2a f6 bf 82 bd 9b 3e
       -0.5666257 -2.032041 -1.9231836 0.3041802
0003e0 a1 8d f1 3f 1f ad 35 3f 5e b7 99 bf 41 32 0e 3f
       1.8871347 0.70967287 -1.2009084 0.5554543
0003f0 cf 9b 88 3f e9 30 ea 3e a9 b0 0f 3f ba f3 50 3f
       1.0672549 0.4574044 0.56128937 0.816219

conv2.bias f4 [20]
000000 63 eb 3d 3e e8 6d 74 3c 35 cd 36 3f 4d 35 2b 3f
       0.18546824 0.014918782 0.7140687 0.66878206
000010 f9 9a df 3e 70 6b 9f 3e 46 9d 3a 3d 47 80 2c be
       0.43672922 0.31136656 0.045560144 -0.16845809
000020 5c b4 e2 bf 8e f2 1a 3f e9 ac 50 be 14 cd 1c bf
       -1.7711291 0.6052636 -0.2037846 -0.61250424
000030 32 8b 5c bf b5 9d 4c be 5b 87 3c bf b2 a4 36 3e
       -0.86149895 -0.19982035 -0.73644036 0.17836264
000040 f3 4a cd 3e fb 25 db 3d 29 da 97 be 9c 2b 15 bf
       0.40096244 0.107006036 -0.2965863 -0.5826967

conv3.weight f4 [10, 20, 3, 3]
000000 bf 12 15 bf 88 4d df 3b 50 5c 12 be 05 59 af bf
       -0.5823173 0.0068146624 -0.14293027 -1.3699042
000010 79 18 a4 3d 5a 1e b4 bf bc 65 bb bf 23 fc 9d bf
       0.0801248 -1.4071763 -1.4640422 -1.2342571
000020 63 99 38 bf 86 bd 42 bf d4 10 94 bf 6b 01 a7 bf
       -0.7210905 -0.7607044 -1.1567636 -1.3047308
000030 ab ef 9b 3f 87 41 ee 3e 22 06 6d be 5c 4b 9b 3f
       1.2182516 0.46534368 -0.2314687 1.2132373
000040 8e c5 b0 3e 4d ea e3 3e 71 4c 85 3f 5e a3 22 3e
       0.34525722 0.44514695 1.0413953 0.15882632
000050 ae 2b b4 3e 66 9e 04 3f a4 e4 cb 3d 21 be c1 be
       0.35189575 0.51804197 0.09955719 -0.3784037
000060 49 c3 0d 3f 22 a0 39 bf 17 f4 82 bf 54 2e 61 bf
       0.55376107 -0.7250997 -1.023074 -0.87961316
000070 00 ed a1 bf 25 e7 99 bf d5 e4 c1 bf 3c 24 f9 bf
       -1.2650452 -1.2023665 -1.5147959 -1.9464183
000080 76 5e f5 bf 73 1b cf bf fe 81 20 be cd ef ca bd
       -1.9169452 -1.6180252 -0.15674588 -0.099090196
000090 4a 4b 04 bf 14 cf 88 be b5 89 9f be 62 a5 bb be
       -0.5167738 -0.26720488 -0.3115975 -0.36649615
0000a0 98 ad 0e be 61 50 f5 be 24 b5 f0 be 50 31 88 be
       -0.13933408 -0.47912887 -0.470132 -0.26600122
0000b0 09 af 83 be a2 24 c3 bf 70 da c9 bf 2d e4 c7 bf
       -0.2571948 -1.5245554 -1.5769787 -1.5616509
0000c0 76 72 c5 3d cd 54 e1 bd 21 36 61 3f eb 6d 9c 3d
       0.09640972 -0.110025026 0.8797322 0.07638153
0000d0 41 ac 8e 3f 6c 2c 8f 3f 3f 44 dd bf 2c de 03 c0
       1.1146318 1.1185431 -1.7286452 -2.0604353
0000e0 62 b5 f7 bf 3c 6e 6b bc aa d9 ad be f3 bd 33 3f
       -1.9352229 -0.014369544 -0.33955127 0.70211715
0000f0 ed 18 6a bd bc 77 93 3e 83 1e 18 3f 97 4d 1f c0
       -0.057152677 0.28802288 0.5942156 -2.4891107
000100 42 b2 3d c0 66 53 41 c0 56 da 00 3e 46 a3 fc 3e
       -2.964005 -3.0207152 0.12583289 0.49343318
000110 10 0e 95 be ab e6 08 3e 22 4d 8b bf 81 aa 9d bf
       -0.2911229 0.13369243 -1.0882914 -1.2317659
000120 d3 e6 b0 bf 76 ce d5 bf 72 c5 c3 bf a0 d1 06 c0
       -1.3820442 -1.6703632 -1.529463 -2.1065445
000130 63 eb 63 bf 29 b7 e5 bf 6d bb 0a c0 01 c3 92 bf
       -0.89031047 -1.7946521 -2.1676896 -1.146576
000140 70 2f 07 c0 3d 40 64 bf 92 5f 2d bf 4e f8 37 bf
       -2.1122704 -0.8916052 -0.67723954 -0.7186326
000150 11 d3 80 be 0b 2e fc be f8 42 a3 be 61 c6 83 be
       -0.2516103 -0.49253878 -0.3188703 -0.2573729
000160 0c 60 71 be 21 d7 0f 3f 94 d4 0b bd cb 6e 2c bf
       -0.23571795 0.56187636 -0.034138277 -0.67356557
000170 03 e2 2e bf b6 90 80 bf a0 be 8f bf a4 06 83 bf
       -0.68313617 -1.0044162 -1.1230049 -1.0236402
000180 23 00 83 bf 03 62 39 3e c2 21 36 bd bf 50 d8 bf
       -1.0234417 0.18103795 -0.044465788 -1.6899642
000190 dc e2 cf bf a6 6f c6 bf 92 a8 99 3e be a5 1c 3f
       -1.6241107 -1.5502822 0.3001142 0.611904
0001a0 ef 63 ce 3e eb fd 70 3e cd 86 1c 3f 2b 75 89 3f
       0.40310618 0.23534362 0.6114319 1.0738882
0001b0 57 3f d7 bf b6 52 0a c0 de 69 06 c0 11 97 26 c0
       -1.6816205 -2.1612983 -2.1002116 -2.6029704
0001c0 9d e9 58 bf 7a 88 19 c0 e7 ea 28 c0 12 6d ef bf
       -0.84731466 -2.3989549 -2.6393373 -1.8705161
0001d0 75 48 1a c0 39 e3 85 bf cc 0c ab bf 14 e1 a2 bf
       -2.4106724 -1.0459968 -1.336328 -1.2724938
0001e0 e0 60 bc bf fd 63 bc be a4 84 fc bf 44 d3 b1 bf
       -1.4717064 -0.36795035 -1.9727979 -1.3892598
0001f0 77 da aa bf b3 ed ab bf 4d cf 11 3f 75 2a 32 3f
       -1.334792 -1.3431915 0.5695694 0.69596034
000200 1a 96 15 3f 90 db ba bf 7f 61 85 bf 3a 25 6e bf
       0.5843216 -1.4598255 -1.0420378 -0.93025553
000210 4b d9 b6 bf 26 b6 ab bf f9 e1 15 bf 07 f4 32 be
       -1.4285063 -1.3414962 -0.5854793 -0.17475902
000220 97 2d ad bf 26 87 aa bf 43 c8 e2 bf bc ba 54 bf
       -1.3529538 -1.3322494 -1.7717365 -0.83097434
000230 07 ae 8a bf 8e 40 df bf 3e ea cf bf e5 fa dc bf
       -1.0834359 -1.7441576 -1.624336 -1.7264067
000240 f6 40 cb bf 26 0a c3 bf 4c a3 c4 bf ab 61 ce 3e
       -1.58792 -1.5237472 -1.5362334 0.4030889
000250 ad 5f e1 3e 8c b2 d4 3f c9 8b de 3e 04 b4 50 3e
       0.44018307 1.6616988 0.43466023 0.2038117
000260 b2 1b 72 3f 52 11 ca bf 57 8f a8 bf c7 ff ad bf
       0.9457351 -1.5786536 -1.3168744 -1.3593682
000270 04 a4 72 bf dc a6 f1 be d3 0c c5 be fd 1e 66 bf
       -0.9478152 -0.47197616 -0.38486347 -0.89891034
000280 81 50 25 3e 99 b0 7a 3e e0 26 7b bf cb 27 57 bf
       0.16143991 0.24481429 -0.98106194 -0.84045094
000290 48 2e 4e bf 43 90 19 3f 76 f7 ae be 63 9d 14 bf
       -0.8053937 0.5998575 -0.34173173 -0.58052653
0002a0 a5 0e f5 3e 94 c6 6b 3d 12 ab 43 3f 36 0f bc bf
       0.47862735 0.057562426 0.7643291 -1.4692142
0002b0 a1 ed 9a bf 47 8f 8c bf 0d 4c 37 be c6 4f 19 3f
       -1.2103769 -1.0981225 -0.17900105 0.5988735
0002c0 c7 47 cb 3f 80 87 b9 bd 74 fd 34 3f 40 d4 a6 3f
       1.588128 -0.09059048 0.7069924 1.3033524
0002d0 9e a7 35 3e a0 29 91 3d 57 21 3c 3d f8 b8 51 3f
       0.17739722 0.070880175 0.045930233 0.81922865
0002e0 59 47 58 bf 31 e1 89 c0 01 c7 34 3f ec 3c f6 bf
       -0.8448387 -4.308739 0.70616156 -1.9237342
0002f0 58 39 7e c0 07 39 3c bf 8b df 9c bf 29 49 9b bf
       -3.97225 -0.73524517 -1.225572 -1.2131702
000300 2d 01 9b bf ec 17 89 bd 59 5e f5 bf 03 be 9a bf
       -1.2109734 -0.06694016 -1.9169418 -1.2089237
000310 9d 88 12 3e b7 1d 11 c0 7c 65 50 3e 8a 66 f9 b9
       0.14309926 -2.2674387 0.20351213 -0.00047569379
000320 ec 9e 05 be ac e7 a4 be 37 56 1f c0 39 99 08 c0
       -0.13048905 -0.32208002 -2.4896371 -2.134352
000330 72 2c 9d be 23 83 58 bf 80 ba d9 bf f5 9e 0e 3e
       -0.30697972 -0.845751 -1.701004 0.13927825
000340 d0 fc 43 3d 86 ee a1 bc 67 1f 24 c0 cd 22 12 c0
       0.047848523 -0.019767057 -2.5644166 -2.283374
000350 31 12 6f c0 43 c2 27 c0 fa f5 a7 bf ae 8a 35 c0
       -3.7354853 -2.6212318 -1.3121941 -2.8365893
000360 28 07 c0 3f cf 77 81 3e f4 b6 16 3e af f6 da be
       1.5002184 0.2528672 0.14718229 -0.4276633
000370 51 b2 ed 3e 40 65 2e 3f b8 d9 07 bf 67 49 ac 3f
       0.46425107 0.68123245 -0.5306659 1.3459901
000380 57 5c e8 3f a2 74 5a bf d0 c7 26 bf b5 00 11 bf
       1.815318 -0.8533422 -0.6514864 -0.56641704
000390 74 a6 99 bf 73 40 01 40 06 02 88 3f 07 92 8b bf
       -1.2003922 2.0195587 1.0625618 -1.0903939
0003a0 4b 2e 80 3f c6 b3 ce 3f 1e f6 26 bf 1b 9b ca bf
       1.0014127 1.6148612 -0.65219295 -1.5828584
0003b0 5d 35 d8 bf 0a f4 7c bf 90 24 ed 3f 67 0f 97 3e
       -1.6891285 -0.98809874 1.8526783 0.2950394
0003c0 98 b6 86 bf 4f 1e 92 3f b2 70 2e 40 ba 50 14 3f
       -1.0524473 1.14155 2.7256284 0.5793568
0003d0 c2 34 7b c0 68 5d 70 c0 7f 12 32 bd e1 e1 b9 be
       -3.925095 -3.755701 -0.04347467 -0.36305144
0003e0 f6 11 b2 bf 8f 79 35 3d 3d 80 3f c0 7a aa 64 c0
       -1.3911731 0.04430538 -2.992202 -3.572905
0003f0 75 ed fd 3e 68 22 a2 3e d1 f6 af 3e 69 a6 32 c0
       0.49595228 0.31666875 0.34367993 -2.7914069

conv3.bias f4 [10]
000000 a0 4d e4 3d b8 23 39 3f ee 8c cb bc 54 6d 17 bf
       0.11147618 0.7232013 -0.024847474 -0.59151196
000010 13 77 84 be 35 8e 01 3f 94 4f d3 bd 13 97 25 3f
       -0.25872096 0.50607616 -0.10317913 0.64683646
000020 93 42 08 3e 24 27 cf be
       0.13306646 -0.4045955

linear.weight f4 [4, 160]
000000 2b 83 19 3e 81 28 0a 3e 58 de 7d bd 5f a6 8b 3d
       0.14991443 0.13492014 -0.06197962 0.06818842
000010 df b9 8a 3d 9f e0 81 3e 6e 1a 1d be 7a 01 96 be
       0.06773733 0.25366685 -0.15342113 -0.29298002
000020 43 b2 c8 3c 8c 7c 00 3f d8 61 7c be 93 5f 3e bf
       0.024499064 0.50190043 -0.246467 -0.74364585
000030 75 e7 66 bd ee 14 fe 3e e1 9e df be e3 e7 85 be
       -0.05637308 0.49625343 -0.43675902 -0.26153478
000040 ea 9c 3b bf a0 df de be d3 03 c9 bd 2e db 5f be
       -0.73286307 -0.43529987 -0.098151825 -0.21860954
000050 0a 0f d3 3a 13 df 15 3e 98 70 67 3e f6 33 08 bd
       0.0016102504 0.14635877 0.22601545 -0.03325268
000060 b6 6d e7 be c6 9f 1a 3d 5e 0b 35 3e 8c b0 40 be
       -0.4520089 0.037750028 0.17680117 -0.18817347
000070 48 5a f4 bd 06 77 25 be 87 34 7e be c0 40 65 be
       -0.11931282 -0.16158685 -0.24824725 -0.22387981
000080 b4 7d cc bd d2 77 38 bc 7f 80 af 3c a5 99 9f 3b
       -0.099849135 -0.011259036 0.021423576 0.004870611
000090 31 77 8d 3d ed 86 82 3e 96 8d 93 3d 15 11 69 bd
       0.069074996 0.25493565 0.0720474 -0.056901056
0000a0 99 52 37 bf aa e2 62 3f ce 0a 12 3f b9 2e 95 bc
       -0.7161041 0.8862711 0.57047737 -0.018210756
0000b0 fc 96 ac be 77 9c b0 3e 3e 36 07 3f 7d 8f 20 be
       -0.33708942 0.34494373 0.5281714 -0.15679736
0000c0 e9 41 fb 3d bd 8e 58 be 7d 88 4c 3e 9d 6b f4 bc
       0.12268431 -0.211482 0.19973941 -0.02983647
0000d0 20 ce bd bd 42 41 f7 3d 8c f7 a7 3e 6f c2 38 3e
       -0.09267831 0.12072994 0.3280605 0.1804292
0000e0 ee bf 2d bf fb d2 b9 bd 89 0b 1c 3e a5 ab f2 3e
       -0.67870986 -0.090734445 0.15238775 0.4739658
0000f0 18 5f b0 be 0a 37 6e 3e aa cf ad 3e 14 3a ad 3e
       -0.3444755 0.23263183 0.33947498 0.33833373
000100 4e d8 1a bf dc 5f d9 3e e4 55 1c 3f 9c 0b 67 3f
       -0.60486305 0.42455947 0.6106856 0.9025209
000110 b1 ca 9a be 46 7d 1a be 3a b9 1a 3e 4e 61 9a 3e
       -0.30232766 -0.1508685 0.15109721 0.30152363
000120 89 c8 c3 be c2 3d 2d bc af 59 5f 3e 5e 99 a4 3e
       -0.38238934 -0.010573806 0.21811555 0.3214826
000130 5b 1c 5a bd 8f 1e 70 be c7 5d e0 3e 8a fd ba 3d
       -0.053249698 -0.23449157 0.43821546 0.0913039
000140 a2 7c b7 3e a9 5e 30 3e 80 c7 e4 bd 4e eb f1 3d
       0.35837275 0.1722361 -0.11170864 0.11812459
000150 fd 30 8c 3b 2b bd 86 be 91 88 d5 3e 44 c9 26 be
       0.004278301 -0.263162 0.41705754 -0.16287714
000160 2a 0b 99 be 7e d7 97 bd 18 5e af 3e d4 8e 44 3e
       -0.2989133 -0.07414149 0.34251475 0.1919511
000170 a6 19 36 3f f1 67 e2 3c 4f e7 69 3e f1 4c b6 3d
       0.71132886 0.027637454 0.22842143 0.08901394
000180 be 71 98 bc ed 52 38 3f 57 ab 35 3e f8 31 da bd
       -0.018608924 0.72001535 0.17741142 -0.10654062
000190 a7 eb 10 be 47 ac 38 3e 9b 43 27 be e1 30 fa bd
       -0.14152394 0.18034469 -0.16334383 -0.12216354
0001a0 2e 81 f9 be 5a e6 26 3e e7 a1 2a 3e 2d 96 b9 bd
       -0.4873137 0.1629881 0.16663323 -0.09061847
0001b0 5b bf ad 3d 0b 9a 92 bc 51 5d b7 3d 39 a0 0d 3e
       0.08483764 -0.017895719 0.089533456 0.13830651
0001c0 e1 2e 9a 3e 41 a7 eb bd c1 a9 c1 3e 09 32 a0 3e
       0.3011389 -0.115065105 0.37824824 0.31288174
0001d0 57 13 ae 3d 60 00 06 be 3b 7b 0a bc 93 20 a5 3d
       0.084997825 -0.1308608 -0.008452232 0.08062854
0001e0 53 76 b3 be d1 7b bc be f3 f2 79 be 8f a2 80 3d
       -0.35051212 -0.36813214 -0.24409084 0.062810056
0001f0 7b be 84 bd 9a b1 ea be 73 2a 9c bc 13 d2 62 3d
       -0.06481644 -0.45838624 -0.01906321 0.055376124
000200 9f a1 8d 3e 76 19 05 3e af 02 29 3e 5b cb 11 3f
       0.2766237 0.12997994 0.1650493 0.5695092
000210 20 51 1e 3e fa 6b e0 3d 53 12 73 3e ff 76 b4 3e
       0.15460634 0.10958095 0.23737459 0.35247037
000220 8a 31 6f be e0 ea 3c 3d 21 23 0e 3f a3 77 7d 3e
       -0.23358741 0.04612243 0.5552235 0.24752669
000230 10 7b 48 3d ea ee 14 3e 7d 81 fc bc 4e 20 fc bc
       0.048945487 0.14544263 -0.030823464 -0.030777123
000240 29 03 3a 3e 33 35 13 3d 7e ce e4 3c 3f 2e 2d 3e
       0.18165268 0.035939407 0.027930494 0.16912173
000250 c8 ea 1d 3e 9a 5d ab bd cc 9c 4f be 1a 63 66 3d
       0.15421593 -0.083674625 -0.20274657 0.056246854
000260 4d 18 60 bf 90 d8 13 3e 8d 80 92 be 9d ec 9d be
       -0.8753708 0.14438081 -0.286137 -0.30844584
000270 83 32 55 bf 7b f3 5d be 1c 3f 56 3c 32 40 55 bf
       -0.832802 -0.21674912 0.01307657 -0.8330108
000280 d5 8f 47 be c5 ee 85 bd 15 10 26 be e1 d6 47 3e
       -0.19488461 -0.06539682 -0.16217072 0.19515564
000290 72 75 af be ec 79 53 bd ab ba 12 be b4 e9 8a 3e
       -0.3426929 -0.051629946 -0.1432902 0.27131426
0002a0 48 e6 38 bf 20 ad 93 be 1f 68 bb 3e 98 f5 0c 3f
       -0.7222638 -0.2884302 0.36602876 0.55062246
0002b0 8a 1e 53 bf 22 d0 e4 bd 74 ed 56 3d c8 a8 8f 3c
       -0.82468474 -0.11172511 0.052472547 0.017536536
0002c0 ba 72 9d bd 6f 3b 01 be 77 df 40 3e 58 1a 9b 3e
       -0.07687898 -0.12620328 0.18835245 0.30293536
0002d0 41 d2 86 3d d2 ef e4 bd 28 4d 0e 3e 21 43 c5 bb
       0.065830715 -0.111785546 0.1389662 -0.0060199653
0002e0 19 bc 0f be cf da 4a 3d 53 33 5e 3c 12 90 d1 be
       -0.14036597 0.04952508 0.013562041 -0.4093023
0002f0 81 34 21 3e d4 64 cd 3e 98 c2 a8 3d 28 14 74 3d
       0.15742685 0.40115988 0.08240241 0.059589535
000300 b8 0b 50 3e 1c d8 e0 3d da b1 6c 3e ca df 44 3e
       0.2031697 0.109787196 0.2311472 0.19225994
000310 e5 a1 c3 3c f1 a0 88 3d 50 06 c3 3e de d3 49 bc
       0.023880908 0.06671322 0.38090754 -0.0123185795
000320 1b 3a b2 3d 80 fd fb 3d f6 a9 ad be 46 7b ab 3e
       0.08702489 0.12304211 -0.33918732 0.33492488
000330 28 78 31 bc 51 f7 9a 3e 66 06 df 3d c2 e7 08 3f
       -0.01083187 0.30266812 0.10889892 0.53478634
000340 69 46 91 3e 4a 78 db 3e 21 85 13 3e 94 0e 51 be
       0.2837403 0.4286521 0.14406253 -0.20415717
000350 00 56 9c 3d 6f 30 8f 3e d4 d0 90 3e 63 6e ec be
       0.07633591 0.2796664 0.28284323 -0.46177968
000360 80 5d b6 3d c6 12 08 3e 49 95 e0 3d 38 d6 fe bd
       0.089045525 0.13288411 0.10965974 -0.12443203
000370 60 50 db 3e 5b 07 85 3e cc 99 9e 3e 24 d0 0a 3d
       0.4283476 0.25982174 0.30976713 0.033889905
000380 78 18 6a 3e 4c 5a d6 3e c8 ad 51 3e 3b 6a 32 3e
       0.22860897 0.41865766 0.20476449 0.17423336
000390 e8 ab 4f 3e 53 0f c8 bc 7e 04 56 3d 5c a1 25 be
       0.20280421 -0.02442137 0.052250378 -0.16174835
0003a0 2a 03 b5 3c 93 28 cd bd f5 db 98 3e 74 24 d4 bd
       0.022096235 -0.100175045 0.29855314 -0.103585154
0003b0 6e bd 21 3b 1b 8f 06 3e 1a ec 8d 3c 77 dd e3 3c
       0.002467956 0.13140528 0.017324496 0.027815564
0003c0 98 67 9b 3b 37 91 35 be 9c 09 9a 3b 64 f4 ad bb
       0.004742574 -0.17731176 0.0047008526 -0.0053086746
0003d0 89 28 14 3d 21 14 89 bd 8e 53 c0 3e b0 fc 10 bd
       0.03617147 -0.066932924 0.37563747 -0.03539723
0003e0 f8 70 12 3e bd 7a 0d be 1a a0 85 3e 2e e9 b2 3d
       0.14300907 -0.13816352 0.2609871 0.08735882
0003f0 4b c0 f5 3d b9 0e 4b be 56 8a 0a 3f 23 67 05 3f
       0.119995676 -0.19829835 0.54117334 0.521105

linear.bias f4 [4]
000000 b9 f2 00 be 68 df c0 bc 4d f1 e2 3c fd 0d f4 3d
       -0.12592591 -0.023544028 0.027702952 0.119167306
