2048AI_model_1_lr_0.01_ver_3.pt (torch_old, 36117 bytes, 8 tensors)

conv1.weight f4 [10, 3, 10, 10]
0.21878622 0.28012618 0.19154967 0.21453446 0.2592138 0.23154429 0.17165533 0.14346181
0.13382909 0.10300595 0.14996365 0.27055106 0.18720363 0.10340174 0.18620268 0.16139698
0.09484138 0.0918066 0.07077999 0.053700592 0.22195026 0.301481 0.25120145 0.2710934
0.26416582 0.21919294 0.2834791 0.2748502 0.23803045 0.13191415 0.1665243 0.32384586
0.2293258 0.24086927 0.21063428 0.27087438 0.22519445 0.19425476 0.15832718 0.09095427
0.27971116 0.29183432 0.24837455 0.20543143 0.24299893 0.20712204 0.18857977 0.1924693
0.17129895 0.08705722 0.24001595 0.2212383 0.29865432 0.29338112 0.24058624 0.21460716
0.23770194 0.19245242 0.16354622 0.14483637 0.21575153 0.23619735 0.3457255 0.23997205
0.26230747 0.29306793 0.1992099 0.20686604 0.2600738 0.19353074 0.08550755 0.20267221
0.2494101 0.17211327 0.16972147 0.22115916 0.0501694 0.15374975 0.14056693 0.10980844
0.08240859 0.23416921 0.20890257 0.14506455 0.116680555 0.12615238 0.0038455136 0.017761437
0.12642734 0.047019865 0.063828416 0.1386524 0.11392741 0.13832913 0.038556747 0.08105691
0.0684325 -0.00980809 0.038968805 0.012287428 0.23429364 0.35475385 0.21280311 0.16205175
0.28175232 0.25947964 0.1347904 0.1424258 0.10523866 0.09471663 0.23677762 0.2591728
0.23477946 0.2164751 0.29363686 0.16487198 0.20183915 0.18901137 0.13035427 0.108669266
0.2907589 0.34531638 0.38020423 0.3492681 0.32816812 0.3412278 0.38078764 0.35783944
0.31975803 0.32516712 0.30839145 0.33782533 0.30394757 0.34698462 0.37150785 0.345892
0.3712929 0.3145287 0.28793845 0.24132252 0.26358953 0.4014102 0.37523624 0.41014335
0.394325 0.40069583 0.3008744 0.36035833 0.23993717 0.22503701 0.2415604 0.42102873
0.33975548 0.31690267 0.3986313 0.35592082 0.31092513 0.2997083 0.36323962 0.222545
0.26907176 0.32217193 0.36215088 0.44988734 0.46167308 0.4481477 0.29402012 0.34621677
0.3871646 0.23202227 0.19086905 0.30325085 0.4282844 0.35533044 0.42874163 0.3906261
0.27973247 0.3290654 0.26774943 0.15930945 0.20133291 0.28672984 0.4154257 0.36084726
0.33832428 0.30330226 0.2547605 0.2002366 0.22055578 0.2237834 0.06137766 0.20717233
0.30762756 0.2654636 0.22965126 0.20609437 0.10777892 0.1499389 0.18179178 0.13839653
0.10264291 0.13340615 0.08619941 0.16894686 0.22146608 0.14493376 0.11805341 0.047025334
0.061097875 -0.025474707 0.104082055 0.24106003 0.22883563 0.17764187 0.22641882 0.22126643
0.11560758 0.20652968 0.19662419 0.07450417 0.2562603 0.26477543 0.32093745 0.36272433
0.3975498 0.31272992 0.36117178 0.3598853 0.45820606 0.35122687 0.20766215 0.24650536
0.24880813 0.24289651 0.28344083 0.2620835 0.3261967 0.2806473 0.38589072 0.18198267
0.18744232 0.27766782 0.26721033 0.21598265 0.32741457 0.343822 0.26064837 0.26749352
0.38455912 0.19644855 0.17302372 0.22041732 0.2882348 0.24569204 0.34978646 0.40271464
00000000: 7f09 603e b36c 8f3e 9925 443e ecae 5b3e
00000010: acb7 843e f219 6d3e 6ac6 2f3e a7e7 123e
00000020: 7e0a 093e c9f4 d23d 1290 193e ab85 8a3e
00000030: 4fb2 3f3e 4bc4 d33d eaab 3e3e 4045 253e
00000040: 333c c23d 1905 bc3d 19f5 903d 27f5 5b3d
00000050: ee46 633e b85b 9a3e 7a9d 803e c1cc 8a3e
00000060: be40 873e 1d74 603e 2c24 913e 2ab9 8c3e
00000070: 41be 733e 8114 073e 5985 2a3e 20cf a53e
00000080: 62d4 6a3e 6fa6 763e 83b0 573e 0cb0 8a3e
00000090: 6099 663e b8ea 463e 8520 223e 3b46 ba3d
000000a0: 4d36 8f3e 4f6b 953e e655 7e3e 9e5c 523e
000000b0: b6d4 783e cd17 543e 0e1b 413e ac16 453e
000000c0: fe68 2f3e 0e4b b23d bec6 753e 4b8c 623e
000000d0: 38e9 983e 0d36 963e 3d5c 763e fbc1 5b3e
000000e0: 2368 733e 3f12 453e a978 273e fc4f 143e
000000f0: f8ed 5c3e b8dd 713e ef02 b13e 3cbb 753e
00000100: 2a4d 863e 000d 963e aefd 4b3e b1d4 533e
00000110: 6528 853e ec2c 463e 951e af3d 4e89 4f3e
00000120: 5c65 7f3e 763e 303e 77cb 2d3e 8c77 623e
00000130: 6e7e 4d3d 9370 1d3e c7f0 0f3e 3fe3 e03d
00000140: d6c5 a83d 0eca 6f3e 8eea 553e cd8b 143e
00000150: 37f6 ee3d 172e 013e 0305 7c3b 6f80 913c
00000160: 2b76 013e e797 403d 79b8 823d e5fa 0d3e
00000170: c652 e93d 27a6 0d3e aeed 1d3d 2a01 a63d
00000180: 5726 8c3d 1cb2 20bc c19d 1f3d 3551 493c
00000190: acea 6f3e 4ca2 b53e 0fe9 593e e5f0 253e
000001a0: d741 903e 84da 843e 7f06 0a3e 12d8 113e
000001b0: 5e87 d73d cbfa c13d d575 723e 4cb2 843e
000001c0: 076a 703e a6ab 5d3e 9257 963e 33d4 283e
000001d0: ecae 4e3e 328c 413e 977b 053e fe8d de3d
000001e0: 5ade 943e 4fcd b03e 21aa c23e 45d3 b23e
000001f0: a705 a83e 69b5 ae3e 99f6 c23e bb36 b73e
00000200: 53b7 a33e 4e7c a63e 7ce5 9d3e 71f7 ac3e
00000210: 049f 9b3e f8a7 b13e 4736 be3e c218 b13e
00000220: 1a1a be3e e809 a13e ab6c 933e 401d 773e
00000230: 35f5 863e a385 cd3e f71e c03e 4ffe d13e
00000240: f7e4 c93e 0128 cd3e 360c 9a3e e380 b83e
00000250: 17b2 753e 1a70 663e 9c5b 773e 1491 d73e
00000260: 6ef4 ad3e 1141 a23e 6719 cc3e 413b b63e
00000270: 9431 9f3e 5e73 993e 8bfa b93e d6e2 633e
00000280: c6c3 893e b8f3 a43e d76b b93e a257 e63e
00000290: 6a60 ec3e 9e73 e53e ce89 963e 5343 b13e
000002a0: 703a c63e 3f97 6d3e 2d73 433e b243 9b3e
000002b0: 1848 db3e dfed b53e 0684 db3e 2500 c83e
000002c0: 1839 8f3e 437b a83e 7416 893e 0422 233e
000002d0: 372a 4e3e 41ce 923e adb2 d43e f9c0 b83e
000002e0: d738 ad3e 6f4a 9b3e f86f 823e d30a 4d3e
000002f0: 60d9 613e 7a27 653e 2467 7b3d fc24 543e
00000300: 5c81 9d3e d8ea 873e b329 6b3e 670a 533e
00000310: 32bb dc3d 9589 193e a027 3a3e d2b7 0d3e
00000320: 7236 d23d 9f9b 083e 5189 b03d 6800 2d3e
00000330: 01c8 623e 8469 143e fcc5 f13d a39d 403d
00000340: c441 7a3d 55b0 d0bc f928 d53d 71d8 763e
00000350: e353 6a3e c0e7 353e 56da 673e ab93 623e
00000360: abc3 ec3d 847c 533e da57 493e a495 983d
00000370: 8d34 833e a590 873e ea51 a43e 01b7 b93e
00000380: a68b cb3e 231e a03e 82eb b83e e342 b83e
00000390: fc99 ea3e 02d4 b33e 63a5 543e e76b 7c3e
000003a0: 8fc7 7e3e ddb9 783e 281f 913e cf2f 863e
000003b0: 4103 a73e 01b1 8f3e 7893 c53e aa59 3a3e
000003c0: e1f0 3f3e 7a2a 8e3e cbcf 883e 8e2a 5d3e
000003d0: e2a2 a73e 7009 b03e b473 853e e9f4 883e
000003e0: efe4 c43e cf29 493e 212d 313e 14b5 613e
000003f0: 8393 933e b296 7b3e 3617 b33e 9d30 ce3e

conv1.bias f4 [10]
-0.06623476 -0.20018797 0.33545107 -0.13025002 -0.27620637 0.013613486 -0.36785483 0.023073912
0.09495542 0.30475447
00000000: 17a6 87bd 13fe 4cbe 3ec0 ab3e 4360 05be
00000010: ec6a 8dbe 190b 5f3c 7857 bcbe 8005 bd3c
00000020: fd77 c23d c708 9c3e

conv2.weight f4 [20, 10, 4, 4]
-0.025532156 -0.045192063 -0.09211165 -0.020217383 0.17037207 0.047142234 0.16349179 0.19843857
0.16674483 0.007543548 0.31178764 0.37187374 0.3983648 0.19741724 0.33019295 0.3563546
0.044917718 0.27016094 0.1852396 0.054098137 0.046813067 0.2505344 0.16999818 0.18438436
0.06895287 0.028167313 0.22445056 -0.07172701 0.13899386 0.28600696 -0.14044301 0.23469077
-0.12948516 0.2639503 0.16257736 -0.09782116 -0.15011175 -0.30854255 -0.111450255 -0.1075128
0.09653035 -0.015603894 -0.010278977 -0.27077216 0.11982225 0.16040988 -0.05649138 0.117557585
-0.00054169516 0.26145643 0.26719478 0.27401948 0.49195993 0.6462349 0.44806504 0.30014038
0.44208673 0.28682294 0.37474284 0.42614177 0.4977788 0.50035244 0.3882433 0.4064809
0.14588556 0.33034396 0.18884616 0.19200025 0.41480395 0.7311124 0.4571873 0.6611197
0.38502964 0.5054076 0.51218545 0.59504014 0.41076654 0.62912595 0.6362406 0.6641516
0.52682966 0.31098482 0.13931784 0.23692109 0.21240695 0.14245866 0.26402837 0.3172568
0.37924618 0.19502698 0.007272522 -0.30845028 0.39392725 0.22184144 0.004319548 0.06476516
0.08110978 0.26586998 0.15144731 0.24069478 0.39849466 0.59804046 0.5544937 0.5201009
0.23693682 0.43195236 0.6233502 0.59463197 0.42758876 0.7019017 0.6911823 0.5871845
-0.042185422 0.20119596 0.23617141 0.28948122 0.45819747 0.5918152 0.48112035 0.5839428
0.38827336 0.59391385 0.5697411 0.54881805 0.37977916 0.74274236 0.7253835 0.6776161
0.57584685 0.2719941 0.12423391 0.28014857 0.40349075 0.3556398 0.4327168 0.6257274
0.58783984 0.71178424 0.3121386 0.19226007 0.4440858 0.39074913 0.29433507 0.46975672
-0.26792043 -0.19796544 -0.17143315 -0.17302509 -0.3751667 -0.3497103 -0.39888877 -0.28014493
-0.25978866 -0.05801638 -0.13444728 -0.11097326 -0.18807556 -0.023196017 -0.21856527 -0.15822549
-0.36236736 -0.46304217 -0.6195135 -0.60577077 9.31758e-05 -0.0035634744 0.056350414 -0.18234545
-0.33410293 -0.2782882 -0.21923833 -0.32997617 -0.5995848 -0.52373004 -0.30154452 -0.4500465
0.11165862 0.3812586 0.1739224 0.31964755 -0.009402581 0.18324675 0.1456373 0.16887203
0.34890988 0.3309889 0.42926592 0.3687741 0.3560262 0.6867255 0.30334678 0.7389909
-0.07298897 0.08549625 0.076982185 0.032180697 -0.21087693 -0.027166532 0.03011499 0.06404698
0.48489937 0.4234661 0.39729288 0.22243254 0.33187416 0.36512974 0.35974115 0.52489865
0.05026391 -0.08729493 -0.24066594 -0.19565992 -0.07459119 0.21600464 -0.11114248 -0.058221437
-0.14083861 -0.06267043 -0.14972155 -0.20413838 -0.48624402 -0.23894292 -0.35755596 -0.19478889
-0.0035690102 -0.2515897 -0.34475878 -0.28390726 0.07502485 -0.008545959 -0.033889405 -0.11842005
-0.05876477 -0.15849051 -0.039688915 -0.10257106 -0.12089777 -0.05849534 -0.15466338 -0.074871026
0.27113357 0.37910527 0.23589675 0.36894962 0.056103997 0.4342716 0.50787735 0.45702282
0.618382 0.99449337 0.9005465 0.39481035 0.54097354 0.8533862 0.5572509 0.5739901
00000000: d028 d1bc 501b 39bd 08a5 bcbd ed9e a5bc
00000010: 0476 2e3e 3718 413d 646a 273e 7b33 4b3e
00000020: 28bf 2a3e de2f f73b a1a2 9f3e 3c66 be3e
00000030: 79f6 cb3e bf27 4a3e 0d0f a93e 1c74 b63e
00000040: a4fb 373d 8952 8a3e 73af 3d3e 0296 5d3d
00000050: 0fbf 3f3d 0b46 803e 0114 2e3e 41cf 3c3e
00000060: 2a37 8d3d 23bf e63c 5ed6 653e 9ce5 92bd
00000070: 6854 0e3e 816f 923e 4bd0 0fbe c752 703e
00000080: c297 04be 7e24 873e ae7a 263e 7656 c8bd
00000090: e5b6 19be 4af9 9dbe 0840 e4bd ac2f dcbd
000000a0: b4b1 c53d 7aa7 7fbc 2869 28bc a6a2 8abe
000000b0: 5e65 f53d 7d42 243e 8163 67bd 08c2 f03d
000000c0: 8c00 0eba 9edd 853e c1cd 883e 484c 8c3e
000000d0: 2ce2 fb3e a76f 253f c868 e53e 00ac 993e
000000e0: 3159 e23e 75da 923e 4bde bf3e 412f da3e
000000f0: dddc fe3e 1917 003f d3c7 c63e 441e d03e
00000100: 0663 153e d822 a93e e360 413e b79b 443e
00000110: 2f61 d43e 2f2a 3b3f 7414 ea3e 243f 293f
00000120: 9b22 c53e 6462 013f 961e 033f 8d54 183f
00000130: fe4f d23e 660e 213f aae0 223f d705 2a3f
00000140: 4fde 063f 6739 9f3e 56a9 0e3e 719b 723e
00000150: 3581 593e afe0 113e ba2e 873e 7c6f a23e
00000160: 8e2c c23e 27b5 473e 564e ee3b 32ed 9dbe
00000170: d5b0 c93e 672a 633e ff8a 8d3b 99a3 843d
00000180: e21c a63d 1c20 883e 0115 1b3e b178 763e
00000190: 7e07 cc3e 2e19 193f 4df3 0d3f 5525 053f
000001a0: 919f 723e dc28 dd3e e193 1f3f cd39 183f
000001b0: eaec da3e d4af 333f 53f1 303f b951 163f
000001c0: 9fca 2cbd 5006 4e3e ebd6 713e e236 943e
000001d0: dc98 ea3e 3381 173f 6855 f63e 467d 153f
000001e0: c4cb c63e bd0a 183f 8dda 113f 577f 0c3f
000001f0: 6a72 c23e 5d24 3e3f bcb2 393f 4078 2d3f
00000200: b36a 133f d042 8b3e 596e fe3d a26f 8f3e
00000210: 5796 ce3e 6b16 b63e 0e8d dd3e ac2f 203f
00000220: ac7c 163f 7e37 363f a1d0 9f3e d3df 443e
00000230: 375f e33e 4510 c83e 16b3 963e f483 f03e
00000240: de2c 89be 74b7 4abe 2c8c 2fbe 7d2d 31be
00000250: da15 c0be 3a0d b3be 263b ccbe 286f 8fbe
00000260: 0503 85be 95a2 6dbd 8cac 09be f345 e3bd
00000270: e196 40be 9305 bebc 93cf 5fbe dd05 22be
00000280: 3788 b9be dd13 edbe 7098 1ebf cb13 1bbf
00000290: 6067 c338 2e89 69bb b1cf 663d c4b8 3abe
000002a0: 8a0f abbe ca7b 8ebe 0380 60be a3f2 a8be
000002b0: 647e 19bf 2c13 06bf 0b64 9abe 7f6c e6be
000002c0: 46ad e43d 5434 c33e b718 323e d8a8 a33e
000002d0: 480d 1abc 09a5 3b3e f221 153e caec 2c3e
000002e0: 51a4 b23e 6177 a93e bec8 db3e f5cf bc3e
000002f0: 1149 b63e 3ecd 2f3f 4550 9b3e 822e 3d3f
00000300: 3e7b 95bd a818 af3d d6a8 9d3d e8cf 033d
00000310: 1ff0 57be 598c debc b6b3 f63c 102b 833d
00000320: bb44 f83e 8cd0 d83e f969 cb3e 5bc5 633e
00000330: 69eb a93e 49f2 ba3e fe2f b83e c25f 063f
00000340: 88e1 4d3d afc7 b2bd 2271 76be 135b 48be
00000350: 44c3 98bd 5230 5d3e ab9e e3bd 9a79 6ebd
00000360: ff37 10be 5b59 80bd 9b50 19be a709 51be
00000370: faf4 f8be 74ad 74be 9311 b7be bd76 47be
00000380: 0ee6 69bb 5dd0 80be 3984 b0be 4b5c 91be
00000390: a1a6 993d 5a04 0cbc 9ecf 0abd 3686 f2bd
000003a0: 54b3 70bd 564b 22be d890 22bd c710 d2bd
000003b0: 4099 f7bd cf98 6fbd 1460 1ebe fb55 99bd
000003c0: 05d2 8a3e 161a c23e eb8e 713e f7e6 bc3e
000003d0: 4ecd 653d d958 de3e 4004 023f e5fe e93e
000003e0: 484e 1e3f 1e97 7e3f 378a 663f 9524 ca3e
000003f0: 3e7d 0a3f 8577 5a3f ffa7 0e3f 04f1 123f

conv2.bias f4 [20]
-0.16903198 -0.00046348607 0.077668555 0.23309426 0.16064519 -0.036344558 0.13919678 0.11424177
-0.032168906 -0.0428342 0.076666884 -0.36516687 -0.050275955 0.025036497 0.04034558 0.016109657
0.0909377 -0.32821837 -0.15478338 0.10282684
00000000: b816 2dbe 0c00 f3b9 b110 9f3d 43b0 6e3e
00000010: 2c80 243e 08de 14bd 9a89 0e3e 97f7 e93d
00000020: 8bc3 03bd ea72 2fbd 8703 9d3d 27f7 babe
00000030: 29ee 4dbd 5719 cd3c 6841 253d 66f8 833c
00000040: 8b3d ba3d 3d0c a8be 897f 1ebe e196 d23d

conv3.weight f4 [10, 20, 3, 3]
-0.11812063 -0.05001554 -0.032726847 -0.32766628 -0.27472255 -0.17024244 -0.27641693 -0.050068848
-0.10604798 -0.4842257 -0.6312884 -0.6686687 -0.64845365 -0.7444438 -0.63172895 -0.6454465
-0.7388066 -0.5835662 -0.19342981 -0.50662726 -0.5453434 -0.8985348 -0.82221437 -0.83082235
-0.97860795 -0.683044 -0.9571178 -0.19631104 -0.17421627 -0.14286533 -0.16430339 0.4251145
-0.010079414 -0.19332854 0.039957773 -0.034767576 -0.014833491 -0.07554349 -0.119185835 0.3035529
0.044966932 0.18666817 0.25189677 0.090776704 0.2345315 0.18374747 0.057321023 0.19128741
-0.119409606 -0.042970885 -0.072749056 -0.09908359 0.039634086 0.058237184 -0.40593192 -0.48441434
-0.45422673 -0.019068297 -0.055408645 -0.13456711 -0.079733714 -0.19597507 -0.11385425 -0.32635766
-0.30383492 -0.2573614 -0.04824186 0.05282478 -0.14376345 0.04330138 -0.081853904 -0.06352287
-0.11348502 -0.21269046 -0.12374986 0.19714779 0.47097647 0.06059041 0.19973116 0.18095292
0.20796354 -0.5736573 -0.3894743 -0.37133127 -0.29727623 -0.6663962 0.020226466 -0.2274998
-0.20115793 -0.11150294 -0.34416154 -0.36879128 -0.34080118 -0.2629203 -0.7117408 -0.424675
-0.30465537 -0.64777505 -0.30920997 -0.20064881 -0.103600465 -0.21548574 -0.16850296 0.21510987
0.04075939 -0.13905175 -0.051218785 0.108782835 -0.018006667 -0.3423404 -0.34437233 -0.104424
-0.19067378 -0.33249712 -0.23554622 -0.26506427 -0.101817474 -0.35452214 -0.3754239 -0.38839772
-0.23471683 -0.47781804 0.163364 -0.29414892 -0.25800386 -0.18450546 -0.3553975 -0.47307616
-0.3980711 -0.2751732 -0.5767792 -0.53755736 -0.33928558 -0.39078438 -0.5888211 -0.8589725
-0.90239877 -1.004134 -0.9830158 -0.9542117 -1.1258444 -1.016976 -1.1113617 -0.69953126
-0.8914431 -0.93301207 -0.98035955 -1.2731891 -0.4974339 -0.78479314 -1.206878 -0.6717684
-0.8143465 -0.013614414 0.17785831 0.16663995 0.10426701 -0.15713994 -0.088416986 0.056537636
-0.20561525 -0.043321457 -0.50733906 -0.5301401 -0.46228763 -0.10993427 -0.14155613 -0.09977401
-0.1506642 -0.16126682 -0.24292506 -0.30155516 -0.20592962 -0.29541188 -0.080374055 0.02033637
-0.1722001 -0.06835224 -0.07476047 -0.16031821 -0.35107887 -0.27405584 -0.2735898 -0.28696805
-0.10115011 -0.28867298 -0.30449927 -0.2638339 -0.18053468 -0.33524144 -0.44959646 -0.44280082
-0.35264882 -0.017584821 -0.26810703 -0.27562308 -0.42124587 -0.31709743 -0.45367435 -0.3422829
-0.4764765 0.08554429 -0.24460362 -0.27413744 0.0030419403 -0.33435357 -0.46372133 -1.002111
-0.89921045 -0.82664144 -1.2808467 -0.43183863 -0.5768773 -1.1457343 -0.55211836 -0.70784223
-0.0055825226 -0.3730255 -0.348398 -0.63307446 -0.21792711 -0.29943043 -0.5788766 -0.47937202
-0.56346726 -0.7109104 -0.37495878 -0.3747028 -0.27045497 -0.103828624 0.08417935 -0.35719827
-0.030640066 0.10727165 -0.45778894 -0.1927602 -0.24062419 -0.14224197 -0.13151269 -0.019411147
-0.029434131 -0.122295246 -0.048781965 -0.35718372 -0.11837146 -0.11628206 -1.0667307 -0.55236685
-0.6058522 -1.0559156 -0.54690725 -0.7758893 -1.0180652 -1.0386089 -1.0297611 -0.9901444
00000000: 3be9 f1bd 18dd 4cbd 960c 06bd e0c3 a7be
00000010: 6fa8 8cbe 0954 2ebe 8586 8dbe fe14 4dbd
00000020: af2f d9bd 6eec f7be 1e9c 21bf df2d 2bbf
00000030: 0f01 26bf de93 3ebf fdb8 21bf fb3b 25bf
00000040: 6e22 3dbf 9864 15bf 7712 46be 53b2 01bf
00000050: a09b 0bbf 6006 66bf a47c 52bf c6b0 54bf
00000060: 0d86 7abf f9db 2ebf ac05 75bf c305 49be
00000070: c065 32be 4a4b 12be 263f 28be 9ca8 d93e
00000080: 2024 25bc ebf7 45be c3aa 233d 7268 0ebd
00000090: 2c08 73bc 8cb6 9abd b417 f4bd 496b 9b3e
000000a0: 3f2f 383d f125 3f3e 9df8 803e 23e9 b93d
000000b0: 0729 703e 4c28 3c3e 73c9 6a3d d9e0 433e
000000c0: 068d f4bd 3d02 30bd 75fd 94bd 56ec cabd
000000d0: 5a57 223d 1d8a 6e3d 4fd6 cfbe 2805 f8be
000000e0: 6890 e8be 1e35 9cbc 2df4 62bd f6cb 09be
000000f0: 6e4b a3bd b0ad 48be 6b2c e9bd 5a18 a7be
00000100: 4090 9bbe e0c4 83be 4299 45bd cc5e 583d
00000110: ba36 13be ca5c 313d 05a3 a7bd 4718 82bd
00000120: d66a e8bd 87cb 59be 9170 fdbd 1ce1 493e
00000130: d423 f13e a62d 783d 5386 4c3e b94b 393e
00000140: 65f4 543e 34db 12bf 2d69 c7be 221f bebe
00000150: 9734 98be f198 2abf f9b1 a53c b5f5 68be
00000160: 58fc 4dbe a75b e4bd f135 b0be 36d2 bcbe
00000170: 7e7d aebe 7d9d 86be a534 36bf 006f d9be
00000180: cafb 9bbe 96d4 25bf c550 9ebe e276 4dbe
00000190: 7b2c d4bd 4ba8 5cbe 0a8c 2cbe c345 5c3e
000001a0: 51f3 263d 9563 0ebe caca 51bd 89c9 de3d
000001b0: b882 93bc 3e47 afbe 9251 b0be 40dc d5bd
000001c0: fd3f 43be 103d aabe 0733 71be 81b6 87be
000001d0: ae85 d0bd ed83 b5be 9037 c0be 11dc c6be
000001e0: 9c59 70be 91a4 f4be e448 273e b09a 96be
000001f0: 1519 84be 00ef 3cbe a9f6 b5be 0a37 f2be
00000200: facf cbbe 80e3 8cbe cda7 13bf 5c9d 09bf
00000210: d7b6 adbe e414 c8be fbbc 16bf 9fe5 5bbf
00000220: 9b03 67bf 7787 80bf eca6 7bbf 3847 74bf
00000230: ab1b 90bf 452c 82bf 1a41 8ebf 7b14 33bf
00000240: 9d35 64bf e1d9 6ebf d8f8 7abf dcf7 a2bf
00000250: a8af febe 34e8 48bf fa7a 9abf 04f9 2bbf
00000260: 0379 50bf fe0e 5fbc 7d20 363e aaa3 2a3e
00000270: f189 d53d 4be9 20be f713 b5bd 0294 673d
00000280: ce8c 52be d771 31bd f9e0 01bf 43b7 07bf
00000290: f7b0 ecbe 3825 e1bd 17f4 10be 5156 ccbd
000002a0: b747 1abe 2123 25be 59c1 78be 7065 9abe
000002b0: 37df 52be 3a40 97be 279b a4bd 7698 a63c
000002c0: 3955 30be 42fc 8bbd 041c 99bd 752a 24be
000002d0: 9cc0 b3be 0c51 8cbe f613 8cbe 7aed 92be
000002e0: ca27 cfbd f2cc 93be 54e7 9bbe 3d15 87be
000002f0: 15de 38be c4a4 abbe 8231 e6be cab6 e2be
00000300: 638e b4be 0b0e 90bc 5345 89be 781e 8dbe
00000310: 8aad d7be 985a a2be 0148 e8be b43f afbe
00000320: baf4 f3be d831 af3d 5f79 7abe be5b 8cbe
00000330: 4a5b 473b 6430 abbe e26c edbe 2c45 80bf
00000340: a832 66bf c69e 53bf c9f2 a3bf f419 ddbe
00000350: 3bae 13bf 6ca7 92bf a157 0dbf 2635 35bf
00000360: 98ed b6bb 33fd bebe 3961 b2be 2b11 22bf
00000370: 4928 5fbe f24e 99be 4231 14bf 4070 f5be
00000380: 643f 10bf 39fe 35bf 99fa bfbe 0cd9 bfbe
00000390: 1379 8abe 1aa4 d4bd 3966 ac3d b1e2 b6be
000003a0: e000 fbbc 3db1 db3d 5063 eabe ee62 45be
000003b0: 3066 76be e1a7 11be 43ab 06be 2004 9fbc
000003c0: d91f f1bc ee75 fabd 99cf 47bd c9e0 b6be
000003d0: bc6c f2bd 4a25 eebd a28a 88bf ea67 0dbf
000003e0: 2119 1bbf 3e28 87bf 1d02 0cbf aea0 46bf
000003f0: f64f 82bf 23f1 84bf 36cf 83bf 1a7a 7dbf

conv3.bias f4 [10]
-0.0035912166 -0.12794267 0.17790687 -0.03345188 0.05384064 -0.30309203 -0.11716347 -0.07164895
-0.09483546 0.004819953
00000000: 9e5a 6bbb 6703 03be 382d 363e d704 09bd
00000010: 0188 5c3d e12e 9bbe 67f3 efbd afbc 92bd
00000020: 1839 c2bd b2f0 9d3b

linear.weight f4 [4, 160]
-0.16226228 0.07855211 0.28339818 -0.37370062 -0.081445284 -0.2220598 -0.22237363 0.013149248
-0.03207412 -0.2559941 -0.043448143 0.14389612 -0.06298606 0.15153295 -0.12938164 -0.05201905
0.258337 -0.06424002 -0.42621866 0.1123043 0.08266636 0.13909261 0.13372582 -0.21630237
0.104049705 -0.07963585 -0.039947886 -0.1900529 -0.16689862 0.02822634 -0.08355443 0.06873211
-0.18503901 0.10345089 0.021292511 -0.06739774 0.17113675 -0.10753492 0.041999105 0.23947093
0.065693356 -0.07508999 -0.23815686 0.41841835 -0.3401052 -0.31468254 -0.19714202 0.2386214
-0.15660086 -0.0011914701 -0.13379125 0.42992243 0.34339184 0.028858576 -0.029382108 0.42400044
-0.1804454 -0.13847886 -0.06256727 0.21169561 -0.083764546 -0.37120727 -0.30398118 -0.023680205
-0.11633408 -0.013352365 0.13101229 0.11368651 -0.14366768 -0.38837376 0.117154464 0.0048267725
0.07249469 -0.0190195 -0.29339138 -0.12006163 0.019866642 -0.12597975 -0.023933541 0.013692412
-0.13665727 0.079192616 -0.21976964 -0.14021906 0.11401374 -0.042990748 0.16034302 -0.36557484
0.10857386 0.029145455 -0.32161924 -0.43223277 -0.15526697 0.097768106 0.0053996206 0.15269983
0.22041132 -0.064150795 -0.28389907 -0.2156961 0.2484418 0.12991379 0.04764398 -0.19275649
-0.08335614 0.18018337 0.098906346 -0.14689189 -0.15049179 -0.13535051 -0.07841426 0.06643544
-0.20257609 -0.024325006 0.2802831 0.041800126 -0.057842538 -0.19966803 0.024095079 0.2731352
0.014094436 -0.014205192 -0.101831816 -0.07519075 -0.16750446 0.08621172 -0.10905134 -0.09456625
-0.102681994 0.18541308 -0.11257136 -0.15794021 -0.15881884 0.05599298 0.182084 -0.086529076
0.08939495 -0.25622892 -0.20654094 -0.5884949 -0.26652816 -0.13114941 0.006669873 0.12412171
0.07573266 0.014751053 0.19517376 -0.14785689 -0.20868176 -0.06472341 -0.08970565 -0.015749354
0.1141024 0.09894024 0.3046628 0.025364185 0.097238526 0.2656186 -0.0492581 -0.28585893
0.28953052 -0.22864331 0.15522958 0.18031657 0.03343059 -0.24682033 -0.07154229 0.076186016
0.10732405 -0.28509882 -0.0001082808 0.03942941 0.2263929 -0.09898797 0.1534882 0.1364234
-0.53343534 -0.07197958 0.20207237 0.12902562 -0.07503591 0.0007119002 -0.0141611695 -0.23124854
0.00968506 -0.29197985 0.1294353 -0.17062989 -0.2090341 0.0127995005 -0.043719947 -0.021229846
0.32301924 -0.0548074 -0.2598983 -0.059465878 0.49064124 0.21159624 -0.065404154 -0.05636164
0.2655804 -0.19225104 -0.14126341 0.03479741 0.24216282 -0.2349325 0.012437346 -0.5318124
-0.16747911 0.1346977 -0.35934848 -0.21657409 0.58377725 0.26835367 -0.095533796 -0.1205851
0.015831385 -0.08104093 0.17459524 -0.0061770407 0.40326872 -0.17383836 -0.021075817 0.085795745
-0.14806871 -0.013996468 0.22311524 0.12807246 -0.0830439 -0.06984879 0.11775104 0.281824
0.25937206 -0.3190126 0.13738993 0.055479676 0.063415796 0.0037672166 0.37345004 0.43899912
-0.42913467 -0.0058666416 0.3332621 0.08673244 -0.055107545 0.18225053 0.011551348 -0.0968217
-0.12314874 -0.29938677 -0.00075570215 -0.4178446 -0.24909745 0.15774617 -0.05842941 0.06324157
00000000: 1528 26be eedf a03d 9119 913e b055 bfbe
00000010: c9cc a6bd a563 63be eab5 63be f26f 573c
00000020: 2760 03bd a911 83be aef6 31bd 8159 133e
00000030: d6fe 80bd 742b 1b3e 9f7c 04be ed11 55bd
00000040: bf44 843e 4690 83bd 5539 dabe ccff e53d
00000050: fb4c a93d 4b6e 0e3e 6cef 083e 5e7e 5dbe
00000060: 0318 d53d 1f18 a3bd 65a0 23bd 3a9d 42be
00000070: 79e7 2abe ed3a e73c 961e abbd 6cc3 8c3d
00000080: de7a 3dbe 0fde d33d a26d ae3c d407 8abd
00000090: 793e 2f3e 453b dcbd 4107 2c3d de37 753e
000000a0: 3d8a 863d c8c8 99bd 64df 73be ee3a d63e
000000b0: 4522 aebe 121e a1be 99df 49be 2b59 743e
000000c0: fa5b 20be 1a2b 9cba 9300 09be cb1e dc3e
000000d0: 0ed1 af3e d268 ec3c bfb2 f0bc 9616 d93e
000000e0: aec6 38be 67cd 0dbe 4523 80bd bcc6 583e
000000f0: bf8c abbd e10e bebe 6ca3 9bbe fdfc c1bc
00000100: 9040 eebd e1c3 5abc 1628 063e 79d4 e83d
00000110: 9f1d 13be edd8 c6be aeee ef3d e729 9e3b
00000120: 1978 943d c8ce 9bbc 6537 96be dfe2 f5bd
00000130: 5ebf a23c d600 01be 4610 c4bc 2356 603c
00000140: e2ef 0bbe bd2f a23d 4b0b 61be 9695 0fbe
00000150: 0980 e93d 1117 30bd f630 243e a02c bbbe
00000160: f95b de3d 73c2 ee3c 47ab a4be 9d4d ddbe
00000170: 4efe 1ebe a53a c83d 4def b03b 585d 1c3e
00000180: 81b3 613e 7e61 83bd 385b 91be 70df 5cbe
00000190: 8767 7e3e 1f08 053e 5526 433d f561 45be
000001a0: a0b6 aabd fd81 383e 698f ca3d d46a 16be
000001b0: 851a 1abe 5399 0abe a897 a0bd 4e0f 883d
000001c0: 1b70 4fbe 3c45 c7bc 4481 8f3e 9c36 2b3d
000001d0: 4cec 6cbd c775 4cbe 0b63 c53c 60d8 8b3e
000001e0: 59ec 663c e5bc 68bc 338d d0bd 9cfd 99bd
000001f0: 4a86 2bbe c58f b03d 4f56 dfbd f3ab c1bd
00000200: f04a d2bd eddc 3d3e d08b e6bd 14bb 21be
00000210: 68a1 22be e558 653d 3a74 3a3e 2836 b1bd
00000220: b314 b73d 7030 83be 787f 53be 9aa7 16bf
00000230: 6176 88be 084c 06be f38e da3b 8633 fe3d
00000240: ba19 9b3d 67ae 713c a1db 473e cc67 17be
00000250: acb0 55be b58d 84bd 99b7 b7bd ca04 81bc
00000260: 85ae e93d 2ea1 ca3d c3fc 9b3e 8dc8 cf3c
00000270: fe24 c73d 29ff 873e ddc2 49bd 1a5c 92be
00000280: 583d 943e 7921 6abe 81f4 1e3e e8a4 383e
00000290: 84ee 083d 78be 7cbe c484 92bd 6a07 9c3d
000002a0: b6cc db3d 79f8 91be d014 e3b8 bc80 213d
000002b0: 8ad3 673e 34ba cabd 032c 1d3e 93b2 0b3e
000002c0: 388f 08bf 086a 93bd 0fec 4e3e 4b1f 043e
000002d0: 6dac 99bd d09e 3a3a 4004 68bc 6bcc 6cbe
000002e0: 16ae 1e3c 627e 95be b08a 043e 9ab9 2ebe
000002f0: 090d 56be ffb4 513c b013 33bd 37ea adbc
00000300: c762 a53e b97d 60bd 6411 85be 7e92 73bd
00000310: 5435 fb3e afac 583e 9df2 85bd 77db 66bd
00000320: 27fa 873e 75dd 44be 5ba7 10be bb87 0e3d
00000330: 88f9 773e 2592 70be 03c6 4b3c dc24 08bf
00000340: a57f 2bbe 32ee 093e 86fc b7be 99c5 5dbe
00000350: 6d72 153f a765 893e 39a7 c3bd 52f5 f6bd
00000360: d2b0 813c c9f8 a5bd 18c9 323e c668 cabb
00000370: 3d79 ce3e af02 32be 31a7 acbc aeb5 af3d
00000380: 539f 17be 7151 65bc 5278 643e 6d25 033e
00000390: ec12 aabd e20c 8fbd 7527 f13d 3c4b 903e
000003a0: 6acc 843e 9f55 a3be f2af 0c3e a83e 633d
000003b0: 24e0 813d 68e3 763b d834 bf3e 7ec4 e03e
000003c0: 8ab7 dbbe f53c c0bb 54a1 aa3e c7a0 b13d
000003d0: 73b8 61bd e29f 3a3e dd41 3d3c 754a c6bd
000003e0: 6835 fcbd 3949 99be 501a 46ba baef d5be
000003f0: 6713 7fbe 3688 213e ad53 6fbd cc84 813d

linear.bias f4 [4]
-0.076283105 0.08954433 -0.029258598 -0.062452845
00000000: 513a 9cbd 0563 b73d baaf efbc 8ece 7fbd
