2048AI_model_3_lr_0.01_ver_2.pt (torch_old, 36117 bytes, 8 tensors)

conv1.weight f4 [10, 3, 10, 10]
000000 4d fc 85 3d ab 5d 06 3d 32 70 1a 3e 02 6c 6c 3e
       0.06542263 0.032804172 0.15081862 0.23088077
000010 a2 37 85 3e 4c e0 81 3e 1e ee 0d 3e 85 ca 80 3e
       0.26019007 0.25366437 0.13860366 0.2515451
000020 87 ba 71 3e 40 2d 3d 3e cb de 00 3e a4 15 27 3e
       0.23606311 0.18474293 0.12584989 0.16316849
000030 d9 b7 01 3e 79 b3 82 3e 8f 6d 00 3f aa 2c b4 3e
       0.12667789 0.25527552 0.50167173 0.35190326
000040 6f d0 91 3e 23 c4 ac 3e 2d 56 9e 3e 14 f3 a5 3e
       0.28479335 0.3374339 0.30925122 0.32412016
000050 e4 ab b4 3d c9 2f 2f 3e 46 66 17 3e a9 79 ab 3e
       0.08821848 0.17108072 0.14785108 0.33491257
000060 d6 a3 0b 3f e6 9e e8 3e 74 48 8e 3e 5f 4b a4 3e
       0.5454687 0.4543373 0.27789652 0.32088754
000070 aa 0c 8f 3e cf 53 c0 3e cd 4b ad 3e b8 fd 98 3e
       0.2793935 0.3756394 0.33846894 0.29881072
000080 06 42 7f 3e ad 3f f7 3e 13 e0 33 3f 98 63 11 3f
       0.2492753 0.48290768 0.70263785 0.56792593
000090 e2 bd f2 3e ff 95 fd 3e 54 a2 00 3f 87 01 ed 3e
       0.47410494 0.495285 0.50247693 0.46290228
0000a0 79 71 c7 3e 02 56 46 3e 52 cf 95 3e ac 25 ef 3e
       0.3895376 0.19368747 0.29259735 0.4670843
0000b0 42 de 3b 3f bf ec 1f 3f 95 9c fc 3e e3 0d 0f 3f
       0.73386014 0.6247062 0.49338213 0.55880564
0000c0 89 f8 f6 3e 13 68 00 3f 6f df b5 3e 7c 9c 80 3e
       0.48236492 0.50158805 0.3552203 0.25119388
0000d0 15 02 53 3e 87 7e de 3e 38 f5 25 3f 17 5d 14 3f
       0.20606263 0.43455908 0.648273 0.57954544
0000e0 ad 86 e0 3e 19 1e fd 3e 39 05 0c 3f ee 64 f3 3e
       0.4385275 0.49437025 0.5469547 0.4753794
0000f0 41 b1 8e 3e f4 3a 9c 3e d8 aa 7e 3e ca 09 cd 3e
       0.2786961 0.30513728 0.24869859 0.4004653
000100 6d e6 16 3f 27 52 ea 3e cb 7a cf 3e a5 0c db 3e
       0.5894535 0.45765802 0.4052337 0.42783085
000110 43 94 06 3f 93 05 d8 3e 57 0d af 3e 66 cd 87 3e
       0.5256998 0.42191753 0.34189865 0.26523894
000120 50 ac 7d 3e ed 34 fb 3e ad 72 09 3f 1b 7c 0b 3f
       0.24772763 0.49063817 0.53690606 0.54486245
000130 90 84 d6 3e f8 40 e8 3e 69 b7 10 3f 11 cf ee 3e
       0.41898012 0.45362067 0.5652986 0.46642354
000140 e8 0c 90 3e ec fd 8c 3e e6 0c 8b 3e 6e 84 c9 3e
       0.28134847 0.27537477 0.27158278 0.39358848
000150 d2 f2 0e 3f f8 40 f9 3e 57 19 a9 3e 56 7b b9 3e
       0.55839264 0.4868238 0.33027145 0.3622691
000160 bb fa 9f 3e fa 9e a7 3e bd a4 ab 3e 40 e3 6f 3e
       0.3124598 0.32738477 0.33524123 0.23426533
000170 fb bd 9a 3e 37 a9 de 3e 66 b9 11 3f c5 08 09 3f
       0.3022307 0.43488476 0.5692352 0.53529006
000180 ea ac d2 3e eb 39 a6 3e 8b 80 a9 3e 66 72 a9 3e
       0.41147548 0.32466063 0.33105883 0.33095092
000190 58 17 03 be 7c 01 da bd 69 ac 28 be ed 85 11 bd
       -0.12801874 -0.10644814 -0.1647202 -0.035528112
0001a0 35 5c 39 3c e1 02 02 bd 46 76 a9 bd 3f fa bc bd
       0.011313488 -0.031741027 -0.08274512 -0.09227418
0001b0 57 db ff bb 4f 56 51 bd 8a c7 91 be ad ee ab be
       -0.00780813 -0.0511077 -0.2847255 -0.33580533
0001c0 b2 99 66 be e7 aa 35 be 85 8a be bd 4b 0a af bd
       -0.22519568 -0.17740975 -0.09303764 -0.08546885
0001d0 43 57 06 be d1 a1 6e be 29 15 57 be 6a 36 f8 bd
       -0.13119225 -0.23303916 -0.21004166 -0.12119754
0001e0 c5 8c 54 be 39 5a 59 be 66 9b 7c be fe e7 f8 bd
       -0.20756824 -0.21225823 -0.24668655 -0.12153624
0001f0 79 35 e9 bd dc 4f 00 be 01 c9 02 be d8 ef 1a be
       -0.11387152 -0.12530464 -0.1277199 -0.15130556
000200 f4 b6 0c be a5 d9 10 be 84 74 4d be d7 76 1e be
       -0.13741666 -0.14145525 -0.20063978 -0.15475021
000210 cb 3b 36 be 02 6e 97 bd 5d 59 23 bd 7b 38 38 bc
       -0.17796247 -0.07394029 -0.039880145 -0.011243935
000220 e2 a8 f8 bd b6 4d 4d bd ad ce 12 bd df 1c b8 bd
       -0.12141587 -0.05012294 -0.035841633 -0.08989882
000230 51 83 b9 bd 9d 04 10 be 6b 67 c8 bd 77 86 5c bd
       -0.0905825 -0.1406426 -0.097853504 -0.053839173
000240 15 de 82 bc 05 45 54 bd 57 bc 90 bd 7b 44 e1 bd
       -0.015975038 -0.051823635 -0.07067173 -0.1099939
000250 da b8 60 bd a6 eb 25 bd 15 d5 1d be 0b 75 e9 bd
       -0.05486379 -0.040507935 -0.15413316 -0.11399277
000260 af f3 26 be 8d cd ef bd 47 a5 eb 3d d0 f5 77 3d
       -0.16303895 -0.117091276 0.115061335 0.06053716
000270 29 9b 60 3d bb c6 10 ba 38 45 d9 bc 22 ef f8 3b
       0.054835472 -0.0005522777 -0.026522264 0.007596866
000280 73 4f 72 be f8 63 53 be 6e 1d 71 be 70 e3 0a be
       -0.2366312 -0.20643604 -0.23546383 -0.13563323
000290 ba ef 27 bd ab b9 13 bd cc 87 68 bd cd cf 2f bd
       -0.041000105 -0.03606574 -0.05677013 -0.042922784
0002a0 11 63 6d bd 21 a4 34 bd ff 1d 30 be bf 94 28 be
       -0.057955805 -0.044101838 -0.17198943 -0.16462992
0002b0 5b 6d 61 be 7d dc 35 be 2f 62 b0 bd da 77 04 bd
       -0.22014372 -0.17759891 -0.08612477 -0.03234086
0002c0 10 ed 87 bd 83 3a 9c bd c8 8a 95 bd c4 25 46 bd
       -0.06637013 -0.07628348 -0.07301861 -0.04837586
0002d0 18 d4 27 be 41 23 e2 bd 62 59 53 be ab fb a3 bd
       -0.16389501 -0.110418804 -0.20639566 -0.08006986
0002e0 68 b7 31 bd 54 f7 2b bd 05 d6 23 be ef f4 04 be
       -0.0433878 -0.041983917 -0.1599961 -0.1298406
0002f0 d9 28 02 be 84 67 fc bc 88 91 cf bd 14 c8 1b bd
       -0.12710895 -0.030811079 -0.1013518 -0.038032606
000300 6e 43 df bd e0 b2 94 bd 97 df a8 3c f0 c7 5d bd
       -0.10901533 -0.0726068 0.020614428 -0.054145753
000310 57 ed bd bd 74 07 82 bd 0e 47 12 be 0c 7a ae bd
       -0.092737846 -0.06349078 -0.14284918 -0.08519372
000320 73 b4 ea bd 5d bc 22 be b8 73 bb bd fc 83 f4 bd
       -0.11460199 -0.15892167 -0.09152931 -0.119392365
000330 ca 62 d7 bc 22 da 94 bd e8 11 05 be 89 cf c4 bd
       -0.026292223 -0.07268168 -0.12995112 -0.09609897
000340 70 98 f3 bd 0f 90 19 bd 24 32 3e be 0f 5a 43 be
       -0.118943095 -0.0374909 -0.18573815 -0.19077323
000350 af fc 55 be d4 5c 3b be 6d ca 39 be 43 87 40 be
       -0.20897172 -0.1829713 -0.18143626 -0.18801598
000360 23 f7 65 be 41 bb ed bd 17 16 3c be 9a fa 03 be
       -0.22457556 -0.116079815 -0.18367802 -0.12888566
000370 7a 91 1b be b7 9c e6 bd dc 19 2f be 34 65 ed bd
       -0.15192214 -0.1126036 -0.17099708 -0.115915686
000380 50 a4 04 be 4d 72 45 be cd 4c 20 be 0e 4e 04 be
       -0.12953305 -0.19281884 -0.15654297 -0.129204
000390 62 e4 14 be 20 b1 32 be 9d a4 8d bd a3 12 d2 bd
       -0.14540246 -0.1745038 -0.06916163 -0.10257461
0003a0 db 30 cd bd 3f 33 16 be ef 09 84 bc 9f a0 14 be
       -0.10019084 -0.14667986 -0.016118018 -0.14514397
0003b0 3a a3 7d bd 51 7f 00 be 02 b8 ad bd 04 ef d5 bd
       -0.061923243 -0.12548567 -0.08482362 -0.10445979
0003c0 5e d6 99 bd 0b 7d 9b bd 9b e4 8f bd 4f 92 c0 bd
       -0.075115904 -0.075922094 -0.07026025 -0.09402906
0003d0 96 ee a6 bb e4 40 f7 bd 29 f9 ff bd bd bd 1a be
       -0.0050943596 -0.12072924 -0.124986954 -0.15111442
0003e0 db fb e5 bd 71 85 24 bd 6c ed 6a bd 83 d9 81 bd
       -0.11229678 -0.040166322 -0.05735533 -0.06340315
0003f0 5f 3d da bd 45 c7 ae bd 8e 51 a0 bc 2e 87 b0 bc
       -0.10656237 -0.085341014 -0.019570138 -0.021548834

conv1.bias f4 [10]
000000 a6 5c 11 bd d5 ea 98 3e b2 02 10 be 0a 48 9f be
       -0.035488747 0.29866663 -0.14063528 -0.3110965
000010 12 b3 27 3e 49 df 31 3e 6c 8e b3 3e 75 b9 0e be
       0.16376904 0.17370333 0.35069597 -0.13937934
000020 d6 29 82 be 9f 16 13 3e
       -0.25422543 0.14364098

conv2.weight f4 [20, 10, 4, 4]
000000 7c 18 77 bd 4a 1c 7d 3d 6d 5a bf 3c fd 56 83 3e
       -0.060326084 0.061794557 0.023358548 0.25652304
000010 59 29 b3 3b 62 f1 cf 3e ff 16 de 3e 13 47 bb 3e
       0.0054675755 0.40613848 0.4337692 0.36577663
000020 dd c0 2d 3d 64 80 fe 3e ef 22 c4 3e 8d 1d 75 3e
       0.042420257 0.4970733 0.38307902 0.23937054
000030 78 62 0c 3e ed 05 f2 3e 72 21 a4 3e f3 49 c5 3e
       0.13709438 0.47270146 0.32056767 0.3853298
000040 29 a8 8b bd 39 ed 98 3d 5e 65 5b 3e bd a9 e0 3e
       -0.068191834 0.07467122 0.21425387 0.438795
000050 41 d9 38 3c 51 01 d6 3e 1e 1b d6 3e 26 e5 37 3e
       0.011282266 0.4179788 0.41817564 0.17958507
000060 44 35 f5 38 97 90 2d 3f 3b 24 1d 3f f9 68 da 3e
       0.00011692432 0.6779875 0.6138341 0.42658213
000070 13 29 0b 3e 1c 07 35 3f d8 fd 9c 3e 7f 58 ad 3e
       0.13589887 0.70713973 0.30662417 0.3385658
000080 4e 52 cb 3c e0 8e d8 be a3 96 23 3d a0 0c b4 be
       0.02481952 -0.42296505 0.03993858 -0.35165882
000090 2b da 94 bd 7a 91 68 bd f5 34 ab 3e 82 bd 6e 3e
       -0.07268175 -0.056779362 0.3343884 0.23314479
0000a0 76 b8 8a 3d ec c4 34 be 92 e7 8d 3e 8e d7 ec 3e
       0.067734644 -0.17653245 0.27715737 0.46258205
0000b0 c5 bb 21 3e 2d 27 be be 6b 12 e6 3e 97 d2 0b 3e
       0.15794285 -0.37139264 0.44935927 0.13654552
0000c0 6b 75 21 bc 2f e4 ce bb b4 3d 01 3e 8c 2f 09 3e
       -0.009854655 -0.0063138227 0.12621194 0.13397044
0000d0 38 de a4 3c 12 fd 7e 3d 99 ef dc 3d 18 7d 59 3e
       0.020125493 0.062253065 0.10787887 0.21239126
0000e0 bb 3c 9d 3d 33 39 28 3e c0 29 11 3e ab b6 08 3e
       0.07677599 0.1642807 0.14176083 0.13350932
0000f0 2a 64 41 3e c9 84 35 3e ca 60 af 3d 08 96 0c 3e
       0.18885866 0.17726435 0.08563383 0.13729107
000100 6a 29 a7 3e 1e 57 d6 be f5 64 1f 3e 00 76 8b be
       0.32648784 -0.4186334 0.15565856 -0.27238464
000110 86 bf 19 be af 4b 4f be 6e d9 f3 3c 98 be 67 3e
       -0.15014467 -0.20243715 0.029766764 0.226313
000120 23 36 d5 3e ae 5d 08 bf b5 8e b3 3e 0d 7e 33 3e
       0.41642866 -0.53267944 0.35069814 0.17528553
000130 ff 34 17 3f 6a fb ce be fa d2 9d 3e 40 22 b1 3d
       0.5906524 -0.4042619 0.30825025 0.08649111
000140 48 26 cf bd ed d9 3a 3e 9e a8 31 3e 30 6b d1 3e
       -0.101147234 0.18247195 0.17349479 0.4090209
000150 01 30 12 bd c8 ee 8f 3e d2 fc a3 3e 40 2e 69 3e
       -0.03569031 0.28111863 0.32028824 0.22771549
000160 7b 80 3e 3d c8 5b c9 3e 29 79 c3 3e a9 4e 89 3e
       0.046509247 0.39327836 0.38178375 0.26817825
000170 42 23 fe 3d 9b 7b f8 3e 88 fc b4 3e fe 39 9b 3e
       0.12409069 0.48531803 0.35348916 0.30317682
000180 19 f5 34 bc 5b 5c f6 3d ff ad 6f 3d 60 d2 93 3e
       -0.011044764 0.12029334 0.058515545 0.2887144
000190 26 57 da 3d 00 9c 8d 3e e6 58 0d 3e 85 74 62 3e
       0.106611535 0.2765808 0.13803443 0.22114761
0001a0 e4 61 2d 3e 2a 3e 96 3e 44 19 82 3e 15 78 52 3d
       0.16931874 0.29344302 0.254099 0.05138405
0001b0 9d 03 82 3e 30 95 9a 3e ab 28 39 3e 40 58 42 3e
       0.25393382 0.30191946 0.1808192 0.18978977
0001c0 0b cc 69 bd 66 31 3b 3e 92 e9 40 3e ee ce b3 3e
       -0.057079356 0.18280563 0.188391 0.35118812
0001d0 a5 4a 67 3c 03 39 b2 3e 8c 41 78 3e 6c 4f 79 3e
       0.014116918 0.3480912 0.24243754 0.24346703
0001e0 f5 99 77 3e 18 ec 3e 3f aa d5 ec 3e ea 90 8e 3e
       0.24179824 0.74579 0.46256763 0.27844936
0001f0 d4 4a 79 3e c2 8c 1f 3f 4f 2f cc 3e b3 6a e3 3e
       0.24344951 0.62324154 0.39879844 0.44417343
000200 8c ee fd 3e 28 69 d0 be a6 cb 8c 3c 3f 42 c9 be
       0.4959606 -0.40705228 0.01718695 -0.39308354
000210 06 ca 1c 3e d6 9d 10 be 9b ce 84 3d ec c8 be 3d
       0.15311441 -0.1412271 0.06484719 0.093156666
000220 bb b6 13 3f 76 72 c1 be 75 ae b0 3e 64 e0 46 3e
       0.577007 -0.3778264 0.345081 0.19421536
000230 71 03 3d 3f a7 fc a5 be 23 df 95 3e 0b eb 60 3e
       0.73833376 -0.3241932 0.29271802 0.21964662
000240 94 73 d8 3c 96 28 a7 bd ae f8 28 bd 4c a0 bb bc
       0.0264223 -0.08162038 -0.041252784 -0.022903584
000250 41 9d fb 3d 32 8a 38 3e df fe 94 3d c3 ad 21 3e
       0.12285853 0.18021467 0.07275175 0.15788941
000260 96 bf be bc 5c 1a 8f 3e 41 4f 15 3e 2f 52 13 3e
       -0.023284715 0.27949798 0.14581014 0.1438682
000270 fd 10 67 3d 83 4d 13 3e 48 7e 74 3e 10 7a e4 3d
       0.056412686 0.14385037 0.23876297 0.11156094
000280 8f 6f e2 bd 52 2f 95 bc 0d 7e 84 bd 27 5e e1 3d
       -0.11056434 -0.01821104 -0.06469355 0.11004286
000290 a3 86 31 be 14 cf 37 3d 6b 86 1c be bd 92 90 3d
       -0.17336516 0.04487522 -0.15285651 0.07059238
0002a0 1a 73 ca bd 88 a5 5f 3e de 3a 81 3d ae b5 a1 bd
       -0.09885235 0.21840489 0.06310056 -0.07895981
0002b0 59 c6 5c bb 14 f1 80 3e e3 db b9 bb f0 4c 78 3e
       -0.003368756 0.25183928 -0.0056719645 0.242481
0002c0 19 cb 19 be 82 19 a3 bd ab e5 20 be 56 06 2c bc
       -0.15018882 -0.079638496 -0.15712611 -0.0104995575
0002d0 64 26 04 be 97 31 15 bd c9 c3 e2 bd af 9d 67 bc
       -0.1290527 -0.036424246 -0.11072499 -0.014136716
0002e0 d7 0d 94 3d fe 91 38 3e 2a f0 2e 3d 68 ea af bd
       0.07229202 0.18024442 0.042709507 -0.08589631
0002f0 60 d3 ae 3d b8 4d 3a 3e 08 0f 84 3c a3 d6 83 3e
       0.0853641 0.1819371 0.016120449 0.25749692
000300 58 92 2b be 56 e1 98 be 4c 73 8f bd ff f3 9e be
       -0.16755044 -0.29859418 -0.07004413 -0.3104553
000310 1c 13 21 be 6f 45 6b be 05 17 b7 bd 14 e8 c7 bd
       -0.15729946 -0.22975706 -0.089399375 -0.09761062
000320 19 b0 82 3d d0 45 95 3e c7 f3 bd 3c 5b a6 fc bd
       0.06381244 0.29154825 0.023187531 -0.12336417
000330 db e7 b3 3d 87 b8 93 3f ba 06 5b be 2f f0 4d 3f
       0.08784457 1.1540688 -0.21389285 0.80444616
000340 1c a5 11 be a1 4c 93 3d b2 e1 9a bd e3 b9 19 be
       -0.1422314 0.0719235 -0.07562579 -0.15012316
000350 06 01 de 3d 08 81 7b 3d 35 77 27 be 52 3e 82 be
       0.10840039 0.06140235 -0.16354068 -0.25438172
000360 79 a3 8a bd 89 be 4d 3d a4 13 93 bd 83 d2 d2 bd
       -0.06769461 0.050230537 -0.071814805 -0.10294058
000370 b9 55 c4 3d a6 10 ff 3d 80 73 38 3d b1 4e 73 be
       0.09586663 0.12454347 0.045032024 -0.23760487
000380 af 3d 21 bd fe d3 cc be 1d 5b ae bc 33 a7 31 be
       -0.039365467 -0.40005487 -0.02128368 -0.17348938
000390 61 58 1a be d9 97 5b be 2e 31 48 bd ec b8 be bc
       -0.15072776 -0.21444644 -0.048875026 -0.023281537
0003a0 10 b4 0a 3e 81 88 82 3e a4 c8 b4 3d fe 5c a3 bd
       0.13545251 0.2549477 0.08827332 -0.07976721
0003b0 d7 07 34 3e e3 6f 7e 3f 91 d0 68 be a0 a2 11 3f
       0.17581116 0.99389476 -0.22735812 0.5688877
0003c0 20 de 2d be a1 1f 8d bc 87 03 a0 bd 01 17 aa 3b
       -0.16979265 -0.017226996 -0.07813173 0.0051907306
0003d0 c4 47 a4 bd d0 a5 22 3c f8 57 32 bc 2a 8a 01 be
       -0.08021501 0.009927228 -0.010885231 -0.12650362
0003e0 6a 68 d2 bd 57 c2 9f 3e b1 29 a6 bd e4 b2 c3 bd
       -0.10273822 0.31202957 -0.08113421 -0.09555605
0003f0 74 82 c3 bd 19 e4 84 3e 00 38 13 3e 50 2d d9 3d
       -0.09546366 0.25955275 0.14376831 0.10604346

conv2.bias f4 [20]
000000 2a 1d b6 3d 5a 0b 88 bc c5 1e 7c bd 38 3e 1e bc
       0.08892281 -0.016606975 -0.06155278 -0.009658389
000010 44 38 f5 bb f5 9d b3 3d c3 a9 d9 bd 1d 35 f9 bd
       -0.007483514 0.08770362 -0.106280826 -0.12168334
000020 44 5d e2 3d 46 cd b7 3d 20 4c 6a 3d cb 94 b2 3c
       0.11052945 0.089747 0.057201505 0.021799466
000030 da 85 c2 bd bd 8d 08 be 0f 0e 3c bd a7 0b 3c 3d
       -0.094981864 -0.13335319 -0.045911845 0.04590955
000040 4c 3b 16 bd 74 5c b2 3a 67 e5 8f 3c bd 62 c6 3c
       -0.036677644 0.0013607875 0.017565442 0.024217004

conv3.weight f4 [10, 20, 3, 3]
000000 53 bd 25 bf c3 4b 00 3e a4 d7 ab 3d b8 3b d1 be
       -0.6474201 0.12528901 0.083907396 -0.40865874
000010 27 21 66 3e 93 a6 4e be 18 07 f8 be de fb 18 be
       0.22473584 -0.2018073 -0.48442912 -0.1493983
000020 29 5a 01 be 85 b7 c3 3d 4c 62 8f bb c6 38 d8 3c
       -0.1263205 0.09556488 -0.0043757316 0.02639426
000030 5a 66 88 bd ee 83 c1 bf 2a d3 fb be 6f 69 42 bd
       -0.06660147 -1.5118387 -0.49184543 -0.04746383
000040 e5 d5 39 be 76 f5 90 3d ff 3a 04 bd fc 51 16 3e
       -0.18148 0.07078068 -0.032282826 0.14679712
000050 21 7e 2b 3e 05 9f 07 bf 34 13 e8 be 1b 93 dd 3e
       0.16747333 -0.5297702 -0.4532715 0.43276295
000060 06 6f 29 bf 44 76 5c be b8 e8 0b 3f e7 3f 72 3e
       -0.66185033 -0.2152949 0.54651976 0.2365719
000070 bf 5a 5d bd 95 2c 40 bd 72 19 c4 3d de 84 bf bd
       -0.05404162 -0.046917517 0.09575166 -0.09351514
000080 3e b1 82 be 2a f0 0e 3e f4 c8 11 bd 6c 97 54 be
       -0.2552585 0.13958803 -0.035592034 -0.20760888
000090 2a fe fe be e9 3b a8 bb f5 2f cf 3d 21 fe 91 bd
       -0.49803287 -0.005134095 0.10116569 -0.07128549
0000a0 36 cb 90 3e 38 7b 4f bf 01 d5 29 be 6c d4 88 be
       0.28280038 -0.8104739 -0.16585161 -0.26724565
0000b0 6b d7 6a 3e 72 91 2b bc 8c ad d0 bd 8b f8 98 bd
       0.22933738 -0.010471689 -0.101893514 -0.07469281
0000c0 d4 f4 20 bd 8f d9 19 be 05 2b 14 be 44 18 ba bd
       -0.039295986 -0.15024398 -0.14469536 -0.090866596
0000d0 5a d9 4a be 33 6c 0e be ab 9a ab be cc 61 80 3e
       -0.19809476 -0.13908462 -0.3351644 0.25074613
0000e0 fc 2f 75 3e 95 57 01 bf 3a 06 01 3f cb 9c 01 3f
       0.23944086 -0.50524265 0.50400126 0.5062987
0000f0 61 8e 05 bf f3 fb 29 3e e2 1d 9c 3e 5a 76 87 3e
       -0.5217038 0.16600017 0.3049155 0.26457483
000100 98 e4 bd bd 79 50 5a bd 7d 73 14 3c 66 7f a0 bd
       -0.092721164 -0.0532994 0.009060738 -0.07836799
000110 6d 6f 96 bd 7d 1c 76 bd 0e db 17 be 6b e2 d8 bd
       -0.073454715 -0.060085762 -0.14829656 -0.10590061
000120 0e 8b a7 3e 94 e6 57 3e 11 9b b8 3e d9 a5 3e 3d
       0.32723278 0.21084052 0.36055806 0.046544883
000130 bb ca db 3d a5 bd 16 3e e2 99 b6 3d 07 60 f6 3d
       0.10732027 0.14720781 0.089160696 0.120300345
000140 f6 71 31 be ac 9e a8 3d 65 82 8d 3d da 3f f1 3d
       -0.17328629 0.08233389 0.069096364 0.11779757
000150 38 62 96 3e 93 19 c9 bd 2e 98 c6 be 5a 68 70 3e
       0.2937181 -0.09819331 -0.3878798 0.23477307
000160 99 b3 56 3e 43 f8 87 3d b7 6b ad bd 2f 15 e1 bd
       0.20966949 0.06639149 -0.084678106 -0.109903686
000170 64 d9 2e bd 8a 75 ce bd 07 3a 49 3d 1d 99 31 bf
       -0.04268779 -0.100810125 0.049127605 -0.6937426
000180 d4 f6 cc 3c e5 3d a8 3e ea ae b5 3e 5d 1a 5f 3e
       0.02502004 0.32859722 0.3548501 0.217874
000190 91 12 0b be d8 42 98 bb 31 c0 42 3d 3f da 82 bf
       -0.13581301 -0.0046466403 0.04754657 -1.0222853
0001a0 97 d2 08 bf f6 de de 3d 75 50 a4 bd 34 41 3f 3e
       -0.53446335 0.1088237 -0.080231585 0.18677217
0001b0 ed 2c 30 be 31 3e a4 3d db 41 40 3e 82 cd d4 be
       -0.17204638 0.080196746 0.18775122 -0.4156304
0001c0 cc 73 b4 3e 45 49 f1 be 14 bd ac be 27 ae 7a 3d
       0.35244596 -0.47126213 -0.33738005 0.06120124
0001d0 62 e1 20 3e 16 fb 34 be 1a 2c d5 bd 82 f9 4b be
       0.15710977 -0.17673907 -0.10408802 -0.19919398
0001e0 50 27 2b bd bd e4 39 be 43 93 b0 bf da c5 61 bd
       -0.04178554 -0.18153663 -1.3794941 -0.055120327
0001f0 09 43 3c 3c 95 2a 73 bc f3 83 b1 3e 95 79 94 3e
       0.011490592 -0.014841695 0.34670982 0.2899901
000200 8a f9 64 3e b5 bb 50 3d 07 b1 e4 3d 86 c5 30 bd
       0.22360817 0.05096026 0.11166578 -0.043157123
000210 10 52 38 3d f8 ea d6 3d f8 16 0a 3e e4 52 b6 3d
       0.045000136 0.104940355 0.13485324 0.08902529
000220 60 98 0a 3d 86 f4 d7 3d 0b 62 5a 3e 12 b1 53 bf
       0.033836722 0.10544686 0.21326463 -0.8269206
000230 cc bc 38 3d af d2 9f 3e 36 41 86 3e c8 09 0d 3e
       0.045101926 0.31215426 0.26221627 0.13773263
000240 38 cc f4 bd 82 6a 5a be fe 63 1c be 68 96 c1 3d
       -0.11953014 -0.21329692 -0.15272519 0.09452516
000250 fa 4c 0d bf fd 56 4c 3e cb 05 06 3e 95 bf da 3d
       -0.5519558 0.19955058 0.13088147 0.106810726
000260 f0 bc c3 3e f6 06 06 3e 14 ae 08 3e 26 45 8d 3e
       0.38230085 0.13088593 0.13347656 0.2759182
000270 d0 75 81 bc f1 8c bc 3c 89 97 04 bc 82 61 52 bd
       -0.015803248 0.023016425 -0.008092769 -0.051362522
000280 07 4f a4 3c 4c 2f a8 3d a9 ec 29 bd e5 49 4c 3d
       0.020057214 0.08212146 -0.041485462 0.04987516
000290 84 6c b2 bc e7 ce c1 be 6d 3e c5 3e d5 06 25 bf
       -0.02178026 -0.37853166 0.3852419 -0.6446355
0002a0 93 fb ad be 5d 9a 81 bd 12 80 ba 3e 96 d7 37 3d
       -0.33980998 -0.063282706 0.36425835 0.044883333
0002b0 54 c3 bb 3d 6c fc 14 3e 34 92 ab 3d 3a 23 f3 3d
       0.09168115 0.14549416 0.083774954 0.11871953
0002c0 3c 7a 93 3d 15 0a 27 3e db 13 87 be 05 b3 1f be
       0.07201049 0.1631244 -0.26382336 -0.15595634
0002d0 9e 72 08 bf 6f f7 5c be 55 d4 50 be c1 7e 98 be
       -0.5329989 -0.21578763 -0.20393498 -0.29784206
0002e0 a0 9d b5 3e a4 d7 f4 bd 6c 7f b6 be e0 15 9e be
       0.3547182 -0.11955193 -0.3564409 -0.30876064
0002f0 7e 7d 58 be e0 24 89 3e 51 97 4f 3d 05 42 12 3d
       -0.21141621 0.26785946 0.050681416 0.035707492
000300 ca 1b 7f 3e bf 57 9f bf 23 aa 7a bd d5 73 96 3e
       0.24912944 -1.2448653 -0.06119741 0.29385248
000310 f5 98 2a be df f0 2b 3d a4 59 03 bd 58 4f 92 bc
       -0.16659911 0.04197776 -0.03206791 -0.0178601
000320 c2 42 8b bd 4d af ad be 4d 76 8f bd b6 d5 a0 3d
       -0.067998424 -0.33922806 -0.07004986 0.07853262
000330 8d 90 ad be 6d d8 c8 be 10 01 d9 3d 44 5d ba 3d
       -0.33899346 -0.3922762 0.10595906 0.0909982
000340 8f 4e 35 bc 89 74 72 bd 71 e1 15 3d 9a 27 03 be
       -0.011066093 -0.059193168 0.03659195 -0.12808076
000350 d0 02 41 3a 71 4c 67 3d 39 6b 03 3e 1f 39 a0 3b
       0.0007362785 0.056469385 0.12833871 0.004889622
000360 17 74 35 be 27 7a 75 be 0b 2e bd be d9 d1 6d be
       -0.17720066 -0.23972379 -0.3694919 -0.23224582
000370 5f 10 92 3e 28 5d 2f bf f5 12 67 be c6 2b ee be
       0.28528115 -0.6850152 -0.22565825 -0.4651777
000380 6d c3 61 be 10 39 1f 3e 94 2a dc bc 1a d6 c0 3c
       -0.22047205 0.15549111 -0.026875772 0.023539592
000390 d6 27 16 bd 57 7d 63 be 3d bf 0c be 06 ec 3b bd
       -0.036659084 -0.22215782 -0.13744827 -0.045879386
0003a0 1e a4 c9 bd ef 95 ea bd 28 1e 5f be 38 ea 67 3b
       -0.09845756 -0.11454379 -0.21788847 0.0035387408
0003b0 9d d3 06 bc 68 1e f7 be b5 e1 d6 3e c3 79 a6 3d
       -0.0082291635 -0.48265386 0.41969076 0.08128693
0003c0 98 fe e9 be eb 2d 8d be 2d 3e 0e be 60 c4 9d 3d
       -0.45702052 -0.27574095 -0.13890906 0.07703471
0003d0 95 bd 30 3e b6 fc f7 3d ce 1e 13 3e 5c 7d 1b be
       0.1725982 0.12108748 0.1436722 -0.1518454
0003e0 5a a3 e9 3c b4 49 39 3e 6a 75 47 be 9a 8f 0a 3e
       0.028520275 0.18094522 -0.19478384 0.13531342
0003f0 cc 5f be 3d 0f bd 86 bd 83 df 07 bd 4e f9 55 3d
       0.092956156 -0.06579029 -0.03317214 0.05223971

conv3.bias f4 [10]
000000 4d b6 55 3d a3 6d c7 3d 1d 78 88 3d 4f 97 7f bd
       0.05217581 0.097377084 0.06663535 -0.06240016
000010 03 44 ce 39 3b 58 b5 bd c8 1d 29 bd c2 33 44 bd
       0.00039342055 -0.08854719 -0.041288167 -0.047900923
000020 25 55 b7 bd 48 09 13 bd
       -0.08951787 -0.035897523

linear.weight f4 [4, 160]
000000 98 f5 a6 ba d9 00 04 3d 6d 52 92 3b ca 0d 22 be
       -0.0012737988 0.03222737 0.0044653923 -0.15825573
000010 c9 52 14 bd 6c 6e 96 3d b1 e6 9d 3d e0 87 a7 3d
       -0.036211763 0.0734528 0.077100165 0.08180213
000020 56 4d 47 3c 63 15 09 bb 18 b6 96 bd 53 86 c5 bc
       0.012164434 -0.0020917288 -0.073589504 -0.024111902
000030 78 59 bf bc fc b1 86 3d ca f8 a3 3d b8 f3 17 bd
       -0.023358092 0.065769166 0.08006437 -0.037097663
000040 75 ef 16 bc cc 76 a7 bc 77 22 5b 3c 0e 0c cd 3c
       -0.009212364 -0.020442389 0.013374916 0.025030162
000050 99 16 1e 3d 68 73 ed bc 5d d8 fd bd 33 6f ed 3d
       0.03859577 -0.028985694 -0.12394784 0.11593475
000060 34 f6 26 3b 2b 76 85 3d 02 6c 27 3c 7a 30 d5 bc
       0.0025476338 0.065166794 0.010218622 -0.026024092
000070 4d b6 99 bd 3d 78 57 3d ff 6a 8b bd 76 24 ba bb
       -0.07505474 0.052604903 -0.06807517 -0.005680616
000080 97 96 9a bc 83 f8 22 3d f6 e9 09 bc 7d 37 1f bd
       -0.018870635 0.03978778 -0.008417597 -0.038871277
000090 52 1d 03 3d d4 33 93 bc 8a 2d b2 3d 29 00 34 3c
       0.032010384 -0.01796905 0.08700092 0.010986366
0000a0 e7 1d 03 bd 96 f6 5a bd 76 65 84 3c 69 cd 52 3d
       -0.03201094 -0.05345782 0.016161662 0.051465426
0000b0 7c b7 ef 3d 8a 31 65 bd 0c c4 53 3d 18 01 d8 3c
       0.11704919 -0.055955447 0.051700637 0.026367709
0000c0 29 f0 df 3c 62 ee 0e bd b4 55 02 bc bd 3a 9f 3d
       0.027336197 -0.03489531 -0.0079550035 0.07774875
0000d0 34 fd 0c 3d 25 ec 12 bd 94 02 c1 bd 1c 16 b5 bb
       0.03442116 -0.035869736 -0.0942432 -0.0055263173
0000e0 47 9e f1 bc dc a8 8e 3b 7f 91 96 3d ac 8b d9 3b
       -0.029494418 0.0043536257 0.0735197 0.0066389646
0000f0 fd 19 4c 3c 9a bb 76 bd ca 2b bb bd 71 ee 88 bb
       0.012457368 -0.060237505 -0.091392115 -0.004178815
000100 4d a5 0a bc 4a 47 11 bd 35 c2 4b 3c 54 a5 42 3d
       -0.008462262 -0.035468377 0.012436439 0.04752095
000110 93 4e 37 3d ee 6e 09 bc 99 2e 2b 3e af 1b f7 3c
       0.04475267 -0.008388264 0.16716994 0.030164568
000120 5b 88 5e bd 10 80 17 3b 39 fb 06 bd fe 70 af bc
       -0.054329257 0.0023117103 -0.03295443 -0.021416184
000130 fc f7 0e bc 2f 21 ab bc 16 0a 84 3d 6e 42 ac 3c
       -0.008726116 -0.020889847 0.06447236 0.02102777
000140 e6 48 0b bb e9 14 9a bc 35 90 01 3d be 35 dd 3c
       -0.0021253168 -0.018808799 0.031631667 0.027003165
000150 a2 12 99 bd f7 d8 81 3c f6 2c 56 3d bc ad 90 bb
       -0.07474257 0.015850527 0.05228897 -0.004415242
000160 fb f2 80 bd a5 27 95 3c 18 b2 e6 3c 98 9c 89 3d
       -0.06296345 0.01820738 0.028161094 0.06719321
000170 ef 39 2a 3d 76 f7 08 bc a1 36 e9 b9 33 44 bb bd
       0.041559156 -0.008359781 -0.00044481925 -0.09143867
000180 1d b1 d1 3b 7c 85 be bc 59 17 a6 bc b4 77 9d 3d
       0.0063992874 -0.02325701 -0.020274805 0.07688847
000190 8f 08 a3 bd bf 7b 54 bd 73 c8 9f bd 90 f5 fb bb
       -0.07960617 -0.051875826 -0.078019045 -0.0076891854
0001a0 47 64 6f bb 68 bc 11 bc 79 71 0c bd 0b 75 f4 3b
       -0.0036528276 -0.008895017 -0.034287903 0.0074602417
0001b0 66 bc 1f bd a6 5d 2b 3d 78 2e 8e 3c 98 2b 50 3d
       -0.03899803 0.041837357 0.017356142 0.050822824
0001c0 0e be a2 3c 88 a3 00 3a d5 e5 92 3d 50 1e 78 bc
       0.019866016 0.00049071806 0.07172743 -0.015143946
0001d0 c0 20 73 bd 23 bd 10 3d 58 95 b4 3c e7 9c 50 bd
       -0.059357405 0.035336625 0.022043869 -0.050930884
0001e0 3b f3 14 be 19 3b df 3c e8 34 8b 3a 45 9b 97 3c
       -0.1454591 0.02724986 0.0010620626 0.018506655
0001f0 ec 54 ab bd 15 ff 4e bd 28 66 d1 bc da 43 f2 3c
       -0.08365807 -0.050536234 -0.025561407 0.02957337
000200 07 14 09 bd eb 03 64 3c b4 e6 8d 3c 3c 0c 39 bc
       -0.033466365 0.01391695 0.017321922 -0.011294421
000210 45 dc 26 3d 4c 40 85 3b 89 bd 1e 3c af 30 ee 3b
       0.04073741 0.0040665027 0.009688743 0.007268987
000220 3e 4e 2c 3d 64 f0 d6 3c bc 37 ff 3d 7e ee 21 bc
       0.042066805 0.026237674 0.12461802 -0.009883521
000230 c6 6b 71 3c ef 50 28 3d 7c b6 71 bd 5a be 14 3d
       0.014735168 0.04109281 -0.05901192 0.036314346
000240 3a 46 7c 3c 1e f5 03 bd 9d 83 71 3d 54 76 a9 bc
       0.015397603 -0.032216184 0.058963407 -0.020686306
000250 47 da 68 bd 1a df 8b 3c 69 01 9c bc c3 9b 8e bd
       -0.05684879 0.017074157 -0.019043641 -0.06963303
000260 78 aa 3a 3d 37 1d a6 bd 55 08 cb 3d a5 e5 8f 3b
       0.045572728 -0.08111041 0.099136986 0.0043913894
000270 f8 de 78 3d b6 04 5b 3c 1f e0 4e 3c f1 a9 83 3c
       0.060759515 0.013367822 0.012626677 0.016072245
000280 a2 51 c2 3c 20 97 06 bd 23 d6 9a bc a7 54 ab 3d
       0.023720566 -0.032858968 -0.018900936 0.083657555
000290 5b 9c 63 be f1 18 20 3d ed 14 22 3c d4 55 ad bc
       -0.22227614 0.039086286 0.009892684 -0.02115909
0002a0 4d c5 bf 3d bf b7 05 bc b9 a5 4a 3d c5 3b 8f bc
       0.09363804 -0.008161484 0.04947445 -0.017484555
0002b0 3c 58 38 bc b6 69 c4 ba 2c 59 d1 bc c5 4e 40 bd
       -0.011251505 -0.0014985118 -0.025555216 -0.04695012
0002c0 aa 1d 84 3d ff 36 a6 bd 7c 14 a7 bd 95 0e 84 3a
       0.064509705 -0.081159584 -0.08158204 0.0010075147
0002d0 4d c3 ae 3c 97 16 9e 3d 25 d8 28 3e 0f 5d 1b bd
       0.021333361 0.077191524 0.16488703 -0.037930544
0002e0 8e 0c 9a bc 63 16 c8 3d 82 ad e8 bd 75 a3 0d bd
       -0.018804815 0.09769895 -0.11361219 -0.034579713
0002f0 25 1c 5e 3c be 15 8f 3c bd 82 23 3e 75 36 0e 3d
       0.013556515 0.017466422 0.15967841 0.034719903
000300 49 87 00 3e fc 83 6b 3d 41 de fc 3d e3 c7 e1 3c
       0.12551607 0.057498917 0.12347079 0.027561134
000310 d4 55 94 bc e6 3e 6a bd 6b d4 b2 bb 31 98 68 3c
       -0.018107332 -0.05718889 -0.005457451 0.0141964415
000320 4c f1 9b 3d cc 4d 22 3d 70 a7 e7 3b ff b9 0f 3d
       0.07614383 0.039624974 0.0070695207 0.03508949
000330 3e 88 cc 3d b3 85 0f 3e d1 3d 4e 3c 14 9a 54 3d
       0.09986924 0.14015846 0.01258798 0.051904753
000340 32 ab a9 39 cd 9e f5 bd db 7e f2 bd a5 9b 7f 3d
       0.00032361742 -0.119931795 -0.11840602 0.062404294
000350 51 84 b6 bd 16 1b 3b 3c 56 49 5d 3b 00 32 27 3d
       -0.08911956 0.011420032 0.0033765635 0.040819168
000360 d0 e5 24 3e dd 1a 83 3d 94 26 97 3c a4 8f 80 bd
       0.16103292 0.06401608 0.018451013 -0.06277397
000370 28 87 50 3d 9c ab 53 bd f6 fe ea bc 08 29 14 bc
       0.050910145 -0.05167733 -0.028686028 -0.009042986
000380 bb 19 61 3d df 42 24 3c 46 18 b4 3d 40 47 4d bc
       0.05495618 0.010025709 0.08793692 -0.012529194
000390 28 9c 3f be 64 73 75 3d 6f a7 55 3c 7d 54 00 be
       -0.18711913 0.0599245 0.013040408 -0.1253223
0003a0 56 0c 63 3d 02 d7 0e bd f0 6c 84 3e a5 d8 3e 3d
       0.055431686 -0.034873016 0.25864363 0.046593327
0003b0 7b 96 ee 3d 82 65 81 3c df 08 65 bc ca 33 88 3d
       0.116497956 0.015795473 -0.013979166 0.06650503
0003c0 b3 0b 96 bd 5e 53 19 3d 8a f3 1f 3d f2 da 16 3e
       -0.0732645 0.03743302 0.039050616 0.14731959
0003d0 06 5d ae 3d 55 cc 4d bd da c8 86 3c db 03 bb 3d
       0.085138366 -0.050243694 0.016453195 0.09131595
0003e0 8c e2 25 3d c5 e1 fa bd 6e e7 20 3e 41 e8 19 3c
       0.040499255 -0.12250093 0.15713283 0.009393753
0003f0 cc b4 1f 3d 14 b3 44 3c 60 59 1f bd 8a b4 0c be
       0.03899078 0.012005586 -0.038903594 -0.13740745

linear.bias f4 [4]
000000 b7 ac 4b 3b 19 30 34 3c 99 20 15 bd 28 56 f1 3d
       0.0031078288 0.0109977955 -0.03640804 0.11784011
